checkpoint.pth (torch_old, 120952 bytes, 8 tensors)

model.0.weight f4 [128, 37]
00000000: 8e57 e93c 3c67 db3d 27f3 a2be 1053 f3bc
00000010: 72f9 023e 09d5 d63d 7cff b43d 7b20 6f3b
00000020: ce38 e3be 6841 df3c fdec 983d 0393 c6bd
00000030: 0235 6dbe 48fd 95be b87d 9ebd aa58 1b3d
00000040: ed3b 6ebe 4fbb 493e 9cff 9bbd 84eb b6bd
00000050: 37a6 793a d9ed 3e3e e54b 54be 5aba 5b3e
00000060: d1b6 003c a1b9 a03d 861b 003e 38f0 76be
00000070: 3ab1 76be ae9e 0dbe 237b cdbd 5836 663d
00000080: b321 e23c d204 1bbe 2b25 56be 4f13 37be
00000090: a045 bfbd baad 8c3e 31d3 543d 0a65 f0bc
000000a0: 181a d5bd fde1 00bf 4d6a d23d 9a63 1cbe
000000b0: 7756 59be 1326 15be 5f99 e8be 4550 993d
000000c0: b84d 4ebd 20f1 4bbd 1fed d33d f171 183e
000000d0: 6d96 cb3d 2064 55bd 524f 823d fab4 91bd
000000e0: 9aaa cd3d 4d33 e9bd 85e0 b0bd 66d5 babd
000000f0: bd5b 0abe 3108 9d3d 3e4e 92bd 128c 5fbd
00000100: f931 c53d 715d 20be 6a6d 743d 433b b03d
00000110: 1d9b b63d c5e4 893d 9866 ebbd 134c b7bb
00000120: 73c2 f4bb 109c 183d cccf 8e3e 0c08 2f3e
00000130: f384 37be 7659 283d c7d2 833d ae5c 89bb
00000140: f937 8fbe f515 4a3e 08f8 aabc 6668 09bf
00000150: 6e8a 2ebc e0f3 34bd c40b 30bc a39f aa3b
00000160: c1e3 de3d d6a0 10be 7724 143e ad75 283e
00000170: 9a3c 423d 32ea 1cbe 1012 e0bd fe8f 17be
00000180: 6d48 d93d 9650 2cbb 8a8c d1bd 8d54 92be
00000190: 4e1a 163e d036 953e a906 0cbe 8c2d 713c
000001a0: af3a e6bd 7ba3 813d c68c 8fbd 1102 09be
000001b0: e194 25be 60b8 1a3d 61d0 5fbd bcbc 033e
000001c0: ed04 373d e433 343e 3f2d 1e3d 80cd 2bbf
000001d0: 898d d33c 748a 6f3c 0401 c63b f725 e53d
000001e0: 5d5b 173d 846d 933d 00b4 17bc 84a5 69bd
000001f0: bda0 523c defb a1bd 4f14 f93c c50b 74be
00000200: 5bd8 81bd 8fb2 10be a980 42bf 5024 063e
00000210: d3d2 1c3d a7ec 36bd a307 a93c 3db4 44be
00000220: 6d89 df3c 3e9b a0bd aa6e d53d 4915 2b3e
00000230: 3df3 333e 8735 0b3e 7f29 ab3d 4761 b23c
00000240: 3feb 963b c6c1 4dbe 078a d13c afc8 e5ba
00000250: 2a65 9cbd ba8c 43be 68ed d8bd ac04 9ebe
00000260: adb2 6ebe 8d58 323e f7f8 a6be 5c08 13bd
00000270: ac88 31be 5bae e63e 71e5 0cbe 6dd9 15be
00000280: 1da3 4e3d eeea 84bd 7f99 c0bd 96cf a6bc
00000290: 4a56 76be 8dca 88bd 6534 28be 846d a2be
000002a0: 421d 13be ff82 9c3d f589 a43d 0d6f 1dbd
000002b0: 8d56 083e b4f3 bebd 656a 1ebb f546 7a3e
000002c0: c4d2 44be 8aa0 57be 2a60 573e 6206 9abe
000002d0: f90a 59bd b7e7 c5bc a08a 86bd d12e 723d
000002e0: 59cd 343d 264e c0ba 1a63 5cbd 786a 7a3d
000002f0: e922 4abe 18a2 c43d ecb7 303e 2668 3c3e
00000300: 51f1 eabd 0144 a4be 5af9 09bf a5db f6bd
00000310: 0409 bdbd 6f37 843d bdc7 01be fb03 1d3c
00000320: 91b3 2c3d ee75 643d a1db 24be c163 35be
00000330: 3c49 873e 0699 233e 1a37 abbd a9c0 f23d
00000340: 1892 35bd 8770 c6bc 186e 4cbc c6ce 99bd
00000350: 5a0f dc3d 2212 41be 1b43 553e 53e8 b03c
00000360: deaf d8bd d6bb 05be 4f23 e33d cfcc fbbd
00000370: 9a65 2a3d 37f3 1a3d ad42 0f3e 49f3 c8bd
00000380: 22a1 72be f66d 623c 4b32 eabe fd4a 51be
00000390: cf64 c7bb e0bf 6dbd 7770 cb3d aa1c 493e
000003a0: e910 85bd 54d5 1f3e 5b57 2c3e de4c 4cbe
000003b0: b0fa 043d 35f7 8fbe d321 3abd cc05 d63d
000003c0: 5c8e 373e 51b8 763e a020 8c3c bbf2 a6bd
000003d0: cd09 56bb a1e2 f0bc 749b 923e b0c4 81bd
000003e0: 7d2f 65bb f042 9bbd ea5f 8abe 655f 3b3e
000003f0: 625a 193e 86b7 23be 0477 b4bd e99b a0bd
0.028484132 0.1071305 -0.31826136 -0.029702693 0.12790468 0.10489852 0.08837792 0.0036487866
-0.44379276 0.027252868 0.07467077 -0.09696009 -0.23164752 -0.292948 -0.07738823 0.037926354
-0.23265047 0.19700359 -0.07617113 -0.0893164 0.0009523364 0.18645419 -0.20732076 0.21457806
0.007856087 0.07847906 0.125105 -0.24115074 -0.24091044 -0.13830063 -0.10033252 0.05620417
0.02760396 -0.15138558 -0.20912616 -0.1787846 -0.09339452 0.27476293 0.05195922 -0.029345054
-0.104053676 -0.5034483 0.102741815 -0.1527237 -0.2122439 -0.14565305 -0.45429513 0.07486013
-0.050367087 -0.0497905 0.10347962 0.14887215 0.09940801 -0.05209744 0.063627854 -0.07114597
0.10042305 -0.11386738 -0.08636574 -0.09122734 -0.13511558 0.07667578 -0.0714383 -0.05457694
0.09628672 -0.15660645 0.059674658 0.08605053 0.08916304 0.067330875 -0.114941776 -0.0055937856
-0.007469469 0.037258208 0.2789291 0.17092913 -0.1792181 0.04110094 0.06436687 -0.0041919565
-0.2797239 0.19734938 -0.020870224 -0.53674924 -0.010653121 -0.04417789 -0.010744993 0.0052070185
0.10883284 -0.14123854 0.14467035 0.1645114 0.047421075 -0.15323713 -0.10940945 -0.14801022
0.10609517 -0.002629315 -0.10231884 -0.28580132 0.14658472 0.2914338 -0.13674416 0.014720332
-0.11241662 0.063300095 -0.07009272 -0.13379695 -0.16170074 0.03777349 -0.054642085 0.12864965
0.044682432 0.1759792 0.03861737 -0.67110443 0.025824325 0.014620412 0.0060426015 0.11188882
0.036952365 0.07198623 -0.009259224 -0.057042614 0.012855706 -0.07909368 0.030405192 -0.23832615
-0.06340095 -0.14130615 -0.7597757 0.1309979 0.038286995 -0.044659283 0.020633524 -0.1920938
0.02728721 -0.0784211 0.10421498 0.16707338 0.17573257 0.13594638 0.08357524 0.021774901
0.0046056802 -0.2009345 0.025578512 -0.0017531122 -0.07636483 -0.19096652 -0.10592157 -0.3086294
-0.23310347 0.17416592 -0.3261182 -0.035896644 -0.17337292 0.45054898 -0.137594 -0.14633723
0.050448526 -0.06490122 -0.09404277 -0.020362657 -0.24056354 -0.066792585 -0.16426237 -0.3172418
-0.1436663 0.07642173 0.08034126 -0.038435984 0.13314267 -0.093238264 -0.0024172303 0.2444113
-0.19221026 -0.21057335 0.21032777 -0.30082995 -0.05298898 -0.024158342 -0.06569409 0.05912668
0.044141147 -0.0014671728 -0.053805448 0.061136693 -0.1973988 0.096012294 0.1725766 0.18399104
-0.11471809 -0.32083133 -0.53896105 -0.120536126 -0.09230235 0.064558856 -0.1267385 0.009583469
0.042163435 0.05577653 -0.16099407 -0.17713834 0.2642306 0.15976343 -0.08360119 0.11853153
-0.04432878 -0.02422358 -0.01247742 -0.07510142 0.107451156 -0.18854573 0.2082638 0.021595156
-0.10580419 -0.13059935 0.11090719 -0.122949235 0.0416008 0.037829604 0.13990279 -0.09812028
-0.2369428 0.013820162 -0.45741495 -0.20438762 -0.0060850154 -0.058044314 0.0993356 0.1963984
-0.06497366 0.15608722 0.16830198 -0.19951198 0.032465637 -0.28118291 -0.045442414 0.104503244
0.179254 0.24093749 0.0171054 -0.08151766 -0.003265965 -0.02940494 0.28634226 -0.06336343
-0.0034970932 -0.07581127 -0.27026302 0.18298109 0.14975885 -0.15987977 -0.08811763 -0.078422375

model.0.bias f4 [128]
00000000: f2ff a5bd 16be 6a3d 9d13 87bd ad50 123c
00000010: 2384 653c fa97 cdbd e85a 533d 3262 c63d
00000020: 2c0c 0fbe 0313 29ba bba0 d0bd dc5f 8cbd
00000030: 7397 90bd 9d37 0abd 9099 9abc 682a 073d
00000040: 4833 683d 6a3f 4bbc c653 48bd f371 1a3d
00000050: 4990 59bd 2266 db3d dfcb 093e 297b 903c
00000060: b15f 55bc 7bd5 463e 7b0c 043e 428a 4cbe
00000070: 4476 aebc 32a8 b3bd 432e 053e 0ad4 1c3e
00000080: 5e5b 6ebd 59c4 823d e80c 783b b6f0 3cbe
00000090: 3ab7 413d 84ac da3d addc 643d d2e5 803c
000000a0: b243 a73d 9a33 e43d 6041 263e 1009 7f3d
000000b0: cf8f 703d fcf4 9fbd 1899 823d 66b0 98bd
000000c0: 41b4 ebbd a5fa 8e3d 3fad 323d 17db 693d
000000d0: 7c86 843d cb53 1c3c a46f 413d c9d6 ba3d
000000e0: 11b1 7ebd bc18 e83c ee06 063d 8d47 6fbd
000000f0: 2375 20be 07b6 9a3d 49b4 9e3d 434e b4bd
00000100: 5a6d e83d 6df3 0c3d 650b 1a3d a1d9 a0bd
00000110: 204d 17be bfab a0bd f80f df3c a786 a4bd
00000120: 01be da3d f236 48be 2cd6 abbd 3bc3 fbbc
00000130: 55d6 2b3e dd86 b4bd 26c7 8b3d a480 813d
00000140: a764 97bd 51db a13d 57f0 a23d 9bb9 d9bd
00000150: d017 423c 9189 403e 6e71 f43d f5b9 80bd
00000160: 39b5 4b3d 665b 313d 257f 213e f8d0 083d
00000170: 86e5 b3bd dd6a 1ebe 972f b6bd 6ab1 d33d
00000180: d028 06bd 1f18 0fbe abdf bebc ed9d 213e
00000190: 3300 10be c5d9 26be 119e c73d 5fe0 613e
000001a0: 0158 44be ac5b 27be 1ccd 91bc e484 df3d
000001b0: 3316 0fbe ca10 0fbc a61a 2d3e 7deb d2bd
000001c0: 829f 91bd e36f a9bd a6ef 033c fc62 343e
000001d0: fb81 9c3d 1aad 1a3e ac16 32bc dcd9 733d
000001e0: ddcd 6abc c229 7c3d 3aa7 a7bd afde 14be
000001f0: 7e7a 24bd b5cd a03c ee3b 0f3e 377b 32bd
-0.08105458 0.057310186 -0.06595538 0.008930367 0.014008555 -0.10038753 0.051600367 0.09686698
-0.13969487 -0.00064496713 -0.10186907 -0.06854221 -0.07060137 -0.033744443 -0.018872052 0.032999426
0.05668953 -0.012405256 -0.048908018 0.037706327 -0.053116117 0.1071284 0.13456677 0.017636852
-0.013023303 0.19417374 0.12895386 -0.19974616 -0.021296628 -0.08772315 0.13005929 0.15315261
-0.058192603 0.063851066 0.003784949 -0.18451199 0.04729388 0.10677436 0.055874515 0.015734587
0.08167209 0.11142655 0.16235876 0.062264502 0.058730897 -0.07810399 0.063768566 -0.0745552
-0.1150899 0.069814004 0.04362225 0.057093706 0.06470963 0.009541462 0.04722561 0.09122998
-0.062180582 0.028332107 0.032721452 -0.058417846 -0.15669684 0.0755425 0.077492304 -0.0880399
0.11348982 0.034411836 0.037608523 -0.078540094 -0.14775515 -0.07845258 0.027229294 -0.080334954
0.106807716 -0.1955221 -0.083904594 -0.030732742 0.1678098 -0.08814786 0.06825094 0.063233644
-0.07392245 0.079031594 0.079559974 -0.106311046 0.011846498 0.18802477 0.119356975 -0.062854685
0.049733374 0.043300055 0.15771158 0.033402413 -0.087840125 -0.15470453 -0.08895796 0.103365734
-0.032753766 -0.13974045 -0.023300013 0.157829 -0.14062576 -0.1629401 0.09746946 0.22058247
-0.19174196 -0.16343564 -0.017798 0.10914019 -0.13973312 -0.00873203 0.16904697 -0.10298822
-0.07110502 -0.08273294 0.008052742 0.17615885 0.07641979 0.15105096 -0.010869663 0.05953394
-0.014331308 0.06156326 -0.08186193 -0.14538072 -0.04015588 0.019629339 0.13987705 -0.043574538

model.2.weight f4 [128, 128]
00000000: 4ab5 04be ea48 e7bd 55d8 8bbe a501 653e
00000010: f4eb 703d 3068 043d 1357 b53d c036 ad3d
00000020: 1796 073e 3fc6 613d 0672 0d3d c6da dd3d
00000030: 8ce7 d13d 317e f33b 750c 05bd b2d6 d73c
00000040: 5c66 923c a5eb 2cbe 996c 59bd 7bf8 11be
00000050: 3bb9 123e 0348 d4bd 9cf5 1bbd af9a 7f3c
00000060: 218e 8fbd a96c 263d f21d 06be 8da9 033d
00000070: 2d26 73bc cad3 4fbd 1b9f a53c 6811 113d
00000080: c555 a33c d999 20bc c20c 84bd 5939 12bd
00000090: 685d fc3d 9ede 0d3c b3e3 3a3c e445 8a3d
000000a0: 74fc 94bd da39 e4bd 808f babd 3152 babc
000000b0: e30a 143e 9068 07bc 84b0 8abd b364 0ebe
000000c0: a5dc 813d 90d8 debd 29c1 153c d57f a8bd
000000d0: 0950 1abd 1d5c 183d 6767 b7bb 8502 8e3d
000000e0: ad6f e23d 1d2b 8cbd 05aa 7d3d 9233 973d
000000f0: 2139 10bc 6b35 53bd 4d9d 833d 43a8 6f3c
00000100: ddc4 863d 5ca5 b33d bd79 4f3d 38d6 dabd
00000110: 94fd 863d c0c7 133d 9a79 7e3d bef8 dabc
00000120: bc25 59bc 8b65 f2bc 599b cc3d 45fa 0dbc
00000130: 7f72 dc3d 571d 523d dfdd cd3c da90 0d3e
00000140: 14c3 07bc 9397 babc 827c 72bd a56e e2bc
00000150: 6249 4fbe 1c95 523c 4a33 03bd dac3 61bb
00000160: fab2 013d cd39 a03d 2071 41bd 67de d5bc
00000170: 8832 dbbd 472e 0ebe c31b 2b3e 4a85 e13c
00000180: 3dea 503b c3db a13c a45f 58bc 88b5 603d
00000190: cc32 113e e37d d03c 879b c2bd 8be0 a9bd
000001a0: 8a4b 95bd 5162 2e3d 3502 f9bc 37d8 c4bd
000001b0: fbf3 243e 7858 44bd 19df 9ebd 776f 013d
000001c0: cd13 3cbc c358 e53d 6f08 cfbd 8725 b5bd
000001d0: 13ee b6bc 07fa d83d 3343 c2bd 05c3 0abe
000001e0: 767c 5a3e c82f 15be 53bb a43c 08e9 3abd
000001f0: 2719 c13d 31ab 07bd 4c06 1ebc 717c 97bd
00000200: e937 393d ce0d 5f3c f366 14bd ca68 a13d
00000210: 8472 c9bd f6fd e63c ce73 723d dd32 8b3b
00000220: 89a2 553b eda1 3cbd 83bb c03d e2dc 0a3c
00000230: d3f9 f2bd ede1 013e ba40 d13c 54bd 37bd
00000240: e199 8b3c 715e 633c b04b 0abe e4dd 653b
00000250: 9bd3 f1bc bbb1 fc3c 64f2 053d b78d 28bd
00000260: a709 87bd d1d0 113d 0827 d0bb 837f 5cbd
00000270: 0096 08be 7705 85be 010c 153e e064 dbbd
00000280: a851 96bd 5cda 8ebc 9e68 fe3d 3b95 a3bd
00000290: faf7 923d c117 9d3b 20b9 dbbe 2803 0abe
000002a0: f536 0dbe 270b 423d e8b4 71be 07c1 b5bd
000002b0: b476 fe3d b7fe edbc 36be 09bd 0013 c83b
000002c0: 0f6f 7ebd 0a00 09b9 7390 553e 911f 82bd
000002d0: 930d 623d 4d95 59bd 36e2 013d 41ea 22bd
000002e0: 8c8d 1abd 81fc c5ba a70f 0fbe a96c 54bd
000002f0: 5fb8 3b3d acc5 463e ab1a 253c 94f2 be3d
00000300: 1e97 a73d 671a 143e 9508 3bbd 33f3 5f3c
00000310: 0dfc ad3e 78c0 0a3e 689f 423d e840 323c
00000320: a2c2 b5bd d831 86bd 0086 1c3e 71a4 0f3d
00000330: 2f5b d63b 0f8a 23bd 4f34 9ebd afec 9d3d
00000340: 8f81 2a3c 865e 983d cd4d 1d3e 1fb1 32bd
00000350: 0fc4 04bd 5b78 84bb b68f 893d b015 35bd
00000360: 8e67 d53c ff0d 5dbd 454f 72be f75b dbbe
00000370: 73f0 e73d d5fb 9d3d cb8c 37be 9310 fd3b
00000380: 69cd 07be 450c 033e c1d2 90be f095 fbbd
00000390: ed10 693d 8c3b 1a3d bfe4 ab3d 7f4b 093d
000003a0: bc27 833d 1871 98bd 0f1b 293d 7320 823d
000003b0: 3381 3dbd 58b2 53bd 9f6f dd3d ffc0 a53c
000003c0: 8a2e 033d f939 043d 1a96 113d 2f2d 8fbd
000003d0: 8470 eabb 2706 a53d 15c5 b93d 1787 27be
000003e0: 809e 0abe 1038 353d e7bf 4fbc 1a0b 49bc
000003f0: 8df0 fabc e277 acba 43fa 4d3e 8647 e1bd
-0.12959781 -0.11293204 -0.27313486 0.22363909 0.058818772 0.032325923 0.08854499 0.08457708
0.13240848 0.055120703 0.03453257 0.10832743 0.10249242 0.0074308147 -0.032482583 0.026347492
0.017871074 -0.16886766 -0.053082082 -0.14254944 0.14328472 -0.10365298 -0.03807603 0.015600844
-0.07009531 0.04063097 -0.1309736 0.032144118 -0.014840645 -0.050739087 0.020217469 0.03541699
0.019938359 -0.009802305 -0.06447746 -0.035699222 0.12322503 0.008659033 0.011406827 0.06751612
-0.07274714 -0.11143847 -0.09109402 -0.02274427 0.14457278 -0.008264676 -0.06771949 -0.13905601
0.06340913 -0.1088115 0.009140291 -0.08227507 -0.037673984 0.03719722 -0.0055970433 0.06934074
0.11056457 -0.06844161 0.06192972 0.07382883 -0.008802683 -0.051564615 0.06426487 0.014627519
0.065805174 0.08771774 0.050653208 -0.1068539 0.06591335 0.03607917 0.062127687 -0.026729938
-0.0132536255 -0.029589435 0.09990568 -0.008665626 0.10764026 0.051297512 0.02513021 0.13824788
-0.008286256 -0.022777354 -0.05920077 -0.02764065 -0.20242837 0.012852933 -0.032031335 -0.0034449012
0.031664826 0.078235246 -0.047227025 -0.026107026 -0.107029974 -0.13884841 0.16709809 0.027529377
0.0031877898 0.01975811 -0.013206396 0.05486062 0.14179534 0.025450652 -0.09502321 -0.08294781
-0.072897986 0.04257423 -0.03039656 -0.09611552 0.16108696 -0.047935933 -0.07757396 0.03160044
-0.01147933 0.111985706 -0.101090305 -0.088450484 -0.02233032 0.10594564 -0.094854735 -0.13550957
0.2133654 -0.14569008 0.020108854 -0.045632392 0.094286256 -0.033122245 -0.009645056 -0.07396782
0.045219336 0.013614131 -0.036230993 0.07881315 -0.09836295 0.02819727 0.05919247 0.0042480067
0.00325981 -0.046052862 0.09410765 0.008475514 -0.118640564 0.1268384 0.02554356 -0.04485829
0.017041149 0.013877497 -0.13505435 0.0035074884 -0.029519847 0.030846467 0.032701865 -0.041150775
-0.06593638 0.035599533 -0.006352309 -0.053832542 -0.1333847 -0.25980732 0.1455536 -0.107126
-0.073397934 -0.017438106 0.12422298 -0.07987448 0.07176204 0.0047940915 -0.42914677 -0.13477767
-0.13790496 0.047373917 -0.23604167 -0.08874708 0.124249846 -0.029052122 -0.033628665 0.0061057806
-0.062117632 -0.00013065353 0.20855884 -0.06353677 0.055188727 -0.0531209 0.031709872 -0.039774183
-0.037732646 -0.0015105159 -0.13970815 -0.05186144 0.045830127 0.19411343 0.010077159 0.09323612
0.0818312 0.14463197 -0.04566248 0.013668823 0.33981362 0.13549984 0.047515303 0.010879733
-0.08875014 -0.06552476 0.15285492 0.035068933 0.0065416317 -0.039926585 -0.07724821 0.077111594
0.010406866 0.07439904 0.1536171 -0.043625947 -0.03241354 -0.004042668 0.06716864 -0.044210136
0.026050355 -0.053968426 -0.23663051 -0.428436 0.11325159 0.07714049 -0.17924802 0.007722923
-0.13261952 0.12797649 -0.28285792 -0.12284458 0.056900907 0.037654445 0.08393239 0.033519264
0.06404063 -0.07443446 0.04128557 0.063538454 -0.046265792 -0.051683754 0.10812306 0.02023363
0.032026805 0.03228185 0.03554354 -0.0699104 -0.007154526 0.08057814 0.090707935 -0.16360126
-0.13537025 0.04424292 -0.01268003 -0.012270713 -0.030632282 -0.0013158286 0.20114999 -0.1099997

model.2.bias f4 [128]
00000000: 893a 2f3d 50c2 efbb 7df9 d7bd a40d c63d
00000010: e36b d8bd d0fd 663d cae2 e03d 121f 073c
00000020: b6d0 75bd f30c 5d3d 6536 173e 29a3 703d
00000030: 42d2 e5bd 3850 41bb 592a fa3d 1c80 8abd
00000040: 5590 91bd 428a 5ebd 5080 30bd 1a73 c2bd
00000050: 8382 abbd 57df c4ba e9f8 f8bc 4bfd c43c
00000060: f33e 20bd a3bb 05bd 513e 82bc 6787 0d3d
00000070: 9475 c2bb 2072 573c 0045 a6bd 3e17 0c3d
00000080: b19e 683d 1424 5abd dcb7 1f3c 6006 51bd
00000090: 1164 3d3d c828 a43d d213 333d 5e5f a2bc
000000a0: c9ab f1bd 2532 223d e93a bd3d 2b4e b93b
000000b0: 6f44 adbd 5733 a53d 6e19 96bc 6458 8e3d
000000c0: 4b3c d53d 4a1e 97bd 7594 483d ca83 aebd
000000d0: e6b7 b33c a631 94bc 1fdf ac3c f7f8 8a3d
000000e0: 9ec4 52bc 2fdd c93d e8d8 a33d ea77 e23b
000000f0: 9304 7fbb 70b2 55bd b568 f03c a83d 4cbc
00000100: 4a74 8a3d 164b 2cb9 a816 a5bc 1973 acbb
00000110: 1c17 fb3c 7ccf 0d3d 85da a53c 556d edbc
00000120: d304 98bd 09f1 043d e9b5 72bc 14cf 623c
00000130: cc8c 7b3d 57b7 ec3c 824f 57bd 6daa 89bd
00000140: 62cd 61bd 77ab 9dbd 9a1a a63d 0a2f 1cbd
00000150: 72d9 36bd eb5f bdbb 3e8b d8bd fa73 a4bd
00000160: b858 e63c 5d53 313d 427c 1dbc 1acd c13c
00000170: db27 a6bd dd56 af3c 27bd 85bd c057 38bc
00000180: 322b c43d c50e 763b e820 a23c 10c7 1abd
00000190: 5bd7 aebd ef14 933d d3a0 a4bd 2a1a bdbd
000001a0: 39ab 93bc cd4f b03d a485 2e3c eea8 433c
000001b0: b6cf 15bd 1477 5fbd 520b 153d c355 cb3c
000001c0: 9d1b 44bc 4e58 023d dae2 533c 20a5 673d
000001d0: 9d23 ef3d 2331 42bd ff80 c9bc 0806 6e3d
000001e0: 2d9f 5c3d 8525 603c 6a9b 113d e0b2 41bd
000001f0: 7f5e e0bd 3856 5ebd 2024 433d 2da9 063b
0.042780433 -0.007316865 -0.10545633 0.096705705 -0.10567453 0.0563944 0.109807566 0.008247154
-0.060013495 0.053967427 0.14766844 0.05874935 -0.11221744 -0.0029497277 0.122151084 -0.06762716
-0.07107607 -0.05433107 -0.04309112 -0.0949461 -0.083745025 -0.0015020174 -0.030392127 0.02404656
-0.039122533 -0.032649647 -0.015898855 0.034552958 -0.0059344266 0.013149768 -0.081186295 0.034201853
0.056791965 -0.053257063 0.009748425 -0.05103147 0.04623801 0.08015591 0.043720074 -0.019820865
-0.118003435 0.039598603 0.09239752 0.0056550703 -0.08460318 0.08066433 -0.018322673 0.06950453
0.104118906 -0.07378824 0.048969705 -0.085212305 0.021938276 -0.01809008 0.021102486 0.067857675
-0.01286426 0.098566405 0.08000356 0.0069112675 -0.0038912639 -0.052172124 0.029346803 -0.012465872
0.06760462 -0.0001643117 -0.020152405 -0.005262744 0.030650668 0.0346217 0.0202458 -0.028982798
-0.07422795 0.03245643 -0.014813879 0.013843317 0.06141357 0.028896017 -0.05256606 -0.06721959
-0.05512751 -0.0769872 0.081105426 -0.038130797 -0.044640966 -0.0057792566 -0.10573433 -0.08029933
0.028118476 0.043292392 -0.009612145 0.02365737 -0.081130706 0.021403724 -0.065302186 -0.01125139
0.09578551 0.0037545424 0.019791082 -0.037787497 -0.085371695 0.07181727 -0.08038487 -0.09233506
-0.018025981 0.08608971 0.01065198 0.011942131 -0.03657504 -0.05455692 0.03638775 0.024821168
-0.011969474 0.031822495 0.012932504 0.05655396 0.116767146 -0.04741014 -0.024597643 0.05811122
0.05386274 0.01368082 0.035548605 -0.04728973 -0.10955524 -0.054281443 0.047641873 0.0020547614

model.4.weight f4 [64, 128]
00000000: b372 c33d f519 49be c5a2 abbe 8e10 c83d
00000010: c36d 64be 64f9 843e 0d7a 293c f7b1 a03b
00000020: 9d18 99bd d767 b83d 1371 333e 5311 c6bd
00000030: 8589 40be cd47 7abe 6e62 1f3d bb00 62bd
00000040: 0876 a43d f924 b0be f3bf 2b3e 9df0 4cbb
00000050: e763 e8bc 6795 94bd d9db ecbe 04d5 59be
00000060: cb74 193d e8c0 d03c 5c7c e6be fbb6 223e
00000070: b855 0d3d c129 eb3d c7fe 4abd 8796 02be
00000080: d742 ca3d 76b0 6dbe b3bc cb3d 16d4 033e
00000090: 00b9 60be 87a0 14be fe87 a9be 775c bc3d
000000a0: 6ec9 18be a946 b83d 12dd 80bb 5b36 2bbe
000000b0: 60d3 11be b7fd 36be 1996 f2be 47f2 6f3e
000000c0: 2847 2ebe 05e9 2ebe 9a23 b8bd c7f2 19be
000000d0: ca14 c0bd cbc5 fd3c 233c 893e a257 023e
000000e0: 45b5 3c3d d526 04be 4198 b23e 891f f2bb
000000f0: 5ac1 9dbd 0d1d 08be acdc 2fbe 3f42 08be
00000100: 88d3 c33d 2385 49bd 8811 3f3e 37f1 4f3d
00000110: 3ac9 d13d 3d65 edbd dc72 23be a40c 21be
00000120: b961 b2be 4090 cbbc 726f 31be 0783 a0bc
00000130: 0b1f ddbd 664e c73d 9ac2 67be 6bc7 29bd
00000140: 04d7 a7bb 51f6 1dbd a219 3f3e a677 9abd
00000150: c17a 8b3d e5c3 d4be 319c a73c 37cf 013e
00000160: 46e8 413e 724c 8d3c 7a91 6f3d 2d00 343e
00000170: 45d8 533e d1c4 b93d 9b17 c3bd 06ca 8ebe
00000180: 959a d3bb 78df 9dbe c335 fabb 99b3 c3bd
00000190: d2a6 f53d a2be b73d e6b5 84be 8169 8ebe
000001a0: 0c54 a8bd daf2 be3d 9f10 b0be cf8e 0a3e
000001b0: 2626 453c a346 d5be 227f 03be b5cc a3be
000001c0: a04e 9bbe 790c a9be 0adc 043f d982 80bd
000001d0: 7696 c23e ad80 623e 6e11 96be cfc7 bebe
000001e0: 506f 1abd 0e74 253d ced0 d43d cd3c e73d
000001f0: 8cac c03c fdc0 cc3d d380 a4be 3e92 08bf
00000200: 73ce d9be 4dfb 1ebe f24b 3cbf 849e ebbd
00000210: 9c98 b6bd c26e 36be 5213 043e e2b8 173e
00000220: 9b4a 813d 088c fd3a dbc5 1f3f 71ce c0bd
00000230: a96e a8be 3d65 e3be fe1b 6dbe 4bcc 263e
00000240: fa42 3abc ac32 f7be 5a4b b73d 1943 a9bd
00000250: 3477 12bd b9c5 1cbf 9d89 9dbe cc77 d23b
00000260: 6d80 433e 291e c2bd 1509 5bbd 359c 493e
00000270: d10d 5c3d 81d3 883e ea8b 0fbe 24b9 d83d
00000280: fed9 c0bd 1d38 14be 8ee0 023e 1e1d 8bbc
00000290: ec15 36bf b374 a4be a8da fdbe fa27 aebd
000002a0: 4475 ffbd f3ec 6dbe 5767 733d 5306 0b3e
000002b0: 74de c1be 0beb a73d 2083 43bf a73f 503e
000002c0: 5340 543d 4c59 81bd bd93 423e 3e53 403c
000002d0: 0268 cbbe 4720 403c 2258 813c d4f9 f23d
000002e0: 68f8 80be 20b5 e73c 2c44 cd3e 474f 8cbe
000002f0: 80f8 5e3e 4402 1cbe 0145 08bf a7c7 67be
00000300: 3b51 cebe f3a4 203d c48a d73e a25f cd3d
00000310: d7a6 6cbe 827b 8a3c be99 1dbf 763c 8e3e
00000320: db1d 51bf d343 dd3d c0f2 483e e853 c8bd
00000330: 39ae 333e da3b 163e 66f1 483e 5f2f c23d
00000340: fc0d ee3d 4563 2a3e 38e3 9c3e fe89 eebd
00000350: 35a1 453e 266f 32be c266 ee3d 0310 67be
00000360: 6abf 513e 9384 b6bd c9ff 80bd e78d 943e
00000370: 2538 3d3e 3ab5 843b 6c65 48be ebe0 68be
00000380: 16e4 9dbe e8b1 4b3d 722c 39be 9001 6d3e
00000390: a894 50be df6b 99bd e24d e43d 4329 44bd
000003a0: f5ba 09be 15b0 cebe 15c1 3abe e5cb 943d
000003b0: d0d4 993e 19a7 b43c 8a9f 923d b393 0ebe
000003c0: 4939 aa3d 0f74 7cbe f2be 82be 0cdf a7be
000003d0: 2073 cb3e 53e3 833d 4159 c8be 87f0 4d3e
000003e0: a95e cb3d e370 f9bd a59c 00bd d0ca 3bbd
000003f0: ee68 76be dfbf 213e 82b7 6ebd 05a0 90be
0.095433615 -0.19638808 -0.3352262 0.097687826 -0.22307496 0.2597152 0.010344041 0.0049040276
-0.07475398 0.09004181 0.17523603 -0.09671273 -0.1880246 -0.24441452 0.03891223 -0.055176478
0.08030325 -0.34403208 0.16772442 -0.0031271346 -0.02836795 -0.07255059 -0.4626148 -0.21272665
0.037464898 0.02548261 -0.45016754 0.15890114 0.034505576 0.11482573 -0.04955938 -0.12752734
0.0987603 -0.23211846 0.09948101 0.12873873 -0.21945572 -0.14514361 -0.33111566 0.09197324
-0.1492059 0.08997852 -0.0039326036 -0.16719954 -0.1424079 -0.17870222 -0.4738014 0.23432265
-0.17019331 -0.17081077 -0.089911655 -0.15034018 -0.09378965 0.030978104 0.26803693 0.12728742
0.04607131 -0.12905438 0.34881786 -0.007389013 -0.077028945 -0.13292332 -0.17174023 -0.13306521
0.09561831 -0.049199235 0.18659031 0.05076715 0.10243459 -0.11591575 -0.15961784 -0.15727478
-0.3484018 -0.024849057 -0.1732767 -0.019593729 -0.107969366 0.0973175 -0.22632828 -0.041449945
-0.0051220674 -0.038564984 0.18662122 -0.075423524 0.06810523 -0.41555706 0.02046022 0.12676702
0.18936262 0.017248366 0.058488347 0.17578192 0.20687969 0.09070743 -0.09525987 -0.27888507
-0.0064576366 -0.30834556 -0.0076358034 -0.0955574 0.11994709 0.08971907 -0.25920027 -0.27814868
-0.08219156 0.09323664 -0.3438768 0.1353104 0.012033021 -0.41655454 -0.12841466 -0.31992117
-0.30333424 -0.33017328 0.5189825 -0.06274957 0.38005418 0.22119398 -0.29310173 -0.37261817
-0.037703812 0.04039388 0.10391389 0.11290894 0.023519777 0.09997747 -0.32129535 -0.5334815
-0.4254032 -0.15525551 -0.73553383 -0.11504844 -0.08915827 -0.17815688 0.12897995 0.14816621
0.06313058 0.0019344101 0.6241128 -0.094143756 -0.32896927 -0.44413176 -0.2315521 0.16288869
-0.0113685075 -0.48280847 0.08949919 -0.08264751 -0.035758212 -0.612392 -0.30769053 0.0064229723
0.1909196 -0.09478409 -0.05347546 0.19688495 0.053724114 0.26723865 -0.14018217 0.10582188
-0.09416579 -0.1447453 0.12780973 -0.016981658 -0.711272 -0.32120284 -0.49580884 -0.08503719
-0.124735385 -0.2323492 0.059424724 0.13576631 -0.3786503 0.08199128 -0.76371956 0.20336781
0.051819157 -0.0631586 0.1900167 0.0117385965 -0.3972779 0.0117264455 0.015789095 0.11864057
-0.2518952 0.02828461 0.40091074 -0.27404234 0.21774483 -0.1523524 -0.5323029 -0.22634755
-0.4029635 0.039219808 0.42098057 0.10028006 -0.2311052 0.016904596 -0.61562717 0.27780503
-0.8168618 0.10803952 0.19623852 -0.09781629 0.1754693 0.14671269 0.19623336 0.094816916
0.11623761 0.16639431 0.30642104 -0.11647414 0.19299777 -0.17425212 0.11640693 -0.22564702
0.20483175 -0.08912005 -0.06298787 0.29014513 0.18478449 0.004049924 -0.1956994 -0.2274205
-0.30838078 0.04973021 -0.18083361 0.23145127 -0.20369208 -0.07491278 0.111476675 -0.047890913
-0.13450225 -0.40368715 -0.18237717 0.07265452 0.30045176 0.022052335 0.07159336 -0.1392353
0.083117075 -0.24653648 -0.25536305 -0.3278736 0.3973627 0.06439843 -0.39130595 0.20111285
0.09930164 -0.121797346 -0.031399388 -0.045847714 -0.24063465 0.1579585 -0.058280475 -0.28247085

model.4.bias f4 [64]
00000000: 73e0 12bc c45a 5b3d fc4f 083e db38 e9bd
00000010: cee2 a5bd b90a 8bbd 87ba 8fbd d7fe ca3d
00000020: 2396 c93d 7976 ddbd 9b34 f33c 2252 a5bd
00000030: c295 5d3d 2cb9 36bd 42d6 46bc d28a 8fbd
00000040: 73ef f2bc b2ad fa3d 6c23 d8ba dd53 cdbc
00000050: a023 c1bd c05d ccbc c44f 423d eb2d eebc
00000060: 6b1b d33d 1b17 30bd ba41 45bd 199e 063e
00000070: 35d0 333d bb0d 133e 9a69 953d ca25 91bd
00000080: c59e 743c 4725 213d 97b8 603d 2a3c 383e
00000090: b461 153d 2c59 d03d b966 1fbd 579b 693c
000000a0: 29d3 4cbd fce8 a6bc e922 173e c1db e6bd
000000b0: 70bc 343e f572 be3d 01f9 29bd ec5e cf3c
000000c0: 40f5 bbbd f0cd ab3a e3e3 82bd b101 9fbd
000000d0: 4a56 ce3d aa68 23bd f551 85bd 7c6b 843c
000000e0: dcbe 14bd 7890 1dbd f949 483d 4b23 8bbd
000000f0: 993d 4cbd 53d9 0dbd 879b 153e 9ef7 dd3d
-0.008964646 0.053553358 0.13311762 -0.113877974 -0.080999 -0.067891546 -0.07017999 0.09911888
0.098430894 -0.108136125 0.02968817 -0.08072306 0.0540979 -0.044610187 -0.012136044 -0.070089
-0.029655194 0.12240161 -0.0016490049 -0.025064403 -0.09430623 -0.024947047 0.04743935 -0.02907463
0.10307964 -0.042990785 -0.048158385 0.13146247 0.043899734 0.14360707 0.072955325 -0.07087286
0.014930432 0.03934219 0.05486354 0.17991701 0.03647013 0.10173258 -0.038916323 0.014258227
-0.050006066 -0.020374767 0.14759411 -0.112723835 0.17650008 0.0929927 -0.041497234 0.025313817
-0.09177637 0.0013107639 -0.06391122 -0.077639945 0.10075052 -0.039894737 -0.06509773 0.016164534
-0.03631483 -0.038467854 0.04889867 -0.06793841 -0.04986343 -0.034631085 0.1461011 0.10838245

model.6.weight f4 [4, 64]
00000000: b179 01bf 130d 89bf 0be2 1b3e 8c68 0cbe
00000010: 3e7a 70bd 7e34 86bd 8c46 2abd c897 333e
00000020: d97d 0c3d d860 17be e850 293f 9a2c b5be
00000030: e33e f93c 3f04 5a3e 6ed1 3fbe 0262 2f3d
00000040: c679 a7bc 213c 70be 25cd 2b3e 9295 783d
00000050: 7d83 003e ef80 40bd 3575 f5bd d196 0fbd
00000060: 7fb1 04bf 0285 94bc 62ea 153d 0717 c83d
00000070: 9993 fbbd eddc 7ebf 5f19 5f3d bb07 c53e
00000080: 537b 1a3e 927b 333e cd4d 013d 4ab2 073e
00000090: cc01 8e3d f3de 703e d9e8 0cbd bab9 843d
000000a0: 930f 9b3e d469 bf3d 254e c83d 214a 46be
000000b0: 94d0 003d f744 d83c 3a50 25be 97bd 9cbe
000000c0: 3bc4 ed3c 9d7e b4bd f009 ee3d 2382 b1bd
000000d0: 0070 7b3c 7cd8 2e3e 52d7 103e 5d5b 483e
000000e0: a8f8 51bf a49a ce3e d36a 163d b626 743e
000000f0: 4ede 803d 1a7f 3abd 289b ad3d 03bf 663d
00000100: bb3d 143f ad54 81bd abeb 113e 19e9 08be
00000110: 7241 e03d ff18 a03d 9a75 6c3d 6010 1b3e
00000120: 8863 663d 3b18 3abe f92f 4dbf 2be1 b23d
00000130: 4cc1 c13d 2e21 033e e85c bfbd 4c40 1e3e
00000140: e693 f03c 6856 47bc 5031 ccbd ef1f 063e
00000150: b221 28be a7aa f7bd 65e3 2dbe 0046 46bd
00000160: 45a3 0a3e 7063 aa3d c386 fcbd 2729 bf3d
00000170: 9202 18be 4ff9 17bd ae81 223e 4e52 c63e
00000180: 5341 77bc f407 1c3e 6b01 b73d df75 90bc
00000190: fd4f 2e3d c3fc 193e a193 9fbb 7dc4 133f
000001a0: c695 933e cf02 153e 9acc 123e 6e73 76be
000001b0: 4d01 a83d 0cd7 d63d 6eba cd3d 490b 76bd
000001c0: 99f8 733e dad3 afbe cb8e edbb 9a54 99bd
000001d0: 5bd3 143e ffde 543e 8ab7 8bbf db82 ed3d
000001e0: 7d8e 27be 4e3d 563e 082a b8be 0ad6 f33e
000001f0: 418f be39 8db3 3cbe 3dd5 103d 7b8a 473c
00000200: 6bff 6dbf 81c0 64be 3821 143e 25a8 043e
00000210: 72f0 403e 4bed dbbd bbd0 08be 8403 2c3e
00000220: 1233 01bf 2ae9 51bc 72ff 3cbf 4d96 253d
00000230: 0869 b63d 4879 0f3e 32d0 0dbe 8d28 13be
00000240: 1b35 033f 6fcb de3d 3107 5e3e 4128 dfbd
00000250: 2bcc 373f 4a47 2bbe 3edc c4be 4b06 4bbe
00000260: df84 78bf 6751 fa3d 93f1 773e 4cd1 dc3d
00000270: 844b 88be 080c 34bf b9f9 ad3d 7c81 403e
00000280: a33a 7b3d 07ac 363e 5d62 173c 4133 193e
00000290: f1cf 123e d264 f1bd 4437 acbe 59f9 0abe
000002a0: 2cf1 aa3e 5197 89bc 5b2c b33d bd20 05be
000002b0: be86 e73d e1f4 2d3e e6ae 2e3e 5054 9abe
000002c0: f1d3 f13d 4208 0dbf ba8e 3abe bee7 a5be
000002d0: e6ce 473d 206e e43e 1d7e ddbe 3bc7 0f3e
000002e0: 5286 3abe 6e60 4b3f f050 83bd 0dcd 8a3e
000002f0: e7fa f03c fa68 c83d 39b7 573d 9fd6 333e
00000300: 61f3 883d b782 14bf 0263 c63d 6e81 40be
00000310: e11e 72be 890f c2bd cd3d 0abd 9f27 bf3d
00000320: 9325 a2bf 726b 28be e769 003f 92a5 9b3e
00000330: aae8 d13c 57ce 953e 04c6 c53d bcb8 a53e
00000340: 1ac3 1b3f 4085 aa3c 399f d83d 5cdf 04be
00000350: 98e3 04bf 7287 78bc 1e74 c9bd fc43 123e
00000360: a219 223e 3b4f 5d3e 3743 9f3e 6c99 adbd
00000370: ca6a 41bf 3fcc 3ebb 0f7e f13d ff68 033f
00000380: e16f 033e 270b 493e 70d7 cbbd 2385 ce3d
00000390: 21c5 ee3d bbd1 25be 531c eb3e bf71 be3e
000003a0: aecc a73e 9928 4b3e 7cad 843d 4e15 63bd
000003b0: 0a38 993d f801 e8bc 4e94 063e 74bc 5fbe
000003c0: 7fa7 513e f27a 8abd 471e 5c3e f5fa acbe
000003d0: dbda ee3d fd74 013d a8aa 4d3e d83c 493e
000003e0: c20b 3fbe 0bba 1bbf 37ea fdbe 278b 61be
000003f0: 221a 61be d613 4cbe 6be6 cd3d facc 95bd
-0.5057631 -1.0707115 0.15222947 -0.13711756 -0.05871033 -0.06552981 -0.041571185 0.17538369
0.034299705 -0.14783037 0.6613908 -0.3538559 0.030425495 0.21290682 -0.18732235 0.042818077
-0.020443808 -0.23460437 0.16777475 0.060689516 0.12550159 -0.04699796 -0.11985246 -0.03505594
-0.5183334 -0.01812983 0.036600478 0.09770017 -0.122840114 -0.99555856 0.054467555 0.3848246
0.15086107 0.17527607 0.031568337 0.13251606 0.069339365 0.23522548 -0.03440175 0.06480737
0.3028532 0.09346357 0.0978053 -0.19364215 0.031448916 0.026400073 -0.16143885 -0.30613396
0.029024234 -0.08813212 0.11622989 -0.086674 0.015346527 0.1707477 0.14144638 0.19566102
-0.82020044 0.40352356 0.03672297 0.23842892 0.06292401 -0.04553137 0.08476859 0.056334507
0.57906693 -0.06314979 0.14250056 -0.1337017 0.10949983 0.078172676 0.05772934 0.15142965
0.056247264 -0.18173306 -0.80151325 0.08734354 0.094606966 0.12805626 -0.09343892 0.15454215
0.029367398 -0.012166597 -0.09970343 0.13098119 -0.16419104 -0.12093096 -0.16981275 -0.0484066
0.13538845 0.083197474 -0.12330391 0.09334021 -0.1484473 -0.037102994 0.15869781 0.38734668
-0.015091258 0.15237409 0.08935817 -0.01763433 0.04255675 0.15037827 -0.0048698937 0.5772169
0.28825206 0.14551853 0.14335862 -0.2406747 0.08203373 0.10490236 0.10045324 -0.060069356
0.23825301 -0.34341317 -0.0072496883 -0.074868396 0.1453375 0.20788191 -1.0915387 0.11597224
-0.16362949 0.20921823 -0.35969567 0.47624236 0.00036346357 -0.18427868 0.03535961 0.012179012
-0.9296786 -0.2233906 0.14465797 0.12954767 0.18841723 -0.107386194 -0.13360874 0.16798216
-0.5046855 -0.012811938 -0.7382728 0.04042654 0.08906752 0.14011109 -0.13848951 -0.14370938
0.5125291 0.10878646 0.21682431 -0.1089635 0.7179591 -0.16726413 -0.3844928 -0.1982662
-0.97077745 0.122225575 0.24213247 0.10782108 -0.26620114 -0.7033086 0.084948964 0.18799394
0.061335217 0.1783906 0.00923976 0.14960958 0.14337136 -0.11786808 -0.33635914 -0.13571681
0.33387125 -0.016795786 0.087486945 -0.1300077 0.11304997 0.16987945 0.17058906 -0.3014245
0.11808003 -0.55090725 -0.18218508 -0.32403368 0.048781298 0.4461527 -0.4326028 0.14040844
-0.18215302 0.79444015 -0.06411922 0.27109566 0.029416515 0.09785648 0.05266497 0.1756234
0.06687046 -0.58011955 0.09686853 -0.18799374 -0.23644592 -0.09475619 -0.033750344 0.09333729
-1.2667717 -0.16447237 0.50161594 0.30399758 0.025623638 0.29258987 0.09656909 0.32367504
0.60844576 0.020815492 0.10577244 -0.1297583 -0.5190978 -0.015169011 -0.09836601 0.14283746
0.1583009 0.21612255 0.31105968 -0.084765285 -0.7555357 -0.002911344 0.11791622 0.51332086
0.12835647 0.1963316 -0.09953201 0.100839876 0.11658693 -0.16193287 0.45920047 0.37196156
0.32773346 0.19839706 0.06478402 -0.05544024 0.07481392 -0.028321251 0.13142511 -0.21849233
0.20474051 -0.06761731 0.21495925 -0.33785215 0.11662837 0.03160571 0.20084631 0.19652116
-0.18656829 -0.60830754 -0.49592754 -0.22025739 -0.21982625 -0.19929442 0.10053714 -0.07314487

model.6.bias f4 [4]
00000000: 4de6 b03d 8d86 1a3d d168 b2bc 8e55 733d
0.086376764 0.037725974 -0.021778496 0.059407763
