Double_DQN/checkpoint_end.pth (torch_old, 204181 bytes, 12 tensors)

model.0.weight f4 [128, 37]
00000000: ccb0 933d 6731 64bc 93fd a2bd 22bf 1cbe
00000010: 8f0e 1ebe 6ad3 bfbd ddd1 043e af05 6f3e
00000020: e3dc 0a3d 80b3 d23e 4607 58be 9f20 31bc
00000030: aca7 51bd f036 0d3d 2579 96bd 6c69 b1bb
00000040: 820a 8ebd 7132 f93d dcc5 993d 6ce4 dbbd
00000050: 0ef7 393d 207e 1e3e 7d39 a4bd 40c9 003e
00000060: 6142 70bd 8f81 8f3d 4da7 913d 35ea 07be
00000070: bf5c e4bd 1ab1 83bd e3fa 913c e579 0b3e
00000080: 9182 f9bd 8372 53be 31d5 af3c a171 22be
00000090: 0d22 bdbd b3a2 273e 9a94 143e b7a1 a63c
000000a0: 63b6 e3bc d3c3 13be 7f70 413d bc48 aabd
000000b0: 15f2 b1bd 78ec c6be 04e3 a8be e4dc 483e
000000c0: 4c5d debd d413 663d bdfa 46bd ed2f b43d
000000d0: 3114 a03c 046e 963c a4b8 963d c5ee df3c
000000e0: ddf2 873c 8905 c3bd 9948 66bd 9b8a 6bbe
000000f0: e1eb 8a3d eed1 3bbd f136 cdbd d6c1 94bc
00000100: 87ae e63d 1dd6 9dbd b554 333c 1abf 94bc
00000110: 288b 953d ca54 563e 6f48 9bbd 5629 fbbd
00000120: 5f1e 8c3d 6380 843d 55b8 1f3e 2869 2c3e
00000130: c66a d3bb 2e84 223c 6c4f c3bb 84d9 9bbe
00000140: 86c6 3ebd 4430 5d3e 7c13 c73d 72da efbd
00000150: 6e34 8b3c 2b41 cebc fe31 ffbd 1d24 823d
00000160: fdd4 143e 5976 48be 44aa d03d 5df8 e13d
00000170: 416c a73d 6a2b 88ba 5e85 46be e629 36be
00000180: ab71 d23d a40e 903d 8137 e63c f9b0 8bbe
00000190: 3c2f 773e f50f f93d 616c 7fbd befb 55be
000001a0: c4b4 36be 9374 a33c 9cdf 79be a3bd 13bd
000001b0: abbb 333e 76e3 993d 57d0 90bd 4f71 c03d
000001c0: dea4 0d3d 0caa 1b3e d3bf 433e 1f29 e2bd
000001d0: 69c3 a9bc b996 cfbd 5578 d43d dafb 3c3e
000001e0: 9aba c53e 720c 89bd 4675 2ebc 24d6 353e
000001f0: bb06 01be 20bf a5bb a6b3 9bbd a2fe b1bc
00000200: a66b fdbc 7bab 17bb 70fc 48bc 37c8 c8bb
00000210: 9e29 3bbb 3ae7 f63d 28dc 803d caf6 dfbd
00000220: 880f a73c 23d7 b2bd 6d12 193e d0f8 2c3e
00000230: cdde 073f 20f0 d33d df0d 313e 92d7 8cbc
00000240: a5ef 313d 6221 efbd 65e0 173d 6f50 683c
00000250: 0359 f6bd 8057 d1bd 41c1 69be 2b45 31bd
00000260: 3ec6 91bd 7e10 423e 4193 dbbd 5442 5fbe
00000270: f3ce 8d3a 4656 ffbe a05a 92bc fb73 2abe
00000280: a998 f93b 62e9 483c dae1 bfbe 0836 6abd
00000290: 5ab9 03be 9a5d 023c 3015 12be b69c adbc
000002a0: a3c1 0fbe 3b1f eebd 7800 fd3d 0d75 81bb
000002b0: 400a 573e cfb2 963c 6830 22be 6964 103e
000002c0: a5f4 c7bd 9c78 71bd 5632 143e 588d 493b
000002d0: aba7 c5bd eb2a 3cbc eb77 7abc b132 e2bc
000002e0: 800b 9b3d fe51 ce3d 27bf a3bd 5320 d6bd
000002f0: 0b84 8cbe 14f5 9ebc 67d4 0d3e 906e 08bc
00000300: ef36 f0bd 1c59 4fbe 3c4f d4be 8001 5ebe
00000310: 3742 c3bd fba8 1c3e 6262 75be cbe5 e4bd
00000320: 90ce 04bd 04ca 8abd 1bc3 d3bd 2015 97bd
00000330: 6571 a9be 1f2a 993d 5ee0 f9bd a3a4 fc3d
00000340: 44a0 bf3c 5dc1 8c3d d5f3 393d 7a1c 6fbe
00000350: b3ff c9bd 204c fbbd 1b13 74be 7dd2 2abd
00000360: c49d 56be 900b a3bd 88ff 123e e816 c63c
00000370: 7c36 21bd 0887 e03d ae70 92bd f432 923d
00000380: 8723 fcbd 37d6 433d 029a 02be 0b4f 8e3c
00000390: f13d 19be 7c70 ab3d 0d7c 99bd c8be ae3d
000003a0: 6523 c6bd 1987 403e 82a2 173e 6f3b 35bd
000003b0: 943f 363e 1e7f 89be b284 c5bc a9e0 d73d
000003c0: 7ca8 803c f2a1 323e 6e15 00be b565 7fbd
000003d0: f99a 343e 0ca7 06be 18f0 6f3e c3e9 3ebe
000003e0: 18fd 003d e171 123d c4ef fabc 09da 333d
000003f0: 1ec0 263e f87f b63d 924e 89be bd65 22be
0.07211456 -0.013927794 -0.07958522 -0.15307286 -0.15435241 -0.09366496 0.12970681 0.23342012
0.03390206 0.41152573 -0.21096525 -0.010811 -0.051185295 0.03447622 -0.07347325 -0.0054141786
-0.06935598 0.12167824 0.07508442 -0.107369274 0.045401625 0.154778 -0.080187775 0.12576771
-0.058657054 0.07007133 0.07111988 -0.13272937 -0.111505024 -0.06430264 0.017819827 0.13620718
-0.12183107 -0.20649152 0.021463962 -0.15863658 -0.0923501 0.16370659 0.14509812 0.020340784
-0.02779693 -0.1443017 0.047226425 -0.08314654 -0.086887516 -0.38852286 -0.329857 0.19615513
-0.10857639 0.056171253 -0.048578966 0.087982036 0.019540878 0.018363006 0.07359436 0.027335534
0.016595298 -0.0952254 -0.05622158 -0.23002093 0.067832716 -0.0458545 -0.10020245 -0.018158834
0.11263757 -0.077068545 0.010945489 -0.01815753 0.073019326 0.20930782 -0.07582175 -0.122637436
0.0684173 0.064698 0.15597661 0.16836989 -0.0064519374 0.009919209 -0.0059603956 -0.3043939
-0.046576045 0.21600443 0.09720513 -0.11711587 0.016992774 -0.025177559 -0.12460707 0.06354544
0.14534374 -0.19576396 0.101887256 0.110337 0.08174945 -0.0010388915 -0.19386813 -0.1778942
0.10275587 0.070340425 0.028102638 -0.27283457 0.24139112 0.12161247 -0.062359218 -0.20896813
-0.17842394 0.019953048 -0.24401706 -0.036069524 0.17552058 0.07514088 -0.07070988 0.09396612
0.034581058 0.15201586 0.19116144 -0.110429995 -0.020723062 -0.1013617 0.10374514 0.18455449
0.38618928 -0.06691827 -0.010648077 0.1775747 -0.12600224 -0.0050581843 -0.076026246 -0.021727864
-0.03093512 -0.0023142982 -0.012267217 -0.006127383 -0.0028558741 0.12055822 0.062919915 -0.10935743
0.020393148 -0.0873244 0.14948435 0.1689179 0.5307434 0.103485346 0.17290448 -0.017192636
0.043441433 -0.11676289 0.037079234 0.014179333 -0.120286964 -0.102217674 -0.22827627 -0.043278854
-0.0711789 0.18951604 -0.10721446 -0.21802646 0.0010819122 -0.4987051 -0.017865479 -0.16645806
0.0076170755 0.012262674 -0.37477 -0.057180434 -0.12863675 0.007956887 -0.14265895 -0.02119289
-0.1403871 -0.116270505 0.12353605 -0.003950721 0.21000004 0.01839581 -0.15838778 0.14100803
-0.09763459 -0.058952913 0.14472327 0.0030754413 -0.09651121 -0.011484842 -0.01528738 -0.027612062
0.07570553 0.100742325 -0.07995444 -0.10455384 -0.2744449 -0.019403972 0.13850556 -0.008327141
-0.11729228 -0.20248836 -0.414667 -0.2168026 -0.09534114 0.15298836 -0.23963311 -0.11176642
-0.032423556 -0.06776813 -0.10339948 -0.07377076 -0.33094326 0.07478737 -0.12200998 0.123360895
0.02339185 0.068728186 0.045398552 -0.23350707 -0.09863224 -0.12270379 -0.23835413 -0.041704644
-0.2095862 -0.0796119 0.1435529 0.024180844 -0.0393586 0.10963255 -0.07150398 0.07138625
-0.12311464 0.047811713 -0.12754062 0.017371675 -0.14965035 0.08371064 -0.07494364 0.085324824
-0.0967472 0.18801536 0.14808086 -0.044246133 0.1779769 -0.26854795 -0.024111126 0.105408974
0.01570534 0.1744459 -0.12508175 -0.062352855 0.17637242 -0.13149661 0.23431432 -0.1864386
0.03149137 0.035753135 -0.030631907 0.043909106 0.16284224 0.08911127 -0.26817757 -0.15859123

model.0.bias f4 [128]
00000000: 20cd d63b 0776 2f3d 7f19 90bd 90be a4ba
00000010: b003 a13b 8f50 f1bd 2ac1 b53d fcd7 633d
00000020: 3a07 1cbe 76dd 923d daa8 81bd 0e3c 66bd
00000030: cbb6 b9bc 3cba b0bc c4f1 01be 55c4 cd3c
00000040: 0562 a93d 6faa b1bc d5ee cebc 5f49 c3bc
00000050: 98bb 0dbe 97f4 be3d b11c 183e e632 19bd
00000060: 04f3 523c 66a1 173e db9a 323e 7010 edbd
00000070: 738b 3bbd ec2d c0bd 8543 153e 529e 143e
00000080: 99d9 aebd 02bf 803d a92b 3b3d 8e1e acbd
00000090: 3a05 823d 129a bd3d e8eb 823d 175d 1b3d
000000a0: 9df3 0c3d af3a e63d bc80 133e 821e 1a3d
000000b0: ddfb af3d dc4e 61bd d480 503d ff0f 5cbd
000000c0: f4f1 0cbe b148 4e3d f16f 363d 06f1 713d
000000d0: 039e 3d3d 2582 e6bb 8188 a63d c49b 9a3d
000000e0: f327 45bd 77e0 903c 2024 023d ca77 42bb
000000f0: 9edc 02be 29e0 4b3d a1bb e43d df81 acbd
00000100: 7efa f43d da80 2c3d ac22 733d 0d99 ccbc
00000110: a3fb 0bbe 8b5f 53bd 89f2 4e3d ef1f 62bd
00000120: 2627 b73d 87d8 82bd c923 74bd f5c5 13bc
00000130: 0169 433e ec2b a0bd 0c86 033e c997 053d
00000140: c5d3 29bd 6537 d23d daab e13d 8a89 8fbd
00000150: 7ec2 82bb d9ea 253e afce fd3d 9f4d 84bd
00000160: b771 17bd 5ba1 ac3d 499f e43d c550 903b
00000170: 2312 9fbd 879d 13be f643 30bd 77e0 103e
00000180: dd3f 5ebc e23e a6bd 6900 573c 881e 163e
00000190: 2226 b3bd 6fc5 0dbe 5671 d73d 2379 2e3e
000001a0: c981 2abe a8ae 09be 74ce 8cbd d5f8 1a3e
000001b0: c44e 85bd 385d 42bb 7599 033e 6ba4 cbbd
000001c0: a2e6 40bd 6597 87bd c247 fdbb ae05 3e3e
000001d0: f21b a63d 99bd 0c3e beb7 32bc 655c b338
000001e0: bac8 44bd d3a9 bd3d bd27 02bd 4a12 0ebe
000001f0: c4a3 36bd c5b1 b43d ee6a 323e f25d ddbc
0.0065552145 0.04283717 -0.07036113 -0.0012568999 0.0049137697 -0.117829435 0.08874734 0.0556259
-0.15237132 0.071711466 -0.06331034 -0.056209616 -0.02267017 -0.021573178 -0.12689883 0.025118032
0.08270649 -0.021687714 -0.025260368 -0.023838697 -0.13841093 0.093239956 0.14854695 -0.037402056
0.012875322 0.14807662 0.17441885 -0.11575401 -0.045787286 -0.09383759 0.14576538 0.1451352
-0.08537597 0.06286432 0.045695934 -0.08404265 0.06348653 0.09257902 0.06392652 0.037930574
0.034412015 0.11241662 0.14404577 0.03762675 0.08592961 -0.055006847 0.05090411 -0.053726193
-0.13764173 0.050362293 0.04454035 0.05906775 0.04629327 -0.0070345574 0.08131505 0.07549241
-0.0481338 0.017685158 0.031772733 -0.002967345 -0.12779471 0.049774323 0.111686 -0.084232084
0.1196184 0.04211507 0.059359238 -0.024975324 -0.1367021 -0.05160479 0.05052427 -0.055206235
0.08943014 -0.063889556 -0.05960444 -0.009019365 0.19083025 -0.078208774 0.12844104 0.032615457
-0.041461725 0.10264472 0.11019106 -0.07008655 -0.0039904704 0.16202869 0.123929374 -0.064601175
-0.03697368 0.084292136 0.11163194 0.0044041597 -0.07767131 -0.1441556 -0.043033563 0.14148127
-0.013565031 -0.08117463 0.013122656 0.14660084 -0.08747508 -0.13844846 0.10519664 0.17038397
-0.16651072 -0.13445532 -0.06875315 0.15133984 -0.06509164 -0.0029657613 0.12851508 -0.099434696
-0.04709495 -0.06620673 -0.0077295015 0.18556854 0.08110799 0.13744201 -0.010908065 8.552595e-05
-0.04804299 0.09260907 -0.03177618 -0.13874164 -0.044589773 0.08822969 0.17423603 -0.027022336

model.2.weight f4 [128, 128]
00000000: 2a85 b5bd b68e 82bd d97d 6b3a 64cb 3cbd
00000010: 364d 183e 552e 913d 61a6 923c ea94 bb3c
00000020: 2066 e83c 0445 763d 1ae6 41bd 10e4 223e
00000030: 7d79 183d f70a 323d f6a1 bebd ce4b 1f3d
00000040: 6d30 5d3d e71f 063d cc5b c1bd 89db 71bd
00000050: 9914 f53d e30b 1bbc 8590 37be 2d98 a9bb
00000060: 89d6 a63c c354 f83d 4732 14bd a2b2 12bd
00000070: fd58 6fbd 33e8 04bd d8dc f4bd 2ccc b63d
00000080: 2770 693d 7dbe 9b3c 3601 d5bb 0a88 653c
00000090: fd00 713d fa24 8bbd 3486 98bd f782 57bd
000000a0: 40e0 66bd 9e53 aa3c 1195 3e3d 7e2f b83d
000000b0: 5a0d 773d cd7e db3c 70e7 aebd 6475 2abe
000000c0: 5d24 16bc b68b 46bd 0472 24be 5767 febc
000000d0: 30b6 3bbc c20d cabd e533 7b3d 5e4e 073d
000000e0: f7ce 6c3d de70 693b 14c5 8d3c 0450 9a3d
000000f0: 76e0 17bc d176 22be a904 843d f6b1 f7bd
00000100: c05a 8dbd d7b2 0c3d 4bec 8a3c a8f3 dbbd
00000110: 2c66 b03d 5cb1 0fbd d099 303d 196f 8b3d
00000120: 23da 81bc 711f 18bb 4042 8cbe 2d66 aabe
00000130: 9bce 49bc 3633 16bd 8d8a 893d b7e2 d93d
00000140: 8269 123d 9083 b43d 786c fd3d 754f 19bd
00000150: 04a7 5dbd 0b7c ffbb 1e9a af3c 8ca0 2bbd
00000160: adb0 86bd d1a1 1e3e ebf8 d83b 289b dbbd
00000170: 39c1 a8bd 1747 adbd f965 193d 51e3 2f3e
00000180: 2dfb ca3c 3606 d83c 90e0 3bbd 9c64 c3bd
00000190: 4622 b8bb 5234 4ebd ad63 91bd 0400 8f3a
000001a0: ed49 3a3d c505 b03c 3b69 be3d f7c9 4fbd
000001b0: 2e52 ec3c 7b84 99bd 0ddd 24bd c450 7abd
000001c0: efb3 64bd 406f 3b3d cde7 04be 68ea 89bc
000001d0: 5289 093e 64a8 943d 5297 89bc 282e 243c
000001e0: 928f df3d 06ab 29bd 460d 27bd 8c36 dd3c
000001f0: 58c9 773d a9ba 473b 2d69 0e3e 47a4 6abd
00000200: 6dd4 9f3d 57d6 ba3a a03b 073e d35f ea3c
00000210: aec5 7f3d 243e 2fbd 25f0 583d a00c 51be
00000220: bba8 b13c b42e cbbd 271a b8bd c9f3 fbbd
00000230: 0e5a e0bd 7fef 8ebd fb47 60bd 6834 d2bd
00000240: 00a0 873d 5b61 ab3d 9a7e 6a3d 9c02 c23d
00000250: 35fa 89bc acea 693d 6ef2 2d3d 247e 7cbe
00000260: a203 58bd 3c53 08bd fe00 3b3d 6026 003d
00000270: 96b4 5c3d 958c 1e3e 1436 babd e95d f23b
00000280: 391b 2fbd 8e91 75bd 1803 8b3c 4862 febc
00000290: 8bf9 df3d 593c 5d3d c0a5 89be 4188 99bd
000002a0: af98 6bbd 9c08 9d3d 777a 7fbe e851 0fbd
000002b0: 2b1b 173d 6d8c 40bd 01d1 6fbd 7d6f 3ebd
000002c0: 54ef 7cbe f252 aebc 3334 69bd 7f4a b53d
000002d0: fa9f c73d a497 2abd b04a d23c 8505 93bd
000002e0: 70fd 2a3d d926 45be 6dec 28be 1552 9abd
000002f0: 5f33 c63c c186 a2bd 5ba1 aa3d 6ff5 ce3d
00000300: c001 9d3c e188 a03d ac7e 37bd d50e 50be
00000310: e0d0 003a 7678 083e 2c03 cc3d 79a6 5b3c
00000320: 5e9e 63bc 97bb 5bbd 1d7d dabc 4a5c 0e3e
00000330: e1ae ac3d 751b c2bd 59b5 d73b 93d7 8e3d
00000340: 918e 633b 17bb 503d 5107 4cbc 8759 e4bd
00000350: 306f 72bd 8878 fc3c 5488 3d3d b9dd 35bd
00000360: 5542 093e 17b0 753d c32a 9abd 3e10 a9bd
00000370: 7327 cd3d 58f1 09bf e204 1fbe 60b1 b5bd
00000380: 46f9 27be f428 3cbc 4738 73bd 97ad 92bb
00000390: cbe5 2d3e 5245 bc3d c04c cb3d 310f 163d
000003a0: c02c 773c 4a0a ecbc ac29 ed3c a125 c83d
000003b0: 27b4 72bc 1c25 f0bd 6205 463d 5c21 f83b
000003c0: 86d2 4dbc a819 16bd 8912 3fbd d68b 6bbe
000003d0: 92c2 06be 67e3 503d 0d1e fd3d d3cc 1abe
000003e0: 4e77 05be e33d 4f3d c775 e83d 9114 63be
000003f0: 6067 fb3d 8d4f 4ebe 9302 7a3d ec3d 6a3c
-0.0886329 -0.06374876 0.00089832913 -0.046092406 0.14873204 0.07088915 0.017901601 0.022898156
0.02836901 0.060124412 -0.047338583 0.15907311 0.037225235 0.04346749 -0.09308235 0.038890652
0.05400126 0.03274527 -0.09441337 -0.059047256 0.11966819 -0.009463283 -0.17926224 -0.0051756115
0.02036597 0.12125542 -0.03618076 -0.03581489 -0.058434475 -0.032448005 -0.11956185 0.089256614
0.056991722 0.01901173 -0.0065003885 0.014009485 0.058838833 -0.06794162 -0.07447472 -0.052615132
-0.056366205 0.020791825 0.04652888 0.089934334 0.060315467 0.026793862 -0.08540237 -0.16646343
-0.009163943 -0.048473082 -0.16059119 -0.031055136 -0.011457011 -0.09865905 0.061328787 0.03303372
0.057814565 0.0035620253 0.017305888 0.07534793 -0.009269824 -0.15865637 0.06446201 -0.1209449
-0.06902075 0.034350242 0.016958376 -0.10739833 0.08613238 -0.035081252 0.043115437 0.068082996
-0.015851086 -0.00232121 -0.27394295 -0.3328108 -0.012317325 -0.036669932 0.067158796 0.106389455
0.03574515 0.08814156 0.123742044 -0.03742929 -0.054114357 -0.0077967695 0.021435793 -0.041901156
-0.06576667 0.15491416 0.00662147 -0.10722953 -0.08239979 -0.08460825 0.037450764 0.17176558
0.024777973 0.02637015 -0.045868456 -0.09540674 -0.00561932 -0.050342865 -0.0709909 0.0010910039
0.045480657 0.021487126 0.09297415 -0.050729718 0.02884778 -0.07495972 -0.040249873 -0.06111218
-0.05583566 0.045760393 -0.1297905 -0.016835406 0.1343129 0.072586805 -0.016795788 0.01002077
0.10916056 -0.041422866 -0.040784143 0.027003549 0.06049475 0.0030476248 0.13907309 -0.057285573
0.07804189 0.0014254552 0.13206339 0.028610146 0.06244438 -0.04278387 0.052963395 -0.20414972
0.021686902 -0.09921017 -0.08989363 -0.12302358 -0.109546766 -0.06979274 -0.054756146 -0.10263902
0.066223145 0.083681785 0.057249643 0.09473154 -0.01684294 0.057108566 0.042467527 -0.24657494
-0.05273784 -0.033282503 0.045655243 0.031286597 0.053883158 0.15483315 -0.09092346 0.007396449
-0.04275057 -0.059953265 0.016969249 -0.031052724 0.109362684 0.05401263 -0.2688427 -0.074966915
-0.057518657 0.07667658 -0.2494906 -0.03499022 0.036891144 -0.04700892 -0.05854893 -0.046493042
-0.24700671 -0.021279786 -0.056934547 0.088520996 0.0974731 -0.041648522 0.02567038 -0.07178787
0.041745603 -0.192531 -0.1649644 -0.07535187 0.024194418 -0.079358585 0.08331557 0.101054065
0.019165874 0.078386076 -0.044798538 -0.20318158 0.00049139373 0.13327202 0.099615425 0.013406389
-0.013892738 -0.053645696 -0.026670987 0.13902393 0.08431793 -0.09477893 0.0065828976 0.06974711
0.0034722427 0.050959673 -0.012452916 -0.111498885 -0.059188068 0.030819193 0.04627259 -0.044400904
0.1340421 0.059982385 -0.075276874 -0.08255051 0.1001729 -0.53883886 -0.15529206 -0.08871722
-0.16403684 -0.011484373 -0.059379842 -0.00447626 0.1698219 0.09192909 0.09926748 0.03663558
0.015086353 -0.0288135 0.028950535 0.09772802 -0.0148134595 -0.11725828 0.048344977 0.007572336
-0.0125624 -0.03664556 -0.046648536 -0.23002562 -0.1316016 0.050998118 0.12359247 -0.15117197
-0.13033792 0.05059613 0.11350589 -0.22175814 0.122755766 -0.20147534 0.06103761 0.01429699

model.2.bias f4 [128]
00000000: 71d3 bd3d 8bd0 d6bc 86f8 9ebd 49d0 bd3d
00000010: a4bf 34bd b9f1 b93d 924a 883d 6ba8 be3c
00000020: 2310 29bc 2ec0 a33d 910c e43d 116f 803d
00000030: f428 8bbd 26af c83c 43b8 ae3d 18eb 79bd
00000040: b584 09bd d065 68bd afe6 b2bd 99d5 a1bd
00000050: c204 b7bd d7cc 85bc c0e5 0cbd 1283 a23d
00000060: 8821 4aba dcf8 b53c f7c6 4cbd 4835 1c3d
00000070: 9502 373d 7286 763d 6c51 a7bd 7cb2 653d
00000080: b7f5 1a3d 25d5 eabc 45f9 253d ee25 92bd
00000090: c19b b23d d319 003d e1a3 e9bb 3d0a a53b
000000a0: 842e a9bd 533e 523d 2f4b 973d 334b 803c
000000b0: 3ef4 61bd 6ebe 853d 8235 3fbd 39d6 693d
000000c0: 6c64 bc3d bc49 90bd e390 aa3d 40d3 afbd
000000d0: a972 6f3c 2f0b c6bc f0e7 d63c 758b 4d3d
000000e0: 039d 51bc 0359 b53d d139 a83d c10c 4d3d
000000f0: c78c 483d 73a3 f0bc c3f5 acbc ecdd 2bbd
00000100: 2e46 a83d 2aa1 4ebc 10b7 b83b 0eeb 6b3c
00000110: f247 ae3d fd8a 203d 6e1d de3d 2c00 17bd
00000120: 239b 93bd beb9 383d 3150 093c 2519 373d
00000130: 740c 863d 0f09 a5bc e8c3 9cbd a42d 04bd
00000140: c148 44bd 66d1 31bd d3bd 803d 623c 05bd
00000150: f18a 69bd ec01 a7bd 1c0e 84bd 9240 82bd
00000160: b8d1 f03c 876f a03d 1115 10bc bec0 e83b
00000170: 79a6 a9bd c32d a23c 3c66 e4bd 58bf 15bd
00000180: 2b8e 3b3d fd5e e73b 6a47 4c3c a18b ac3b
00000190: 83e4 acbd ad53 e03d 3345 a1bd d87e 98bd
000001a0: 4ba1 973c 9cf3 823d 006c 113d dfd1 993c
000001b0: adac 6ebd 4c26 65bd b038 183d eed3 2abb
000001c0: fd6c b9bb 1bce 083d c981 2a3d 67ec e4bb
000001d0: 6076 1e3d 0fea 38bd 82c6 f83c 16e1 b33d
000001e0: 2441 3b3d f63b 203c 326a f13b 65c5 b4bc
000001f0: 1c16 79bd 3399 08bd c636 6c3d d802 94bc
0.09268845 -0.026222488 -0.07762246 0.09268243 -0.044128075 0.09079308 0.06654848 0.023273667
-0.010318789 0.0799564 0.11135209 0.06271184 -0.067949206 0.02449758 0.08531239 -0.06101522
-0.033573825 -0.05673772 -0.08735406 -0.07902069 -0.08936454 -0.016333027 -0.034398794 0.07935156
-0.0007710685 0.022213392 -0.049994435 0.03813675 0.044680197 0.06018681 -0.08169827 0.05607842
0.03783199 -0.028666088 0.040520925 -0.07136141 0.08721114 0.031274628 -0.0071301316 0.005036621
-0.08260825 0.05132897 0.07387387 0.015660858 -0.055164568 0.06530462 -0.04668189 0.057089064
0.091988415 -0.07045314 0.08328416 -0.085852146 0.014614739 -0.024175255 0.026233643 0.050181825
-0.012793782 0.08854868 0.082141526 0.05006099 0.04896238 -0.029374814 -0.021113282 -0.041959688
0.08216511 -0.012611667 0.005637057 0.014399303 0.08509816 0.03919505 0.10845457 -0.0368654
-0.07207324 0.045099013 0.0083809355 0.044701714 0.06545344 -0.020145921 -0.07654554 -0.03227009
-0.047920946 -0.04341259 0.06286206 -0.03252829 -0.05701727 -0.081546634 -0.06448004 -0.06359972
0.029396877 0.07833772 -0.008794085 0.007103055 -0.08283705 0.019797212 -0.11152312 -0.036559433
0.04578988 0.007060884 0.012468198 0.0052656685 -0.08442023 0.1095346 -0.07874527 -0.074460685
0.018509528 0.06394121 0.035503387 0.018776832 -0.058270145 -0.055944726 0.037163436 -0.0026066261
-0.0056587444 0.033399682 0.04162768 -0.006986189 0.03868711 -0.04514509 0.030368093 0.08783166
0.04571642 0.009779921 0.007367396 -0.022066781 -0.0608121 -0.033349227 0.057669424 -0.018067762

model.4.weight f4 [128, 128]
00000000: a224 2cbd 47f8 b03c 8b0c 53bd de52 ab3d
00000010: c8ca 793c 9b8b 403e 7622 d1bc f542 0b3d
00000020: ea99 533d ab14 0e3d b80d b1bd 9d38 9a3c
00000030: fe8c 0abd d82a 19be 5b2c 4bbd 87b3 61bc
00000040: 9934 90bd 3b2a 2f3d 8f2e 77bd 868b c2bd
00000050: 51eb 77bd 26b6 653e b02b 5fbd 63f3 88bd
00000060: a87e 913c ccc2 993d a259 45bb 9bae 8b3c
00000070: db81 9fbc e812 953d 4400 d2bd 7b05 4cbd
00000080: 442b 9ebd a95e 533d ad94 d8bd fb83 0a3d
00000090: f669 043d ef28 893c 1d72 97bd dc2a 1cbe
000000a0: fabc d23d 488d 84bd cfbf 1ebe 42b7 9ebd
000000b0: e948 02be beb6 5d3d d245 9bbe 3d74 b93c
000000c0: 22c6 66bb b377 dcbd 6af8 5b3a 1907 bcbe
000000d0: cf55 abbd a3bd a53d 95ed c43d 598d 813d
000000e0: c56a 433c d179 4f3d daa1 09bd 00b6 973c
000000f0: 3502 0abd 8fb5 5d3d 73ba f13c fee3 cdbd
00000100: 2cb5 d13d 9e5e b9bb 27ca 663e 5fb1 9bbb
00000110: f502 873c 087b 02be cba0 843e 5db3 90bd
00000120: 42e3 983d 9481 4f3d 4879 3fbe 41ba 35bd
00000130: 8039 38bd a809 e93c ed5d 413b 1d9d 533b
00000140: bff1 47bd de13 15bd 0ca6 1f3e 524c 8e3e
00000150: b808 d83d aae2 133d 28b3 0e3e 30eb 813d
00000160: ac42 7b3d e1be 9bbd fe42 953c 1afa 82bd
00000170: d832 d53d 940a 593e e26b c4be 3515 15be
00000180: d884 ba3d 07db 7dbd 54f1 123d 722c 4d3d
00000190: 4413 873d 6398 b73d 057a 933d 1cda 8d3b
000001a0: 7192 34bd 576c 0c3a 6a43 fb3d a381 9d3d
000001b0: 8f1c d93c 3620 a5bb d0c3 4fbd 7acd ffbd
000001c0: d235 a83d 9e73 61bd f8e5 f53d d167 cebd
000001d0: b8cf dcbd ddc6 7d3d e380 89bc 4210 d7bc
000001e0: bbc3 a83d eeaf c73d 3ee6 b7bd 66a7 4f3c
000001f0: f553 323d a4e1 c5bd dd1c 05bd dcd2 bf3c
00000200: 8693 26bd 2cc8 b23d 7c91 93be c326 c3bd
00000210: 7cdc bd3d f323 8fbd a8db d3bd 493d d43d
00000220: 7b23 54be 0eaf 99bc 22ba c2bd b0e9 963c
00000230: eee2 4ebc 16f5 51be 731b dbbd d0ca 863e
00000240: 50a9 1e3d 6a72 56bd 0140 b33d 0ad7 d43d
00000250: 8ef4 25bd 1b12 a23e 02a6 143e 9332 10bd
00000260: ca74 553d c61a 893c 788e 2ebe 3e87 bc39
00000270: 1554 ebbb a2da 193e d2c1 c23d 6ae1 203d
00000280: 58c1 223d 0d6d f1bd c00d 7abb 6938 01bc
00000290: c76b 333d 9cc4 9dbd 74d8 92be 092e 86be
000002a0: 9f51 633d 4a86 1fbe dfba fabc 1326 f23d
000002b0: a0e1 213d f97b 493d 6507 8cbd 86d6 913d
000002c0: b49a 763d 0533 913c 0bfe 333e e888 edbc
000002d0: 8a44 ccbc 5f83 383d 72a9 2abd 6e7b d73d
000002e0: 86f0 d8bd 4789 09bd c291 b03d b663 ee3d
000002f0: 755a b83d b974 79bd 4fc0 2dbd fd55 163d
00000300: 7ce6 2ebe 2347 d33c f349 143e 1204 febd
00000310: 8d97 2fbd 174a 1e3e 6ac7 fb3d bb18 d73c
00000320: afd5 7ebc da39 76bb fa16 78bc c418 1dbe
00000330: 0d12 853d 019c 2f3e da0b 3fbc dcf3 133e
00000340: f8fb 9f3c 0797 7bbd 936a 453e 891f 9c3d
00000350: 15ec 6a3d 7236 023e 442c d8bd 27b6 89bd
00000360: 1715 1d3e dd84 a6bc f7b6 e53d 3399 7e3d
00000370: 6815 c53d 2352 123d 5e59 54be f279 a13c
00000380: 4b65 973d 1887 1ebe 3ae8 33bd f5c1 61bc
00000390: cff8 d9bd 9395 26bd 3d48 54bd cfd9 4fbd
000003a0: c5c0 1ebe 5246 63bd 6921 86bc e9ae 1f3e
000003b0: a3af d2bc e6bd 1b3d 36eb b6bc 0687 8ebd
000003c0: bcbf 923d 34e0 4d3d 77fb 793d f37a 4cbd
000003d0: 1a72 acbe a153 2b3d 97d7 7ebd 6402 993c
000003e0: 6d70 6dbd da33 48bd 225a af3c f8a7 32be
000003f0: ed2f 29bd 9ca2 893d 6a70 a93d 8ff7 8dbd
-0.042027123 0.021602763 -0.051525634 0.08365415 0.015246101 0.18803255 -0.025529128 0.033999402
0.051660456 0.03468768 -0.08645195 0.018825823 -0.033825867 -0.1495775 -0.049602848 -0.013775713
-0.07041282 0.042764883 -0.060347136 -0.09499268 -0.06052715 0.22432765 -0.054485023 -0.06687047
0.01776059 0.07507858 -0.003011324 0.017051032 -0.0194711 0.07278997 -0.10253957 -0.049809914
-0.07723096 0.051603947 -0.10575233 0.033817273 0.032327615 0.016743151 -0.07394812 -0.15250725
0.10289951 -0.0647226 -0.15502857 -0.077497974 -0.12723126 0.054129355 -0.30326706 0.022638435
-0.0035213311 -0.10765018 0.00083912036 -0.36724165 -0.08365976 0.08092811 0.09615628 0.06325788
0.011927311 0.050653283 -0.03360162 0.018519402 -0.03369351 0.054128226 0.029507851 -0.10053252
0.10239634 -0.005657031 0.22538052 -0.004751369 0.016480902 -0.12742245 0.25903925 -0.07065461
0.07465221 0.050660685 -0.18698609 -0.04436708 -0.04497671 0.028446987 0.0029505447 0.0032289692
-0.04881453 -0.0363959 0.15590686 0.27792603 0.10548538 0.036104836 0.1393553 0.063436866
0.06134288 -0.07604767 0.01822042 -0.06395359 0.10410088 0.21195441 -0.38363558 -0.14558871
0.09107369 -0.06197646 0.03587468 0.050091214 0.065954715 0.08964612 0.07201008 0.004328979
-0.04408497 0.000535672 0.122687176 0.07690742 0.026502876 -0.0050392402 -0.05072385 -0.124903634
0.082133904 -0.0550419 0.12006754 -0.10078395 -0.10781807 0.06195723 -0.01678509 -0.02625287
0.082404576 0.09750353 -0.08979462 0.012674188 0.0435371 -0.09662178 -0.03249823 0.023415975
-0.040668033 0.08729586 -0.28821933 -0.095288776 0.0927057 -0.06989279 -0.103446305 0.10363252
-0.2071666 -0.01876023 -0.09508158 0.018421978 -0.012627346 -0.20503649 -0.10698595 0.2632661
0.038735688 -0.052355208 0.08752442 0.10392578 -0.04051643 0.31654438 0.14516452 -0.03520448
0.05211333 0.0167364 -0.17046535 0.00035958918 -0.007181654 0.15024808 0.095096245 0.03927747
0.03973517 -0.11788378 -0.0038155168 -0.007886984 0.043803956 -0.07703516 -0.28680766 -0.26206997
0.05549776 -0.15578571 -0.030606685 0.11823668 0.039521813 0.049190495 -0.06837348 0.07120995
0.06020613 0.017724523 0.17577378 -0.028995946 -0.024935026 0.04504716 -0.041665502 0.10521589
-0.10592751 -0.033578184 0.08621551 0.11640112 0.09001628 -0.06090233 -0.042419728 0.0367031
-0.1708011 0.025790757 0.14481334 -0.1240312 -0.04286914 0.1545795 0.122938946 0.02625691
-0.015553876 -0.0037571103 -0.015142197 -0.15341479 0.064975835 0.17149355 -0.0116605405 0.14448494
0.019529328 -0.061423328 0.19278936 0.07623202 0.05735405 0.12716082 -0.10555318 -0.06724196
0.15340076 -0.020327026 0.112165384 0.06215782 0.096232235 0.035722863 -0.20737216 0.019711468
0.07392367 -0.15481222 -0.04392264 -0.013779153 -0.106431596 -0.04066999 -0.051826704 -0.050744828
-0.15503223 -0.055486985 -0.016373353 0.15594067 -0.025718516 0.0380229 -0.022328954 -0.069593474
0.07165477 0.050262645 0.06103083 -0.04992194 -0.33680803 0.0418278 -0.06221732 0.018677898
-0.057968546 -0.048877575 0.021405283 -0.17446887 -0.04130547 0.067204684 0.082733944 -0.06931984

model.4.bias f4 [128]
00000000: 6af5 6d3d 41cc 15bd 467e 32bc f9d0 13bd
00000010: 1b99 11bd 15bc 0e3d 2744 443d defa 7e3c
00000020: 40f7 b6bd 0d34 39bd 14f5 923d 05de 933d
00000030: 01f0 4e3d 1de6 b13c c82d 0ebc 71a7 cbbd
00000040: dea5 5cbd 569e 8a3d 1e43 b33c f269 c53c
00000050: 1ad1 72bd e59a ac3d 7c5a debb 2ac1 353d
00000060: 4bf0 263d ebd0 5fbd 0930 22bd e187 803d
00000070: baea a23d 9500 62bc 5691 853d dc32 9f3c
00000080: 70cf 51bc 52dc 86bd ff05 7dbc ba4b 43bd
00000090: c706 823d a78a efb9 f7a9 89bd bc0e ac3c
000000a0: ec62 f03c 3253 04bd b15c 7abd 4d28 5bbd
000000b0: 06c4 87bd 20cb 4cbd 2676 533d 6d60 043d
000000c0: 17dc 633c 84b1 6e3d c65d d93c b63e b83c
000000d0: d8e5 e4bd 33fc a63d d516 b0bd cbb6 b23d
000000e0: 34ca 0939 1e71 ee3c 2e2c 013d d216 223c
000000f0: ecc8 95bc 8d65 b8bc 33fd a03d 0472 8cbd
00000100: 423a 413b 7108 df3b 3f2a 1bbd ffdd 6d3d
00000110: c458 e33a 73f4 02bd 8836 393d 9664 2b3d
00000120: fceb 7f3d a0d2 373d 9d3e f4bb 64ec 7dbd
00000130: c73e 5bbd e957 8cbd 1390 83bd 0609 043d
00000140: 2c10 46bc 122a d2bd 06bb 7fbc b110 9cbd
00000150: 8a3c 0ebb 690c a2bb 84d1 093d 6ac6 ea3c
00000160: dc27 8fbd 8160 a8bc 9fea 04bd d47b c73c
00000170: 22ff 1fbc 1372 dcbd fe4c dc3c b952 813d
00000180: abfb c23d a93b bd3d 602c 7ebb ae9a 54bd
00000190: 9202 8cbd f087 cd3c aef6 1dbd 627c 283d
000001a0: 7f31 86bd f9b8 d6ba ef11 08bc 8c86 74bd
000001b0: 8e51 af3b 4027 03bd d1ba 0a3d 2243 94bd
000001c0: 6307 a13b 4ba0 9f3d 042f 94bb 26c5 5ebd
000001d0: 2250 983b 150e e63b a222 2fbd 27e4 7fbd
000001e0: 640b 9d3d 8ad0 4bbd 4dcf 2dbd 3ca4 81bc
000001f0: e233 9c3c c9ef 0b3d 983b 1ebd c72f b93b
0.058095373 -0.036571745 -0.010894364 -0.036087964 -0.035546403 0.034847338 0.047916558 0.015562741
-0.08933878 -0.045215655 0.07175651 0.07220081 0.050521854 0.021716172 -0.008677907 -0.09944046
-0.05386912 0.067684814 0.02188259 0.02409837 -0.059281446 0.08427981 -0.006785689 0.04437367
0.040756505 -0.0546426 -0.03959659 0.06275917 0.07954927 -0.013794084 0.06521861 0.019433431
-0.012805805 -0.065849915 -0.015443324 -0.04767964 0.06348949 -0.00045688936 -0.06721871 0.02100312
0.029344045 -0.032305904 -0.061123554 -0.05350523 -0.066291854 -0.049998403 0.051626347 0.03231852
0.013907454 0.05827476 0.026533972 0.02249084 -0.11176652 0.08153572 -0.08598105 0.08726271
0.00013140665 0.029106673 0.031536274 0.009893136 -0.018284284 -0.02250936 0.07860794 -0.06857684
0.0029484187 0.006806426 -0.037882086 0.05807304 0.001734518 -0.031971406 0.04521802 0.041843973
0.06248091 0.044878602 -0.007453753 -0.061993018 -0.053526666 -0.06852705 -0.06423964 0.032235168
-0.012088817 -0.102619305 -0.015608555 -0.07620371 -0.0021703565 -0.004945327 0.033647075 0.028659064
-0.069900244 -0.02055383 -0.032450315 0.024351038 -0.009765418 -0.107639454 0.026892181 0.06314606
0.09520658 0.09239895 -0.0038783774 -0.051905327 -0.06836428 0.025089234 -0.03856533 0.041134246
-0.065524094 -0.001638203 -0.008305057 -0.059698626 0.0053502982 -0.032019854 0.03386957 -0.07239367
0.0049142106 0.07794245 -0.0045222063 -0.054387234 0.0046482245 0.0070207217 -0.042757638 -0.062473442
0.07668188 -0.049759425 -0.042434026 -0.015825383 0.019067708 0.034164224 -0.03863105 0.0056514475

model.6.weight f4 [64, 128]
00000000: 66d1 c9bc b348 a23c 4391 48bc b5f6 10be
00000010: 9cc7 d33d 979d 593d b989 d8bd 9f9e bd3d
00000020: d7bd 653c 0f53 9c3d 87d0 bd3d 0208 7a3d
00000030: 0f66 ffbd b2c0 2a3d f798 a03e 1529 8dbd
00000040: 09c2 8e3d f763 b5bd a3d3 4abd f2dd ccbe
00000050: 5262 513e 4246 103e 9b43 45bd 5872 33be
00000060: 8057 fabd d910 113d d438 1c3e 07fe 963d
00000070: 4156 15be 6761 5fbe 8f0b b7bd 2fd0 89bd
00000080: 2b5d 673d 3762 01be 3c61 843d 0782 d53c
00000090: 6518 d0bc aa10 1a3d e3cf 00be 1de9 ae3d
000000a0: fa5b a8bc b8e3 833c 0f43 cd3d 5d54 d6bc
000000b0: 6c9d c8bd f275 3b3e afd8 8bbd 90a9 3e3e
000000c0: 055d 603c 7b7e 583e 0d8a 55bd ad6a 31bc
000000d0: 8a03 3fbe 7220 56be 4add 41be df37 913b
000000e0: d15c 1e3e b820 8abd 633d 96bd 8f41 373e
000000f0: 37be 82bd c00c 0e3d 4919 96bd acfe ad3d
00000100: 8f54 823e 867b 18bd 6b6f 69bd a7b3 783e
00000110: d328 99bd 3035 3dbd 1865 093d 17e3 173e
00000120: e770 84bd 43dd 4abe 5adb d9bd c036 30bd
00000130: d6e0 1a3d b6ab 3ebd 1d6c 85be 0164 173e
00000140: 3a89 1b3e 0e05 24be 0dd2 a5bd abc6 533c
00000150: 22c4 62be 26bd 253c b7c0 9c3d 8939 aa3d
00000160: 4c00 e83d a146 ef3c 8742 1e3e 429f 2abe
00000170: fade e7bb ff8b db3d 8454 ee3c b68c 4e3d
00000180: 44a3 f63c d359 323d 3e6f c13c 709d dc3c
00000190: fd31 323a 61b0 173e e84f 8a3e a887 a5be
000001a0: d5ce efbc 8772 efbc 8966 4ebe 7adc 593c
000001b0: cf6c 47bd 46ac 1e3d 7a16 983d 62b7 853d
000001c0: 6b2e d4bc 7b1f a33d 09ab e9bb cd16 693d
000001d0: 0268 33bd be26 83bd 6574 163d 2454 ec3c
000001e0: b8cc 313d 2c96 c7bd 8083 e2bd 1615 6fbe
000001f0: 275a 8e3c 0fd4 0f3d f371 bbbd b378 343e
00000200: f5b6 f03c ae21 bbbb f866 9abd e995 acbd
00000210: 89f5 85bc 2adb e43d b32f 873d a778 97bd
00000220: e55f 9a3e 325e 11be 4e30 31be d0dc 3f3d
00000230: f427 e5bc e032 4ebe 047c 29bd 0098 b53d
00000240: b4a8 85bd c5a9 b5bd c1e6 47be c06d 9f3e
00000250: 7522 8bbb c1f6 773d 8e1f bbbd 394f b83d
00000260: bf58 fcbd bd2e 32bd 53a2 dfbc bae2 75bd
00000270: 0851 593e 0d9a 303d 9e4a 57be c1b2 0e3e
00000280: 5652 2d3b f3af a6bc 4411 593e a68f 75bd
00000290: 6c04 903d 38f1 0ebe c1e2 0a3e 4846 9dba
000002a0: a520 333d 9e61 5bbe 9dc9 193c f1e4 5fbe
000002b0: b93a 8d3e 470f 19bd 4cd7 f43d e337 8f3d
000002c0: f200 a43d 23e4 883e dd7c 193d e038 38be
000002d0: cce1 b0bd 6c0d 6e3d 99b6 c33d 6c48 2b3e
000002e0: 770d 6c3d 5385 2fbe cc5c 0cbe f063 353c
000002f0: 81fa 2fbe b0a5 063e 3063 97ba 9819 c7bd
00000300: f36d a3bd 36f1 f63d 037d 0abe 1485 fcbc
00000310: fa29 ffbd ffbc 993d 0f5e 343d 048c 193e
00000320: d383 c8be 6025 00bd 402e b73d c715 80bd
00000330: 7f75 21be 4e17 ebbd 44e7 1dbc 8604 fbbb
00000340: d583 edbe ad76 a73d f93b eb3c 07a9 8fbd
00000350: ca8c d4bb be58 edbd d66b 6abd 4c62 103e
00000360: 0c16 3b3d 92e9 383e 6cbf acbd a7b9 043e
00000370: 9a90 ba3d 4634 43be 0088 21be cad7 a1bd
00000380: 5d7c f3bc eb4d de3d 4ff9 ffbd 5e00 e53d
00000390: 04db 80bd e261 13be dfaa 4ebe e993 813d
000003a0: 4c9f 163e e21c 053d fbbd 703e 020e e73d
000003b0: 9fe6 c0bc 759e 9e3e 809f c93d 778a d63d
000003c0: e7d1 83be bc14 c8bd aa2e 1ebd da35 063c
000003d0: d651 63bd 4f5a 1d3e a7ae 51bd 48de 29be
000003e0: 1e3c b4bd 4f47 efbd ac66 853d 5111 83be
000003f0: ce00 eabd 4dd7 273d baab 633e e601 a0bd
-0.024635982 0.019810056 -0.012241664 -0.14156611 0.10340807 0.053128805 -0.105731435 0.0925877
0.014022312 0.0763303 0.09268289 0.061042793 -0.12470638 0.041687675 0.31366703 -0.068926014
0.06970603 -0.088569574 -0.04951824 -0.4001308 0.20447662 0.14089301 -0.048160177 -0.17524087
-0.122237206 0.035416458 0.15256053 0.073726706 -0.14583685 -0.218145 -0.089377515 -0.06729161
0.056485336 -0.12635122 0.064638585 0.026062978 -0.025402257 0.03761355 -0.12579302 0.085405566
-0.02055167 0.016099796 0.10022556 -0.026163274 -0.09795651 0.18306711 -0.068284385 0.1861937
0.013694053 0.21141998 -0.05213361 -0.010828656 -0.18653694 -0.20910814 -0.18932071 0.004431709
0.15465094 -0.06744522 -0.07335927 0.17896102 -0.06383937 0.034680128 -0.073290415 0.084958404
0.25455138 -0.037227176 -0.056991022 0.24287282 -0.0747849 -0.0461933 0.033543676 0.14832722
-0.06466847 -0.19810967 -0.10637541 -0.043020964 0.037812077 -0.046550475 -0.26059046 0.14784242
0.15189067 -0.16017553 -0.08096705 0.012925784 -0.22145131 0.010115897 0.07653945 0.08311755
0.113281816 0.029208483 0.15455066 -0.16662315 -0.0070761414 0.107200615 0.029093035 0.05042716
0.030107148 0.043542694 0.023612615 0.02693054 0.000679761 0.14813377 0.2701409 -0.3233006
-0.02927343 -0.029229416 -0.20156302 0.013297195 -0.048687752 0.03873851 0.07426162 0.06529118
-0.02590104 0.07964989 -0.0071309847 0.05690651 -0.04380036 -0.06403874 0.036732096 0.028848715
0.043408126 -0.0974544 -0.11060238 -0.23347887 0.017376972 0.035114344 -0.091525935 0.17624168
0.029384116 -0.005710802 -0.07539171 -0.084270306 -0.016352432 0.11174615 0.06600895 -0.073960595
0.30151287 -0.14196089 -0.17303583 0.046841443 -0.027973153 -0.20136595 -0.041378036 0.08866882
-0.06526318 -0.088702716 -0.1952162 0.3113842 -0.004246051 0.060538057 -0.09136878 0.089994855
-0.123216145 -0.043501604 -0.027299082 -0.060030676 0.21222317 0.043115664 -0.21024558 0.13935377
0.002644678 -0.020347571 0.21197993 -0.059951447 0.070320934 -0.13959205 0.13563062 -0.0011999095
0.043732304 -0.21423957 0.009386447 -0.21864678 0.27583864 -0.037368085 0.11955127 0.069930814
0.08007993 0.26736555 0.037472595 -0.17990446 -0.08636817 0.05811827 0.09556312 0.16726846
0.05763003 -0.17140703 -0.13707274 0.01107119 -0.17185403 0.13149142 -0.0011549946 -0.097216785
-0.079799555 0.12057726 -0.1352425 -0.030825175 -0.12459178 0.07506751 0.044035014 0.14994818
-0.39163074 -0.031285644 0.08944368 -0.06254154 -0.15767477 -0.114790544 -0.009637658 -0.0076604513
-0.46389642 0.081769325 0.02871512 -0.07014661 -0.00648651 -0.11589192 -0.057231747 0.14099997
0.045675322 0.1805785 -0.08434948 0.12961446 0.09109612 -0.1906291 -0.15774536 -0.079024866
-0.029722387 0.108547054 -0.12498724 0.11181711 -0.06291774 -0.14392808 -0.2018237 0.0632704
0.14709204 0.032498248 0.23509972 0.11281969 -0.023547469 0.30980268 0.09844875 0.10475629
-0.2574608 -0.0976958 -0.03861872 0.00819155 -0.055497967 0.15366481 -0.051191952 -0.165887
-0.08800529 -0.11683523 0.06513724 -0.2559915 -0.11425935 0.04097681 0.22233477 -0.07812862

model.6.bias f4 [64]
00000000: 42ec d23c 3a4c 593d f4f4 05bd d913 98bb
00000010: d73a 9a3d 3ea6 543c 4df4 553d d64c c538
00000020: f339 b83d 06e5 3f3c a27c dabb 47fa 21bd
00000030: 9a9b 8d3d 1c97 253d a455 203d abe1 f73d
00000040: 897a 8d3c 2a71 993d 34af 92bd d213 5e3d
00000050: 0025 bb3c ccab d63c 22c9 d73d 1b0c 823d
00000060: c20e 9abd d8cf a93d 713a 483d b1ff 153d
00000070: 129e 6e3d 4f2f 29bd 9065 bd3c 90a3 3c3d
00000080: 43a8 ab3d edb6 763c a6ce b23d 35ff 8d3d
00000090: 07b3 023d ddca d2bd e126 a13d ba83 153d
000000a0: b134 ad3d baf0 053d c7e9 553d 7c96 a3bd
000000b0: 7d5a 27bd ad67 9f3c 30e9 4b3d 0fd2 57bd
000000c0: 693c 713d cf4f 433d c558 13bd be6f 213b
000000d0: c0e3 b6bd 392b 81bd ab6a 7c3b 22dc 90bd
000000e0: 0d1d 0b3d 7ede 9a3d fe97 ab3d 28f8 7ebd
000000f0: 1fa7 143d 14e3 ecbb 743b 333d 4504 71bd
0.025747422 0.05305121 -0.03270431 -0.004641038 0.07530754 0.012979088 0.052234937 9.408004e-05
0.08995428 0.011712318 -0.0066676894 -0.039545324 0.06914444 0.040427312 0.039144173 0.121035896
0.017270343 0.074922875 -0.071623236 0.05421812 0.022844791 0.026204966 0.1053641 0.06349965
-0.07522346 0.08291596 0.04888386 0.0366208 0.058256216 -0.041304883 0.023119718 0.046054423
0.08381703 0.015058261 0.08730821 0.069334425 0.031909015 -0.10292599 0.07868744 0.036502577
0.08457316 0.032700278 0.0522249 -0.07987687 -0.04085778 0.019458616 0.04978293 -0.05269056
0.058895502 0.047683533 -0.03597333 0.0024633254 -0.089301586 -0.06307072 0.0038515728 -0.07073237
0.03396325 0.07561968 0.083785996 -0.06224838 0.03629219 -0.0072292183 0.04375787 -0.058841962

model.8.weight f4 [64, 64]
00000000: 2cbe f13d 7890 14be 60b3 e3bc e9be 233e
00000010: c569 0b3e 6e3e f73d b51d b5bd 979f debc
00000020: 8ce7 023d a4c0 8cbd dcb5 b4bd ec3b c93d
00000030: 75d7 6bbd a2d5 a0bc b178 633d b0f5 4d3d
00000040: d418 62bd e8cc 62bb f47b e6be 9c3e 67bd
00000050: 0d08 40bc 5ba9 c4be 358d 283e f590 1e3e
00000060: 4d6f 233e 511c 2b3e 8cb8 2bbe 078f b8bd
00000070: 50c2 fabc 2fd0 97bd 33ad 38bd 9f77 1ebe
00000080: 1a7f 0b3e 36c7 24be adc4 bf3d 2d86 a73d
00000090: cc9f b7bd 96a6 aebd a0de 45bd e55a 00bc
000000a0: fa8c d23d 1818 d43d 302f 573e e189 bcbd
000000b0: 9935 a93e 95c7 403d 5f63 893d 2b21 4e3e
000000c0: 5dee 253e dfe9 fb3d ecf7 00be 206a 9bbe
000000d0: 8c6f 25be 31ce 02be 8d5f ae3d ba5c ad3d
000000e0: 0445 97bd 55cd 083e a22f a93d 720c 48be
000000f0: adca 393d 9978 dc3d 6de9 1ebe 2250 8f3e
00000100: 0674 753c da7c c3bd 6829 9bbc 950b 0b3d
00000110: 8629 15bc 7320 f13c 0ad7 1f3e 12c9 423c
00000120: 30f3 79bd 64ba 05be 96f2 c2bd 0dee f43d
00000130: 2c2e 393d fa3a ea3d 8a13 f93d 5a15 1dbd
00000140: 9632 f83d c6fc 0c3e 669f 7dbe a7f8 1cbb
00000150: e094 3d3d ca3d 7bbe 2102 d63d 54de 133e
00000160: 39c1 6a3e 167e 2e3e 31ed 54be 6cd9 763d
00000170: 6e4c 2e3e 41cd 893d e74e 8bbd 8246 a2be
00000180: d86d 86b9 35d4 a2bd 8a9a 193e e65d f83d
00000190: 463b 09be 1fb8 933d b1a7 5dbd bdc1 c93c
000001a0: 8dd7 fabd d02e a23d dcc6 093e 10b6 e63c
000001b0: 2e22 9c3e 322a 853c 907b 00be 98c2 103e
000001c0: 4ce9 a03d 1d8b d7bd 92a4 f7bd 6dcd b73d
000001d0: ff15 be3e b372 ca3d b7db 31bc c63b b5bd
000001e0: d4ec a0be 874a 623d fa7d 57bd fdaf f43d
000001f0: 195f 703d 7849 56bd 1ef4 ccbe 83b7 e93e
00000200: 373a 143e 5b76 a9bd 8086 673b 88c1 c03d
00000210: 606f fabd 1d27 113e ba8b b8bc 1229 31bd
00000220: 3993 3bbe 2199 4b3e 5277 d63d a48f 79be
00000230: 6c8c 2abe 8ac7 353e a8cb 753e a002 83bd
00000240: db8b 4e3e d3d1 d1bd c4c3 ee3e f494 aabe
00000250: 9c90 443d 8d64 b3be 3d81 b73d 82d6 bdbd
00000260: be9b 793c 371a b03e 33c3 68be a8f0 aa3c
00000270: 3950 203e e077 66be 56e3 863d 0acd 7ebe
00000280: 1179 b13d ae68 8a3d 1ad5 ac3d 4811 0dbe
00000290: 65ce 46be e5de aa3d 352e 92be 851e 9f3e
000002a0: 07c1 703c 6976 943c 6b58 943e c0fd 7cbd
000002b0: c4eb 003f ba72 1a3e 8d6b d0be 3cae 983d
000002c0: 7f26 c5bd 0082 543d 12d6 f9ba 6b98 393b
000002d0: bfac 353e ad9b e9bd 699d c8bd 2007 c6bc
000002e0: b04f 0c3e af03 a53e dfa2 82be 91b4 0c3d
000002f0: 3b22 ba3d fb66 0abe b4f2 06be 6f9d 4e3e
00000300: 25ac 4a3e fa6e 1e3b aeec a1bd 4393 eebd
00000310: f39a 073e e0e2 dbbd a5ea 933d 63ea 73bc
00000320: 5cb6 e53d 1019 edbd 2b24 69bd 39b6 70bd
00000330: d47d 593d 4c73 edbd 8ea7 423e 04c4 e2bd
00000340: d26c 423c ead7 083e dbc4 bcbc e4c1 eebc
00000350: 960d 96bc aeb4 0bbe c593 91bd 3a3e 023e
00000360: ea81 7a3e f55e babd 16bf 653e afa2 b2be
00000370: 2abc 2a3d 7f24 aa3c 32cd 9abd cb39 1cbe
00000380: 8a7f a0bc cedf aebe e4e4 2b3e b938 193e
00000390: 82e2 6b3d 7956 67bd 2dc1 2d3e b147 163e
000003a0: ccd4 ab3d 5c44 38bc a46a 863e 0489 1cbd
000003b0: 9cb4 303e cff1 d63d d2b1 1c3e c068 a93d
000003c0: 70c3 27bd c140 433c ba41 c53c 980f e93d
000003d0: 6aa8 373b d3e6 7ebd c0cf cebc e81c 6a3d
000003e0: a031 9fbe 4e16 f1bd 06d9 05bb 69a7 3d3e
000003f0: 1d96 3b3e 3c3b 6a3d b247 53be 9350 723e
0.118038505 -0.14508235 -0.027795494 0.15990795 0.13614567 0.120724544 -0.08843557 -0.027175708
0.0319591 -0.06872681 -0.088237494 0.09825882 -0.057578523 -0.019633118 0.055535022 0.050283134
-0.05519946 -0.0034606997 -0.45016444 -0.056456193 -0.011720669 -0.38410458 0.16460116 0.15484984
0.15960427 0.1671002 -0.16769618 -0.09011655 -0.030610234 -0.07412755 -0.04508705 -0.1547532
0.13622704 -0.16091618 0.09363685 0.08179889 -0.08966026 -0.085278675 -0.048308015 -0.007834171
0.102807954 0.10356158 0.21014094 -0.09205986 0.33048704 0.047065336 0.06708407 0.2012984
0.1620421 0.12300467 -0.12594575 -0.30354404 -0.16155833 -0.12773968 0.085143186 0.08464952
-0.073862106 0.13359578 0.08261038 -0.19535998 0.045359302 0.1076519 -0.15518732 0.27990824
0.014981275 -0.09545298 -0.018940642 0.033946592 -0.009104138 0.029434418 0.15609375 0.011888759
-0.061022937 -0.13059384 -0.09518926 0.11959467 0.04521005 0.1143703 0.1216193 -0.03835044
0.121190235 0.137683 -0.24767837 -0.002395192 0.046284556 -0.2453529 0.10449625 0.1444028
0.22925271 0.17040285 -0.20793606 0.060265943 0.17021343 0.06728602 -0.06802159 -0.31694418
-0.00025640312 -0.079506315 0.15000358 0.12127285 -0.13401517 0.07212853 -0.054115 0.024628514
-0.12248144 0.07919085 0.13454765 0.028162986 0.30494827 0.016255472 -0.12547135 0.14136732
0.07856998 -0.10524581 -0.12091936 0.08974729 0.37126157 0.098851584 -0.010855607 -0.088492915
-0.31430686 0.055246856 -0.052610375 0.119476296 0.058684442 -0.05231616 -0.40029997 0.4564782
0.14475332 -0.08274528 0.003532797 0.09411913 -0.12228274 0.14175077 -0.022527564 -0.04325206
-0.1831788 0.19882633 0.10471977 -0.24371201 -0.16655129 0.177519 0.2400347 -0.06396985
0.20170538 -0.10245099 0.46633732 -0.33316767 0.047989473 -0.35037652 0.08960197 -0.0926943
0.015234886 0.34395 -0.22730713 0.020866707 0.15655603 -0.22506666 0.0658633 -0.24882904
0.0866567 0.06758247 0.084390834 -0.13776124 -0.19414671 0.08343295 -0.28550878 0.31077972
0.014694459 0.018122869 0.28973708 -0.061765432 0.5035975 0.15082827 -0.40707055 0.074551076
-0.09626483 0.05188179 -0.001906099 0.0028319608 0.17741679 -0.11406646 -0.097956486 -0.02417332
0.13702273 0.32229373 -0.25514886 0.03435189 0.0908856 -0.13515846 -0.13178521 0.20177244
0.1979223 0.0024175034 -0.07906471 -0.11649182 0.13242702 -0.10736632 0.07222489 -0.014887425
0.11216423 -0.11577046 -0.056919258 -0.05876753 0.053098515 -0.11594257 0.1900923 -0.11072543
0.011866765 0.13363615 -0.023043087 -0.029145189 -0.018317025 -0.13643143 -0.07108263 0.1271905
0.24463621 -0.09100143 0.22436175 -0.34889743 0.041683353 0.020769356 -0.07558669 -0.15256421
-0.019592065 -0.34155124 0.16786534 0.14963044 0.05758906 -0.05647895 0.16968222 0.14675786
0.08390197 -0.011246767 0.26253235 -0.038216606 0.17256397 0.1049534 0.15302208 0.082719326
-0.040957868 0.011917294 0.024079192 0.113799274 0.0028023967 -0.06223185 -0.025245547 0.057156473
-0.31092548 -0.117718324 -0.0020423546 0.18520893 0.18318982 0.057185397 -0.20632818 0.23663549

model.8.bias f4 [64]
00000000: e742 09bc ad23 17bd 5de5 8fbd ca58 223d
00000010: 5df8 d03d 0217 01bd 7f99 6f3c 0b8e a43d
00000020: a28c a93c 5830 f73d f3b0 13bd 7bda 1e3c
00000030: 5e73 c4bd be37 91bd c778 623d 7f9e 1d3e
00000040: aaf4 a23d 58b9 803d 7446 ba3d c948 cc3b
00000050: 1c17 d7bd 89d2 b9bd b2e7 a53d 15a8 a2bd
00000060: a629 17bd 5214 763d 7825 6bbc fbc0 973d
00000070: eb18 203d b4a5 c53a 16da 6a3d 3a8d 54bc
00000080: d779 863d 61ce 43bc 357b 66bc fa2b 253e
00000090: d816 133c c585 583d f443 15bc 77e3 893b
000000a0: 1c61 71bc fc61 843d 9b3b 673d 6b04 55bd
000000b0: aa24 0b3e 5ac9 f5bd 6746 643d 8a7e b1bd
000000c0: 6dc5 af3d fcb3 20bb a3f1 6c3c 920a e4bd
000000d0: 48ba 403d 7ffe c4bc c53a 4ebb 89fe 75bd
000000e0: cf8d 1b3c 7c65 bf3b dd26 d9bc 4edf 423e
000000f0: 6ba0 6a3d 0702 93bd 3de9 953d af52 f5bc
-0.008377767 -0.036899257 -0.070261694 0.039635457 0.102036215 -0.031516083 0.014623999 0.08034905
0.020696942 0.12069768 -0.036057424 0.0096956445 -0.09592317 -0.0709071 0.055290964 0.15392493
0.07956822 0.062853515 0.09095469 0.0062342626 -0.10502455 -0.090733595 0.08100833 -0.07942215
-0.036904953 0.060077973 -0.014352195 0.07409855 0.039086264 0.0015079291 0.05733689 -0.012973124
0.06566208 -0.01195106 -0.014067461 0.16130057 0.008977614 0.052861948 -0.00911044 0.004208024
-0.014732625 0.064640015 0.05645333 -0.052006166 0.13588205 -0.120012954 0.055731203 -0.086667135
0.08582578 -0.0024521342 0.014461908 -0.111348286 0.04705265 -0.024047134 -0.0031468135 -0.060057197
0.009494259 0.0058409553 -0.02650779 0.19030496 0.057281893 -0.07178121 0.07319877 -0.029946653

model.10.weight f4 [4, 64]
00000000: a7e9 7e3e 2724 54be c27e 9abe c71a 923d
00000010: 56aa 5f3e 5369 133d ca4a 4b3e 77b6 0d3e
00000020: 47a5 bebe 1e0b c03d c733 d8bd deb0 59bd
00000030: 9ae1 a9be b69d 5abd 20bb ab3e 8b74 853d
00000040: 054c 4c3d b040 bb3d d487 933c acb2 8abe
00000050: e43f 53bd b4fc 82be d75e ac3e 671a 9e3c
00000060: 7778 1fbd 828e 563d 23d1 743d 3a20 9fbc
00000070: 8673 023e ba8c 8dbd 0252 0abf 0a83 d13d
00000080: 934b a13d 321e 063e 7f84 023d f456 463e
00000090: 8d1f ec3e 374a 88be 0a70 05bd 4120 983e
000000a0: 4a47 88bd 6c2b d9bd e3c6 30bd 78ee d13c
000000b0: 91e4 e23d 749d db3d 219a 97bd a199 40be
000000c0: 6bda 2b3e d807 933e 4dd1 8e3e 19b2 4e3e
000000d0: be61 7a3e 250f 4dbd 2907 ad3e 8f06 2abf
000000e0: 76e3 88be ab0e 2abd 4ccd 083e 1e5d 223e
000000f0: 80c1 c73d dca5 2bbe 06b5 f3bd 15f6 56bd
00000100: 552b 3cbd 2245 5bbe 314b 36bf a14e cbbc
00000110: eafc 173e f663 f0bd 6d30 0a3d 24c8 c2bd
00000120: 300c 1b3f 3729 973d 095d b0bc 83c4 253e
00000130: 76ca 1ebf 5b95 e03d ca45 293c c7e9 273e
00000140: 09be 01be 3d2d 4c3e 7c28 9cbd 7b48 d0bd
00000150: 3a1a 963d c529 3c3e 43fe 103f 8e4c de39
00000160: 68f5 40bd 2196 57bd 075a 573e 47af 463e
00000170: 8e69 253f f3e0 70be 071e d03e 8eae d2bd
00000180: 0853 00be 6afe 0f3e 2028 94bb 5ada 0f3e
00000190: 8e1a 5b3e 9e2e 663e 4a61 523d 0291 4dbe
000001a0: b632 a23d c188 543e 41f6 d03c fc57 15be
000001b0: 5ff4 2d3e 05e1 92bd 7964 7f3e d8dc 263c
000001c0: c060 413e d961 f73d 4233 7abd e210 54be
000001d0: f306 d3bd 92dc dfbd 8c0b 613e f462 1cbe
000001e0: 8b6e db3e fcd6 edbd 84e5 ae3d b454 28bd
000001f0: 2a1e 8a3e 12e7 6339 581b 853e 43c1 a5bc
00000200: 08a1 79bd 0d20 43bd 8c97 9bbd ed86 53be
00000210: 51b6 69bd 0f77 33be 8a47 743d c9fa 65ba
00000220: cd30 aabe f4a1 043e def4 e9bd 5d0d 94be
00000230: 876d c73c 2d92 9a3d 27cf 09bf 9fc2 363e
00000240: bbc8 d4bd 86a7 55bd d46d 023e 55f5 c63d
00000250: 0816 c53d 394d 01be a76f 153d eda9 d3bc
00000260: 5f0a a13d 6a35 063e 59f7 f33e d581 683e
00000270: 0a64 043f 1f8f 81be f48a c7be 0581 3ebd
00000280: a2af efbd 775e 953e 5d09 7e3e f796 9dbd
00000290: 5270 893e 672c 393d 3962 153e 5e10 023e
000002a0: fe13 f23d f0c9 91bd aec5 293e fafd 473e
000002b0: a089 283d dbc4 da3b 89d5 bd3c d23f 5cbe
000002c0: 1069 793d 834a fe3d 7087 d63d c9fc bcbd
000002d0: ce4d 133e 0843 d5be f3d7 b43e d373 4a3c
000002e0: 67e7 c03e 4d8f 8f3e 5ec0 363e 6d38 173e
000002f0: a07a 603e c477 7fbc 4be0 593e cc1f 2abe
00000300: fc83 42be f26a a1be bd2b 873e e813 82be
00000310: 37f8 263e 6b0c 64be b97f 873e efda b73d
00000320: de0c d8be 8878 c2bc a9f0 52bd d75a a73e
00000330: a699 8bbe 7530 b03d 30da 8f3e 9fbf 273e
00000340: 8896 cdbd e44b 833e 27ea 643c 448b 80be
00000350: dc9d 4e3d 36ea e53e ac0b 83be c5ad c7bd
00000360: cbe1 adbd f2fb 26be 7ce7 073e 8668 7e3e
00000370: 7064 143c 3ee6 303e fe41 a8be 03e0 22bd
00000380: caa0 ad3d 92a9 163e b823 05be 248b 983d
00000390: 250a 7d3d 5d9a 54be 98d9 643d 3906 a7be
000003a0: 2a6b b73d 65f1 32be bd88 833d 16bc 6c3e
000003b0: 4fe0 343e ea2a 27be 17ab bdbe f65d f43d
000003c0: 10aa f7bd 2d66 c33b 355b 53bd 65f5 863e
000003d0: 5510 053e d5e6 9b3d 9209 873e f81f 99be
000003e0: d28a 8fbe 9f08 053e 5145 4f3e 3e14 073e
000003f0: 40a0 70be e76c c9bd dec5 8cbe 66f2 55be
0.24893819 -0.20716916 -0.30174834 0.071340136 0.21842322 0.035989117 0.19852749 0.13839136
-0.37235472 0.093771204 -0.10556751 -0.05314719 -0.33179933 -0.05337306 0.33541203 0.065163694
0.049877185 0.091431975 0.018009104 -0.2708944 -0.051574603 -0.25583422 0.33666107 0.019299699
-0.038933244 0.052382 0.05976976 -0.019424547 0.12739381 -0.06911607 -0.54031384 0.10230072
0.07875743 0.13097456 0.03186464 0.19369107 0.4611782 -0.2661912 -0.032577552 0.29712108
-0.06654222 -0.10603985 -0.043158423 0.025626406 0.11078752 0.10723391 -0.07402445 -0.18808605
0.16782539 0.28716922 0.2789406 0.20185126 0.24451348 -0.05006327 0.33794525 -0.6641626
-0.2673604 -0.041517895 0.13359565 0.15855834 0.09753704 -0.16762489 -0.11899762 -0.052480776
-0.045939762 -0.21413091 -0.71208483 -0.024817767 0.14842573 -0.11737816 0.03373759 -0.0951083
0.6056547 0.07380908 -0.021528738 0.16188245 -0.6202768 0.10965987 0.01033158 0.16397773
-0.12670149 0.19939132 -0.07624909 -0.101700746 0.07329221 0.18375309 0.5663797 0.00042400177
-0.047109038 -0.05263341 0.21030436 0.194028 0.6461419 -0.23523311 0.4064791 -0.102872
-0.12531674 0.14061895 -0.004521385 0.14048138 0.21396849 0.2247872 0.051362313 -0.20074847
0.079198286 0.20755292 0.025508048 -0.14584345 0.16987751 -0.07171825 0.24940671 0.010184489
0.18884563 0.1207921 -0.06108404 -0.20709565 -0.1030406 -0.10930742 0.21977061 -0.15272123
0.42857775 -0.11613271 0.085398704 -0.041096404 0.26976138 0.00021734487 0.25997424 -0.020233756
-0.060944587 -0.047637988 -0.07597265 -0.20656939 -0.057058636 -0.17525886 0.059638537 -0.00087730266
-0.33240357 0.12952405 -0.11423658 -0.28916445 0.024344219 0.07547412 -0.53831714 0.1784768
-0.10389849 -0.052161716 0.12737209 0.09714762 0.09623343 -0.12627114 0.036483433 -0.025837863
0.07863306 0.13106313 0.4764965 0.22705777 0.5171515 -0.25304505 -0.389732 -0.04650976
-0.11703421 0.29173633 0.2480826 -0.0769481 0.26843506 0.04520836 0.1458825 0.12701556
0.118202195 -0.07118595 0.16579315 0.19530478 0.041146874 0.006676299 0.02317311 -0.2150872
0.06089121 0.12416556 0.104750514 -0.092279024 0.14385149 -0.41652703 0.35321006 0.012356716
0.37676546 0.28039017 0.1784682 0.14767618 0.21921778 -0.015592519 0.21276967 -0.16613692
-0.1899566 -0.31526905 0.26400557 -0.25405812 0.16305624 -0.22270362 0.26464632 0.08977305
-0.42197317 -0.023739114 -0.051499043 0.32686493 -0.27265662 0.086029924 0.2809615 0.16381691
-0.10038477 0.25643837 0.013971842 -0.2510625 0.050443515 0.4490525 -0.25594842 -0.09749941
-0.08490332 -0.16307047 0.13271898 0.2484456 0.009057149 0.1727533 -0.32862848 -0.039764415
0.08477934 0.14713123 -0.13001907 0.07448414 0.061777253 -0.2076201 0.055871576 -0.32621935
0.08955987 -0.17474897 0.06422565 0.23118624 0.17663692 -0.16324964 -0.37044594 0.11931984
-0.12092984 0.005963108 -0.051600654 0.26359096 0.12994511 0.07612387 0.2637449 -0.29907203
-0.280356 0.1299157 0.20241286 0.13191316 -0.2349863 -0.098352246 -0.2749471 -0.20893249

model.10.bias f4 [4]
00000000: 2b9a 40bd 7e7b 643d 085c 173d 798b 383d
-0.047022026 0.055781834 0.036953002 0.045054886
