Double_DQN/checkpoint_end.pth (torch_old, 204181 bytes, 12 tensors)

model.0.weight f4 [128, 37]
0	0x3d1d9156	0.03846868
1	0x3d6a871a	0.05725775
2	0xbda6da24	-0.08147076
3	0x3b24236e	0.0025045532
4	0x3c9e0cd4	0.019293226
5	0x3c1d3575	0.009595265
6	0x3db2f051	0.08737243
7	0x3e300193	0.171881
8	0xbe25e43e	-0.16200349
9	0xbd5f800c	-0.054565474
10	0x3db9fab0	0.09081018
11	0x3cc24438	0.02371417
12	0xbecd8c99	-0.4014633
13	0xbe00b92a	-0.12570634
14	0xbe2a16dd	-0.16610284
15	0x3d710ac1	0.058848146
16	0x3debb6d9	0.11509485
17	0x3bdf9c4b	0.0068240515
18	0x3bee1634	0.0072658304
19	0xbeaa5ff2	-0.33276325
20	0x3d5d5f71	0.0540461
21	0x3e30a028	0.17248595
22	0xbd1f95f4	-0.038961366
23	0x3e803d7c	0.2504691
24	0x3e08b99a	0.13352051
25	0x3d0f5910	0.034997046
26	0x3e273616	0.16329226
27	0xbdaa70c0	-0.083222866
28	0xbe47a366	-0.19495925
29	0xbd9d3ebd	-0.07677982
30	0xbe0e69a3	-0.13907485
31	0x3e680416	0.22657809
32	0xbb0a6042	-0.0021114503
33	0xbde0249e	-0.10944484
34	0xbd03c535	-0.032170493
35	0xbd9e67db	-0.077346526
36	0xbd4f0c79	-0.050549004
37	0x3cd78938	0.026310548
38	0x3e180fe7	0.14849816
39	0x3dbb0267	0.091313176
40	0xbdc2209a	-0.094788745
41	0xbdb499c5	-0.08818392
42	0xbd49873e	-0.049201243
43	0xbe40cf79	-0.18829145
44	0xbe39d2d3	-0.1814683
45	0xbdca57b8	-0.09880012
46	0xbd6bd7a9	-0.057578716
47	0x3cf90949	0.030399935
48	0xbe4c2b73	-0.1993845
49	0xbd5264b1	-0.051365558
50	0x3e8be3ff	0.27322385
51	0x3e51bf2c	0.20483083
52	0x3e1d3906	0.15353784
53	0xbdf8ead7	-0.12154167
54	0x3dfeab53	0.12435021
55	0xbe6961d1	-0.2279122
56	0x3e31d5c5	0.17366703
57	0xbe7d5bab	-0.24742
58	0xbd9e17d2	-0.07719387
59	0xbdf930c2	-0.12167503
60	0x3cd4e205	0.02598668
61	0x3e108796	0.14114222
62	0xbde5097d	-0.1118345
63	0xbd6ca52b	-0.057774704
64	0x3e12b225	0.14325769
65	0xbd8c455f	-0.06849169
66	0xbec06611	-0.3757787
67	0xbc1bcaff	-0.009508847
68	0x3d9fa5d8	0.07795304
69	0x3e23d7a0	0.16000223
70	0xbe21c8d6	-0.15799269
71	0x3dde2aa0	0.10847974
72	0x3d1ac868	0.03778878
73	0x3d2e4b5a	0.04255233
74	0x3d977abb	0.07396456
75	0x3e704b85	0.23466308
76	0xbcca5a6c	-0.02470132
77	0x3d8d1d77	0.068903856
78	0x3d8a819b	0.067630015
79	0xbda45fcb	-0.080260836
80	0xbd9f93d7	-0.0779187
81	0x3e876893	0.2644697
82	0xbe8c6231	-0.27418664
83	0xbebcf849	-0.36908177
84	0x3c99ee29	0.018790321
85	0x3db09e5e	0.08623956
86	0x3d0cf31b	0.03441153
87	0xbe0cec7d	-0.13762088
88	0x3e481668	0.19539797
89	0x3d3dd5a1	0.04634631
90	0x3decfd56	0.115717575
91	0xbc190b4f	-0.009341075
92	0x3d2f7f10	0.042845786
93	0x3da90bc0	0.08254194
94	0xbe474918	-0.19461477
95	0xbcc3c3d9	-0.023897098
96	0x3db32229	0.0874675
97	0x3deee4d3	0.116647385
98	0x3dad0043	0.084473155
99	0xbd981c72	-0.074273005
100	0x3e027f8b	0.12743966
101	0x3e7119ce	0.23545
102	0xbe58bef0	-0.21166587
103	0xbe579958	-0.2105459
104	0xbe3c0afb	-0.18363564
105	0xbc601f76	-0.013679376
106	0x3c53ebb1	0.012934611
107	0xbe2c528b	-0.16828363
108	0x3eafa745	0.34307304
109	0x3d696dbd	0.05698942
110	0xbc90e041	-0.017685058
111	0x3eaee924	0.34162247
112	0xbea23f1b	-0.3168877
113	0xbe6198cf	-0.22030948
114	0xbe7bb3b2	-0.24580267
115	0xbfda1458	-1.7037458
116	0x3c60c0f0	0.013717875
117	0x3ca96d17	0.0206819
118	0x3d5be4e0	0.05368507
119	0x3da128ed	0.07869134
120	0x3d85356e	0.065043315
121	0xbcd630e1	-0.026146354
122	0xbcce90a9	-0.025215464
123	0xbc928054	-0.017883457
124	0xbcc8f4d3	-0.024530804
125	0xbd18899c	-0.03724061
126	0xbdd59311	-0.10428441
127	0xbc9c785f	-0.019100366
128	0xbd1bdc8e	-0.038052134
129	0xbd06bc9c	-0.032894716
130	0x3da8414e	0.08215581
131	0x3c3515bd	0.011052546
132	0x3ba16e03	0.0049264445
133	0x3c6c512b	0.014423649
134	0x3d1bbb46	0.038020395
135	0x3c51cd19	0.012805247
136	0x3a567550	0.0008180933
137	0x3daddf22	0.08489825
138	0x3d74f281	0.059801582
139	0x3e0994e5	0.13435705
140	0x3e1351ac	0.14386624
141	0x3d8e7510	0.06955922
142	0x3da19c9d	0.078912
143	0x3d818ca8	0.06325656
144	0x3d5000a6	0.05078187
145	0xbd97c4f0	-0.0741061
146	0x3ba31e18	0.0049779527
147	0x3adf695d	0.001704495
148	0xbdb4bbec	-0.08824906
149	0xbe2d887e	-0.16946599
150	0xbd3c94a7	-0.046040203
151	0xbe900d8d	-0.28135338
152	0xbe3aa637	-0.18227468
153	0x3e1e3b62	0.1545234
154	0x3ddd6cad	0.10811744
155	0xbe219576	-0.15779671
156	0xbde8cdb9	-0.113673635
157	0xbf0e2dee	-0.55538833
158	0xbb4fbbc7	-0.0031697617
159	0xbde61256	-0.11233966
160	0xbdf4da86	-0.119557425
161	0x3de2ebff	0.11080169
162	0xbd744d5f	-0.0596441
163	0xbe95c36a	-0.29250652
164	0xbcc97a3f	-0.024594424
165	0x3e39ca02	0.18143466
166	0xbe806a9d	-0.2508134
167	0x3d97e571	0.07416809
168	0xbe86b0d9	-0.263068
169	0xbd25408a	-0.040344752
170	0x3e4a3d34	0.1974991
171	0x3dbe643c	0.09296462
172	0x3d519534	0.05116768
173	0xbd06f371	-0.032947008
174	0xbd48505b	-0.048904758
175	0x3e70f385	0.23530395
176	0xbe292ad0	-0.16520238
177	0xbeee2f0b	-0.46520266
178	0x3e1b98f2	0.15195063
179	0xbe2c4633	-0.16823654
180	0x3d981f30	0.074278235
181	0xbe340431	-0.17579724
182	0xbce3a4be	-0.027788516
183	0x3e2eb4e8	0.17061198
184	0x3d343ca7	0.044003155
185	0x3dd3abdb	0.10335513
186	0xbde13531	-0.109964736
187	0xbe0e82e5	-0.1391712
188	0xbe60d1f5	-0.21955092
189	0xbb03bf63	-0.002010309
190	0x3dd7ce89	0.1053744
191	0x3df25f59	0.11834592
192	0xbda0a544	-0.07844022
193	0xbee3b1c3	-0.4447156
194	0xbf85178a	-1.0397809
195	0xbdf370dc	-0.118867606
196	0xbe4edbb9	-0.20201005
197	0x3d27df00	0.040984154
198	0xbdd96228	-0.10614425
199	0x3d28804e	0.041137986
200	0xbc8e071f	-0.01733738
201	0xbbce8a7f	-0.006303131
202	0xbe3d8c1a	-0.18510476
203	0xbc25f492	-0.010129111
204	0xbdd155d4	-0.102214485
205	0x3de8e01c	0.113708705
206	0xbda5926c	-0.080845684
207	0x3d5d1d3f	0.05398297
208	0x3c8a77b2	0.016902778
209	0xbc01113d	-0.007877645
210	0xbd75fdf3	-0.060056638
211	0xb9eaa2c2	-0.00044753222
212	0x3d6c47d2	0.05768568
213	0xbe3f5a4d	-0.18686791
214	0x3c5ddee1	0.013541908
215	0x3cc7a44b	0.024370333
216	0xbe75bdf4	-0.23998243
217	0xbd289ecf	-0.041167077
218	0xbe6926f1	-0.22768761
219	0xbdeba084	-0.11505225
220	0x3d4fd085	0.05073597
221	0x3dc79dba	0.09746881
222	0x3c45afad	0.01206581
223	0x3d1e6be4	0.03867711
224	0xbc1e9efb	-0.009681459
225	0x3c0f19a2	0.008734139
226	0xbd62e7cd	-0.055396844
227	0xbd28fd0f	-0.04125696
228	0xbcfc53c5	-0.030801663
229	0xbb734cb6	-0.003712458
230	0x3d82d0a2	0.0638745
231	0x3da34694	0.07972446
232	0x3d601a0c	0.05471234
233	0x3d90308f	0.07040512
234	0x3d984a82	0.07436086
235	0x3db09ced	0.08623681
236	0x3d3edd02	0.04659749
237	0xbd3a9253	-0.045549702
238	0xbca10d9a	-0.019659806
239	0x3cb04c30	0.021520704
240	0x3d3fc9e6	0.046823405
241	0x3d911103	0.07083323
242	0xbd02a026	-0.03189101
243	0x3b743633	0.003726375
244	0x3c42efa7	0.011897958
245	0x3d33ad14	0.043866232
246	0x3cd994f4	0.026560284
247	0xbdc37111	-0.0954305
248	0xbb6fe953	-0.0036607578
249	0xbbfd4e0d	-0.0077302516
250	0xbc9358c7	-0.017986668
251	0x3dae7518	0.085184276
252	0x3e7e3124	0.24823433
253	0xbeb3715b	-0.3504742
254	0xbec776aa	-0.3895772
255	0xbeb207a3	-0.3477145

model.0.bias f4 [128]
0	0xba48ece3	-0.00076646934
1	0xbb72769d	-0.0036996969
2	0xbdd1bbce	-0.10240899
3	0xbc14950c	-0.009068739
4	0x3c788065	0.01516733
5	0xbe0a61c8	-0.13513863
6	0x3e0f5c1b	0.13999979
7	0x3e3379fb	0.17527
8	0xbe0d477d	-0.13796802
9	0x3ce67fd2	0.028137121
10	0xbdb99c20	-0.090629816
11	0xbd41b562	-0.04729212
12	0x3c3e0e18	0.01160004
13	0xbc8ef06c	-0.017448626
14	0xbd823ed1	-0.063596375
15	0x3d35919b	0.044328313
16	0x3d5c8d82	0.05384589
17	0xbc64e012	-0.013969438
18	0x3c9bbb09	0.019010084
19	0xbca82d61	-0.02052945
20	0xbdb659cc	-0.08903846
21	0x3e0be4c1	0.13661481
22	0x3e28e135	0.1649216
23	0xbc4d83c6	-0.012543624
24	0x3c7f6603	0.015588286
25	0x3e166476	0.1468676
26	0x3e19dbfe	0.15025327
27	0xbda1b074	-0.07894984
28	0xbd98d43d	-0.07462356
29	0xbdd1c22d	-0.10242114
30	0x3e057fb7	0.13037
31	0x3e38a5cf	0.18032001
32	0xbd5d9577	-0.05409762
33	0x3dac38ba	0.08409257
34	0x3c2d3fe6	0.010574317
35	0xbe36e4f2	-0.17860773
36	0x3dd2e25e	0.10297082
37	0x3dd21d4e	0.10259496
38	0x3d59d8e9	0.053185377
39	0x3d1f55ce	0.03890019
40	0x3cc8efe4	0.024528451
41	0x3e14da07	0.14536296
42	0x3e3b259c	0.18276066
43	0x3cbc033e	0.022950765
44	0x3db75d71	0.089533694
45	0xbcce762e	-0.025202837
46	0x3d6043fb	0.05475233
47	0xbd88d72e	-0.06681667
48	0xbe0269af	-0.12735628
49	0x3d9e8e6f	0.07742011
50	0x3d87b66d	0.06626592
51	0x3cea750f	0.028620271
52	0x3d96668e	0.073437795
53	0x3d3f0d8e	0.046643786
54	0x3d61c75f	0.055121776
55	0x3d301d7c	0.04299687
56	0xbd76ef9a	-0.060287096
57	0x3d314ed3	0.043288063
58	0x3d0a77dc	0.033805713
59	0xbd03c871	-0.032173578
60	0xbe0d25df	-0.13783978
61	0x3d827865	0.0637062
62	0x3e010d86	0.12602815
63	0xbdd93816	-0.10606401
64	0x3e289381	0.16462518
65	0x3b6c7997	0.0036083215
66	0x3d0efbad	0.034907985
67	0xbda0c1b2	-0.078494444
68	0xbe3b9c15	-0.1832126
69	0xbdcd0514	-0.10010734
70	0xbc5009fa	-0.012697691
71	0xbcd98f5a	-0.026557613
72	0x3ddeb1ca	0.10873754
73	0xbddcb79a	-0.10777207
74	0xbda36458	-0.079781234
75	0xbc9d8be6	-0.019231748
76	0x3e4e41c3	0.20142274
77	0xbdb9c0f9	-0.0907001
78	0x3e07ccc4	0.13261706
79	0x3d695185	0.05696251
80	0xbd4975d5	-0.04918464
81	0x3d9a48a1	0.07533384
82	0x3d8a5783	0.06754973
83	0xbdb21d24	-0.086969644
84	0x3bb67bbb	0.005568949
85	0x3e0a9452	0.13533142
86	0x3dac59b8	0.0841555
87	0xbd8689d5	-0.06569258
88	0x3c8bf3b1	0.017083975
89	0x3dfd6564	0.12372854
90	0x3df42657	0.11921375
91	0x3cd81bd2	0.026380453
92	0xbddbb6b3	-0.107282065
93	0xbdf1245d	-0.11774514
94	0xbd422778	-0.04740092
95	0x3ddf9b97	0.10918348
96	0x3c0e3311	0.008679167
97	0xbe0b77aa	-0.13619867
98	0xbcd88e94	-0.026435174
99	0x3db5a934	0.088701636
100	0xbe0827f4	-0.13296491
101	0xbe538ba3	-0.20658736
102	0x3daf43db	0.08557864
103	0x3e24a51f	0.16078614
104	0xbe375bf9	-0.17906179
105	0xbe0ffd0c	-0.14061373
106	0xbd9636d3	-0.07334676
107	0x3e26250f	0.16225074
108	0xbd95bff2	-0.07312001
109	0x3d84c94b	0.06483706
110	0x3e05680c	0.13027972
111	0xbd78266f	-0.060583528
112	0xbd6c0aef	-0.057627615
113	0xbda3404b	-0.07971247
114	0x3cf88116	0.03033499
115	0x3e336b35	0.17521365
116	0x3dc968d8	0.098344505
117	0x3e1c3691	0.1525519
118	0xbc3c4d93	-0.0114931045
119	0xbd37a262	-0.044832595
120	0xbc07bc0c	-0.00828458
121	0x3d96ecde	0.073693976
122	0xbbba1412	-0.005678662
123	0xbde628ec	-0.11238274
124	0xbd23a4f8	-0.03995225
125	0xb97b4218	-0.00023961847
126	0x3e40536d	0.18781824
127	0xbc9b638f	-0.018968372

model.2.weight f4 [128, 128]
0	0xbda18b07	-0.078878455
1	0xbbf1f668	-0.0073841102
2	0xbe4af7ab	-0.1982104
3	0x3dceef94	0.1010429
4	0x3dc8b0c9	0.09799344
5	0x3c3dc312	0.011582153
6	0xbd352cf1	-0.044232313
7	0x3d0ad21f	0.033891793
8	0x3daea594	0.08527675
9	0x3e35fff6	0.17773423
10	0x3dbe8fd6	0.09304778
11	0x3d1a933d	0.037738074
12	0x3df8252a	0.121164635
13	0x3c943ee6	0.018096399
14	0xbda6d6f0	-0.08146465
15	0xbdbd6913	-0.09248557
16	0x3d427e69	0.047483835
17	0xbde293be	-0.11063336
18	0xbe085c4f	-0.13316463
19	0xbea67855	-0.3251368
20	0x3bd2c1f0	0.0064318106
21	0xbe8faf15	-0.28063264
22	0x3c904c52	0.017614517
23	0xbdedf45b	-0.11618873
24	0xbd81827b	-0.06323715
25	0x3dce2ab3	0.10066738
26	0xbe29cc5b	-0.16581862
27	0x3d87b028	0.06625396
28	0xbe01152a	-0.1260573
29	0x3d91bda1	0.07116247
30	0xbd4d4d6f	-0.050122675
31	0x3e25fd02	0.16209796
32	0xbaa2d38e	-0.0012422667
33	0xbc8d03c3	-0.017213708
34	0x3c987f8f	0.018615512
35	0xbe5cc5cb	-0.21559827
36	0x3d3b4253	0.04571755
37	0xbe193c59	-0.14964427
38	0xbd1f29ae	-0.03885811
39	0xbdbb21b3	-0.09137287
40	0xbe0fdbf1	-0.14048745
41	0xbd88416b	-0.066531025
42	0xbda4d074	-0.08047572
43	0x3d690071	0.056885187
44	0xbb4a5c8b	-0.0030877914
45	0x3be70784	0.0070504565
46	0xbbf260da	-0.0073967995
47	0xbdec5b13	-0.115408085
48	0x3d9c933a	0.07645269
49	0xbe3ca2af	-0.18421434
50	0xbd339a8d	-0.043848563
51	0xbda25f92	-0.07928385
52	0xbd0bbc72	-0.034115262
53	0xbc276c8e	-0.010218753
54	0x3dfd8e13	0.12380614
55	0x3cbede79	0.023299443
56	0xbd77cec1	-0.06049991
57	0xbdc7315b	-0.09726211
58	0x3d922d88	0.07137591
59	0x3d98c117	0.07458704
60	0x3d00cd52	0.03144581
61	0x3c227c72	0.009917365
62	0xbd0d6e18	-0.03452882
63	0xbe537df3	-0.20653515
64	0x3d7507b3	0.059821796
65	0x3dcbcf3c	0.09951636
66	0x3e34f92b	0.17673175
67	0xbda9c597	-0.082896404
68	0x3e5e88cc	0.21731871
69	0xbd2d0419	-0.042240236
70	0x3dfe9841	0.12431384
71	0x3e313731	0.1730621
72	0x3d03ce2c	0.032179043
73	0xbe475bbc	-0.19468588
74	0xbd6ef3ec	-0.05833809
75	0xbc9d4104	-0.01919604
76	0xbdae2dff	-0.08504867
77	0xbd831e2f	-0.064022414
78	0x3dc55e83	0.09637167
79	0xbd9317e6	-0.07182293
80	0x3d341613	0.043966364
81	0x3d21cdac	0.039502785
82	0x3ddbb888	0.10728556
83	0x3d92fc7f	0.07177066
84	0x3c09cc48	0.008410521
85	0xbd0f7581	-0.03502417
86	0x3e09467d	0.13405795
87	0x3d31def8	0.04342553
88	0xbe6e269d	-0.23256917
89	0x3db24767	0.08705025
90	0xbd10b858	-0.035332054
91	0xbe798937	-0.2436875
92	0xbd1057b1	-0.03523988
93	0xbe6c210f	-0.23059486
94	0xbe2c7b0f	-0.16843818
95	0xbde19be6	-0.110160634
96	0x3d297692	0.041372843
97	0x3d2dfef0	0.042479455
98	0xbf005ae0	-0.50138664
99	0xbe718dfd	-0.2358932
100	0x3d2086f6	0.03919121
101	0xbe43d9a1	-0.19125988
102	0xbd8f614c	-0.0700098
103	0x3bbdf3d1	0.0057968874
104	0x3d6fb3da	0.05852113
105	0xbdf376c0	-0.11887884
106	0x3c32c7b5	0.010911872
107	0xbd28d1f0	-0.041215837
108	0x3e167633	0.14693527
109	0xbdca1479	-0.09867186
110	0x3d51bb9a	0.0512043
111	0xbbe368f8	-0.0069400035
112	0xbde2b3b9	-0.110694356
113	0x3d73bc59	0.059505794
114	0xbe1ab452	-0.15107849
115	0xbd4ed75b	-0.050498348
116	0x3e0919e2	0.1338878
117	0x3d5b48e5	0.053536315
118	0xbc2757d7	-0.010213814
119	0x3d01e060	0.03170812
120	0x3de1e34e	0.11029683
121	0xbe0584ef	-0.13038991
122	0x3db598d4	0.0886704
123	0xbde5e162	-0.11224629
124	0xba9ad553	-0.0011812843
125	0xbd9d10da	-0.0766923
126	0xbe91ce05	-0.28477493
127	0xbd8b7301	-0.06809045
128	0x3d2494e3	0.040181052
129	0x3a1b2975	0.00059189583
130	0x3da49087	0.08035379
131	0xbea5342d	-0.3226637
132	0xbd31913d	-0.0433514
133	0xbd4fc0e0	-0.05072105
134	0xbe9e1046	-0.3087179
135	0xbe0b24bf	-0.13588236
136	0x3df7d214	0.12100616
137	0xbdaa3114	-0.08310142
138	0xbccf0ea0	-0.025275528
139	0xbe25bb8f	-0.16184829
140	0xbd4a3bc5	-0.049373407
141	0x3d3371c2	0.04380966
142	0x3d0ab396	0.033862673
143	0xbd816ff2	-0.0632018
144	0xbd277b83	-0.040889274
145	0x3da54561	0.080698736
146	0x3d1e7ab3	0.038691234
147	0x3e0cf2b1	0.13764454
148	0xbce8d4c8	-0.028421775
149	0xbcfd9648	-0.030955449
150	0x3ca4b7ff	0.020107267
151	0xbdc9859e	-0.098399386
152	0xbe05bd11	-0.13060404
153	0x3d31c27d	0.04339837
154	0x3dcac7fd	0.09901426
155	0xbdba7371	-0.0910405
156	0x3e08064a	0.13283649
157	0xbe0b2c46	-0.13591108
158	0xbdb0a306	-0.08624844
159	0xbc214279	-0.0098425085
160	0xbd32fde9	-0.04369918
161	0xbe0e2208	-0.1388017
162	0x3c7328e3	0.014841291
163	0xbcf59c57	-0.029981775
164	0x3e2c48fc	0.16824716
165	0xbda08b61	-0.078390844
166	0xbe031aa4	-0.12803131
167	0x3d47173d	0.048606146
168	0xbcbcc924	-0.02304513
169	0xbd29da51	-0.04146797
170	0xbd9df5eb	-0.07712921
171	0xbd86954a	-0.065714434
172	0x3cf3e0a7	0.029770209
173	0xbddd64d9	-0.10810251
174	0xbdbee711	-0.09321416
175	0x3d5deed0	0.054182827
176	0xbcffc18e	-0.031220224
177	0xbdbd62e0	-0.092473745
178	0x3df55fa4	0.119811326
179	0x3cda90eb	0.02668043
180	0x3d2d2d79	0.042279694
181	0x3da9c35b	0.08289214
182	0x3df99ea0	0.121884584
183	0xbb9a1073	-0.004701668
184	0x3d309763	0.043113124
185	0xbd73813d	-0.059449423
186	0xbe1d1051	-0.15338255
187	0x3e461091	0.19342257
188	0xbd81ae8b	-0.063321196
189	0xbd95e78f	-0.07319557
190	0xbd3b5481	-0.045734886
191	0x3e4102cd	0.18848725
192	0x3d0af408	0.033924133
193	0x3e0a0505	0.13478477
194	0x3dc6f6d3	0.09715047
195	0x3e22ae5d	0.15886827
196	0x3e2bedf7	0.16789995
197	0x3d79e19e	0.06100618
198	0xbca1b7e0	-0.019740999
199	0xbe412f31	-0.18865658
200	0x3cb34029	0.02188118
201	0xbc4801e8	-0.012207486
202	0x3d6ed90a	0.058312453
203	0xbe04e055	-0.12976201
204	0x3c8735d4	0.01650516
205	0xbd88439b	-0.0665352
206	0xbdb6e375	-0.08930103
207	0x3e189237	0.14899527
208	0xbc55122b	-0.01300482
209	0x3d4aa5f6	0.04947468
210	0xbc88a1df	-0.016678749
211	0xbdd5a926	-0.10432653
212	0x3c612c3b	0.0137434555
213	0x3bfd8c24	0.0077376533
214	0x3c4a91e8	0.012363888
215	0x3c91fc3d	0.017820472
216	0xbcfd484c	-0.030918263
217	0x3d6be5f9	0.057592366
218	0x3e333652	0.1750119
219	0xbd894d77	-0.06704228
220	0xbbf2e73f	-0.0074128206
221	0xbde0ce92	-0.109769
222	0x39bcc64d	0.000360059
223	0xbe8c972b	-0.27459082
224	0xbd3a7954	-0.045525864
225	0xbd4c03e7	-0.04980841
226	0x38ea118d	0.000111612586
227	0x3d569fbd	0.052398432
228	0x3e24f105	0.16107567
229	0x3d8881d2	0.06665386
230	0x3d2c2fb8	0.042037696
231	0x3c5443a5	0.012955581
232	0xbc4157f4	-0.011800755
233	0x3c50f03a	0.012752587
234	0x3dc01861	0.0937965
235	0xbc00cc26	-0.007861173
236	0x3c637d13	0.0138848005
237	0x3dbe3b3c	0.09288642
238	0xbce78bdf	-0.028264938
239	0xbd835297	-0.06412237
240	0xbce6cb87	-0.028173221
241	0x3d369da7	0.044583943
242	0xbc5506cc	-0.013002109
243	0xbca01c92	-0.019544873
244	0xbda7192f	-0.081591
245	0x3bd357f8	0.0064496957
246	0x3c8bdfee	0.017074551
247	0xbd8cddcb	-0.06878241
248	0xbb4e594b	-0.0031486328
249	0xbd74e10d	-0.059784938
250	0x3d4ac015	0.04949959
251	0xbdc0b2a4	-0.09409073
252	0xbb5c87a4	-0.0033650184
253	0xbc9e2b50	-0.019307762
254	0xbdad95b1	-0.08475817
255	0xbc90098e	-0.017582681

model.2.bias f4 [128]
0	0x3daf47cf	0.08558618
1	0x3bc3b30f	0.005972273
2	0xbd644b60	-0.055735946
3	0x3dcd8231	0.10034598
4	0xbdd86e5c	-0.105679244
5	0x3d56a76f	0.05240577
6	0x3d75521f	0.05989277
7	0xbc55ccc0	-0.0130493045
8	0xbcc4ea31	-0.024037452
9	0x3d851106	0.064973876
10	0x3e08b3c6	0.13349828
11	0x3d89285a	0.066971496
12	0xbd90c737	-0.07069247
13	0x3d000dae	0.031263046
14	0x3db50b89	0.08840091
15	0xbc7b6f78	-0.0153464
16	0xbd629687	-0.055319335
17	0xbc46e99c	-0.012140658
18	0xbd9192c3	-0.07108071
19	0xbd89dae1	-0.06731201
20	0xbd9336f2	-0.07188214
21	0x3b02c1c5	0.0019951921
22	0xbccbbdb3	-0.02487073
23	0x3d16ab71	0.036784593
24	0xbc4f647c	-0.012658235
25	0xbc0ac9a1	-0.008470924
26	0xbd518759	-0.05115447
27	0x3d45ff25	0.048339028
28	0x3c8cadd6	0.017172735
29	0x3db43cd7	0.08800667
30	0xbda32947	-0.079668574
31	0x3d27388f	0.040825423
32	0x3d3eb00d	0.046554614
33	0x3c971552	0.018442784
34	0x3cb5f8a7	0.022213293
35	0x3c167b37	0.00918465
36	0x3cf80892	0.030277524
37	0x3d8fb301	0.07016564
38	0xbb0fe0e3	-0.0021954111
39	0xbc6b12a2	-0.014347704
40	0xbd8cf306	-0.068822905
41	0x3da7ca76	0.08192913
42	0x3dce5e9f	0.10076641
43	0x3b498559	0.0030749647
44	0xbdaf74d9	-0.08567209
45	0x3df93c13	0.121696614
46	0xbd8ee3af	-0.06977021
47	0x3daf5233	0.085606
48	0x3d4687cd	0.048469353
49	0xbdde7abf	-0.10863256
50	0x3db22e74	0.087002665
51	0xbd9e67ac	-0.077346176
52	0xbd138604	-0.03601648
53	0xbcb25b4b	-0.021772048
54	0xbc8a03ad	-0.016847456
55	0x3d6fb889	0.058525596
56	0xbbd8b2eb	-0.0066131256
57	0x3d95196d	0.0728024
58	0x3d76a8ab	0.060219448
59	0x3cd243be	0.025667068
60	0xbc38fae8	-0.011290289
61	0xbcebe64a	-0.028796334
62	0xbc0cd45c	-0.008595552
63	0xbd838df0	-0.06423557
64	0x3d89e714	0.06733528
65	0xbd04c809	-0.03241733
66	0xbbb8fa8f	-0.0056451033
67	0x3bba8acf	0.005692817
68	0x3db29252	0.08719315
69	0x3d184f6b	0.037185114
70	0x3d593218	0.05302629
71	0xbd54a1a2	-0.051911958
72	0xbdbbfe0f	-0.09179317
73	0x3d67e9bd	0.056619395
74	0x3cfc8b31	0.03082809
75	0x3d78e497	0.060764875
76	0x3dc848f4	0.0977954
77	0x3b915fa9	0.0044364524
78	0xbdaafaf8	-0.0834865
79	0xbd8f7b74	-0.07005969
80	0xbd9dfca7	-0.07714205
81	0xbd3c83a5	-0.046023984
82	0x3d6c0dd3	0.05763037
83	0xbd7031de	-0.058641307
84	0xbc92e70b	-0.017932435
85	0xbdab008c	-0.08349714
86	0xbd7280c2	-0.059204824
87	0xbd60ebf6	-0.05491253
88	0x3d030851	0.031990353
89	0x3dabb7d6	0.08384673
90	0xbd6beaf9	-0.057597134
91	0x3d2ee12a	0.042695202
92	0xbda3061c	-0.0796015
93	0xbd185654	-0.037191704
94	0xbd59d0ce	-0.053177647
95	0xbd3e4a92	-0.046457835
96	0x3d55d4ef	0.052205022
97	0xbcdb10d2	-0.026741419
98	0xbcf7452c	-0.03018435
99	0xbc1ad63b	-0.009450491
100	0xbd83ef05	-0.06442074
101	0x3d628133	0.055298995
102	0xbd2834f2	-0.041066118
103	0xbd761c9a	-0.06008587
104	0xbadba4fb	-0.0016757542
105	0x3d581787	0.052756812
106	0x3bad333c	0.0052856486
107	0x3cfb23b0	0.030656666
108	0x3a0db72c	0.0005406018
109	0xbd9099b4	-0.070605665
110	0x3cc7f5a5	0.024409125
111	0x3b43cfec	0.002987857
112	0xbcc57af3	-0.024106478
113	0x3d491889	0.049095664
114	0x3bf4e101	0.0074731116
115	0x3c830ec9	0.015998261
116	0x3d70f800	0.05883026
117	0xbce56d26	-0.028006148
118	0x3d1b02f6	0.03784462
119	0x3d93ccef	0.07216822
120	0x3c05a542	0.008157076
121	0xbbdafe88	-0.0066831745
122	0x3d0468f9	0.032326672
123	0xbce519a1	-0.027966322
124	0xbdc70993	-0.09718623
125	0xbd50cf8c	-0.050979182
126	0x3db2807a	0.08715911
127	0xbd106f95	-0.035262663

model.4.weight f4 [128, 128]
0	0x3de856d9	0.1134469
1	0xbedb9e4c	-0.42894208
2	0xbdac79de	-0.08421682
3	0x3de707a1	0.11280752
4	0x3d8668f1	0.06562985
5	0x3e8248e0	0.25446224
6	0xbd0f0cd3	-0.03492434
7	0x3e10f3b5	0.14155467
8	0x3e0e3d49	0.13890566
9	0x3de2035b	0.11035796
10	0x3d821406	0.063514754
11	0x3d865cbf	0.06560659
12	0xbde826cd	-0.11335526
13	0xbdf71fba	-0.12066598
14	0xbea0c45c	-0.3139981
15	0x3d126e50	0.035749733
16	0xbe49b24c	-0.19696921
17	0x3e074917	0.13211475
18	0xbe79feb2	-0.24413565
19	0xbd9bc8aa	-0.07606633
20	0x3db79c55	0.08965365
21	0x3e388832	0.18020704
22	0x3dd304c0	0.1030364
23	0x3e0fdecd	0.14049836
24	0x3d87fc4b	0.06639918
25	0xbd2420d7	-0.04007038
26	0xbed5c29a	-0.41750032
27	0xbdab5c47	-0.0836721
28	0x3d84f0ae	0.064912185
29	0x3d84b12d	0.06479106
30	0xbe1efcab	-0.15526073
31	0xbd8f1b1c	-0.069875926
32	0xbe2ae423	-0.1668859
33	0xbe3c36d9	-0.18380298
34	0xbe4a86dd	-0.19778009
35	0x3ca60cbe	0.020269748
36	0x3dbe5a8d	0.09294615
37	0xbedffc4c	-0.43747175
38	0xbe9c4b9d	-0.30526438
39	0x3e6305de	0.22170207
40	0x3cf9f65f	0.030512987
41	0x3d88abfa	0.06673427
42	0x3e0476d9	0.12935962
43	0x3dadd46f	0.08487784
44	0x3d9b48a8	0.075822175
45	0x3d89282f	0.066971175
46	0xbda9d854	-0.082932144
47	0x3ca62ecf	0.020285992
48	0x3da8d821	0.08244348
49	0xbcd34f3a	-0.025794614
50	0x3d06f23f	0.032945868
51	0xbebc2850	-0.36749506
52	0xbdb41349	-0.08792741
53	0xbf05baf4	-0.5223839
54	0xbed1573c	-0.40886867
55	0x3dcee1d4	0.10101667
56	0x3d80d751	0.06291068
57	0x3cc5e61a	0.024157573
58	0xbdbe6a64	-0.09297636
59	0xbd968083	-0.073487304
60	0xbd36bc00	-0.044612885
61	0x3d4a6bac	0.04941909
62	0x3cb51764	0.02210588
63	0x3bde9b0d	0.006793386
64	0x3e35159a	0.17684022
65	0x3d19871a	0.03748236
66	0xbd8308f9	-0.06398196
67	0xbe2a4d51	-0.16631056
68	0x3cf3946c	0.029733859
69	0xbe0897ac	-0.13339108
70	0x3dc0605a	0.093933776
71	0xbccb195d	-0.024792368
72	0xbe9f8499	-0.3115585
73	0x3d7b006b	0.061279695
74	0xbdaae79d	-0.08344958
75	0xbd9a6be8	-0.07540113
76	0xbd87bcb1	-0.06627787
77	0xbda7d0fe	-0.08194159
78	0x3d366c41	0.044536833
79	0xbd160b7a	-0.03663204
80	0x3d588678	0.052862614
81	0xbd145799	-0.036216352
82	0xbdcbfb4f	-0.09960043
83	0x3d78117f	0.06056356
84	0x3debce64	0.11513975
85	0x3d49f152	0.049302407
86	0xbd28da7b	-0.041223984
87	0xbd7cf7f5	-0.061759908
88	0x3e0ac281	0.1355076
89	0x3d69f9e0	0.057123065
90	0xbccf593c	-0.025311105
91	0xbe18af37	-0.14910589
92	0xbda04676	-0.07825939
93	0x3e171fb9	0.14758195
94	0xbcc5af27	-0.02413137
95	0xbc50c206	-0.012741571
96	0x3db0fd93	0.086421154
97	0xbe1bdbba	-0.15220538
98	0x3d3aea45	0.045633573
99	0xbcdb8e23	-0.026801175
100	0xbcd3ce61	-0.025855245
101	0xbbcf1e3e	-0.006320744
102	0xbe70e121	-0.2352338
103	0x3baca744	0.005268963
104	0x3d235081	0.039871696
105	0xbe13ecd6	-0.14445814
106	0x3d4b6d80	0.049664974
107	0x3d3c0350	0.045901597
108	0x3d2cbdc5	0.042173166
109	0x395e635e	0.00021208587
110	0xbd144862	-0.036201842
111	0xbda66b9e	-0.08125995
112	0xbd1eada7	-0.038739827
113	0xbd73b1ee	-0.05949586
114	0xbaffa349	-0.0019503619
115	0xbc9ca790	-0.019122869
116	0xbdfc2dbe	-0.12313412
117	0xbdd98666	-0.106213376
118	0xbd871625	-0.065960206
119	0xbc51fda5	-0.012816821
120	0xbe493705	-0.19649895
121	0xbcb20faf	-0.021735994
122	0xbe590cd4	-0.211963
123	0xbd9406f7	-0.07227891
124	0x3db328d3	0.08748021
125	0xbb3eda60	-0.002912186
126	0x3c91d03e	0.017799493
127	0x3db1cf9f	0.08682179
128	0x3ca51236	0.020150285
129	0xbcb316ab	-0.021861395
130	0x3ceaa3b6	0.028642517
131	0xbd4f9edd	-0.050688613
132	0x3e319337	0.17341314
133	0xbdb167de	-0.08662389
134	0xbd68e4e1	-0.0568589
135	0x3d8eaa79	0.06966109
136	0x3bcb6cf9	0.006208059
137	0x3d86f287	0.06589227
138	0xbe2309fb	-0.15921776
139	0xbd572439	-0.05252478
140	0xbe2f1d0c	-0.17100924
141	0x3d3c4026	0.045959614
142	0xbdb1a359	-0.08673734
143	0x3dcea89d	0.10090754
144	0x3cbb3de7	0.022856666
145	0xbd127297	-0.035753813
146	0x3db79522	0.08963992
147	0xbdb4ade3	-0.08822229
148	0xbdf0e719	-0.117628284
149	0x3ddb7e21	0.107174166
150	0xbdebb303	-0.11508753
151	0x3d101e31	0.035185043
152	0x3e0d7829	0.13815369
153	0xbc87df06	-0.016585838
154	0xbc8a7de1	-0.016905727
155	0x3d9ffb93	0.07811656
156	0x3e06966f	0.13143323
157	0x3e170a3f	0.14750002
158	0xbd7faf47	-0.062423017
159	0x3d0409ce	0.032235913
160	0xbd6adc87	-0.057339218
161	0xbcbb1d8b	-0.022841236
162	0xbcf43c60	-0.029813945
163	0xbcdb0cf2	-0.026739571
164	0xbd38955b	-0.04506431
165	0xbc1d9305	-0.009617572
166	0xbc2076f1	-0.009793983
167	0xbbf73d04	-0.0075451154
168	0xbdaf8ada	-0.08571406
169	0x3c4f290a	0.012644062
170	0xbdd0af58	-0.10189694
171	0xbb4e838e	-0.0031511518
172	0xbe0aaf9d	-0.13543554
173	0xbcd019df	-0.025402961
174	0x3e00acc4	0.12565905
175	0xbd04f51a	-0.03246031
176	0x3dc2bca7	0.09508639
177	0x3c022482	0.007943274
178	0x3d85cd84	0.065333396
179	0xbd2287e2	-0.03968037
180	0xbbb85fca	-0.0056266533
181	0x3d678b50	0.056529343
182	0xbc9b0f53	-0.018928206
183	0x3d41c6cb	0.047308724
184	0xbd3bb1ac	-0.045823738
185	0x3d91c5c5	0.071178
186	0xbd4dc817	-0.05023965
187	0x3e01542e	0.12629768
188	0xbde2be5d	-0.11071465
189	0xbcbd913f	-0.023140548
190	0xbdf34333	-0.118780516
191	0xbe126659	-0.14296855
192	0xbd0a0503	-0.033696186
193	0xbd7a9bf6	-0.061183892
194	0x3d39d19c	0.045365915
195	0x3db5502a	0.08853181
196	0x3ce7fa1f	0.02831751
197	0x3dff79eb	0.12474426
198	0xbe932da3	-0.28745756
199	0x3e30f301	0.17280199
200	0x3d3e1d8e	0.046414904
201	0x3cbfab94	0.023397245
202	0x3dc7f7bb	0.09764048
203	0x3e2c9bdc	0.1685633
204	0x3d92d49c	0.07169458
205	0x3d94108e	0.0722972
206	0xbcdc06fb	-0.026858797
207	0x3d526c2f	0.051372703
208	0xbd38e892	-0.04514367
209	0xbce2996f	-0.027661053
210	0xbd34c455	-0.04413255
211	0xbc5c9d10	-0.013465181
212	0x3d37d579	0.044881318
213	0x3c20054e	0.00976689
214	0x3d9e4e4a	0.07729776
215	0xbe7ab1ed	-0.24481936
216	0x3e049f1d	0.12951322
217	0xbd0982a1	-0.033571843
218	0xbddc792e	-0.10765301
219	0x3de18f90	0.110137105
220	0x3e0a96b1	0.13534047
221	0x3e0945cf	0.13405536
222	0xbde1fc9b	-0.11034509
223	0x3cc8030c	0.024415515
224	0xbcf3d8e3	-0.029766506
225	0xbc9db4d6	-0.019251268
226	0x3dc9ce90	0.09853852
227	0xbe89c5aa	-0.26908618
228	0xbd86bc8f	-0.065789334
229	0x3c052d18	0.008128427
230	0x3ddd8c98	0.10817832
231	0xbe232502	-0.15932086
232	0xbd906b65	-0.07051734
233	0xbd87bbeb	-0.066276394
234	0xbe58cf83	-0.2117291
235	0xbd3c95fe	-0.04604148
236	0xbe1cb956	-0.15305075
237	0x3d0d6b3c	0.034526095
238	0x3d2e600f	0.042572077
239	0xbdbd7e6e	-0.0925263
240	0xbeb3c7d9	-0.3511341
241	0x3dd6fcda	0.10497446
242	0xbdd8d50c	-0.105875105
243	0x3ba13b51	0.004920401
244	0xbd925633	-0.071453474
245	0xbcd3c4eb	-0.025850734
246	0x3d1623d1	0.03665525
247	0x3d5d9240	0.054094553
248	0xbd8efbe0	-0.06981635
249	0x3d64d7fa	0.055870034
250	0x3d974430	0.073860526
251	0xbccf1593	-0.025278842
252	0xbd462ee8	-0.048384577
253	0x3df01c2b	0.117241226
254	0xbc24ef23	-0.01006678
255	0xbe77bf96	-0.24194178

model.4.bias f4 [128]
0	0x3c02526d	0.007954222
1	0xbb3cc9c0	-0.0028806776
2	0xbc91b7a2	-0.017787758
3	0xbc5c7a79	-0.013456934
4	0xbd26c3b7	-0.040713992
5	0x3d136112	0.035981245
6	0x3da4f825	0.08055142
7	0x3cd62993	0.026142871
8	0xbd99792f	-0.07493817
9	0xbd37443e	-0.044742815
10	0x3a8e7b4d	0.0010870487
11	0x3d9bef24	0.07613972
12	0x3d3ea374	0.0465426
13	0xbd863313	-0.065527104
14	0x3bb6f2db	0.00558315
15	0xbda0c400	-0.07849884
16	0x3d2c044e	0.041996293
17	0x3d77940b	0.06044392
18	0x3c823527	0.015894486
19	0x3cda3a64	0.026639171
20	0xbda8c84b	-0.08241328
21	0x3d366745	0.04453208
22	0xbce1846c	-0.027528964
23	0x3c4e3cc3	0.012587729
24	0x3d814804	0.06312564
25	0xbd610808	-0.0549393
26	0x3a97a6f0	0.0011570137
27	0x3cdbf5b3	0.026850557
28	0x3ca1697d	0.019703621
29	0xbcf120f3	-0.029434657
30	0x3d4fe58c	0.050756022
31	0xbd3be2cb	-0.045870584
32	0xbd859e8e	-0.065243825
33	0xbdb6cf55	-0.08926264
34	0xbb9db062	-0.0048122862
35	0x3b529915	0.00321347
36	0x3d6fc931	0.05854148
37	0xbbca5b79	-0.006175455
38	0xbd49b3b4	-0.049243644
39	0x3a6e470e	0.00090895675
40	0x3b8f0bf6	0.0043654395
41	0xbc9f7973	-0.019467091
42	0xbd4ba7f0	-0.049720705
43	0xbd9456e5	-0.07243136
44	0xbda19759	-0.078901954
45	0xbde0dc16	-0.10979478
46	0xbc928c8b	-0.017889282
47	0x3ca74acf	0.020421414
48	0xbd29a2da	-0.041415073
49	0x3d769861	0.060203914
50	0x3cfe6e30	0.0310584
51	0x3cfc24db	0.030779293
52	0xbd52c988	-0.051461726
53	0x3d634087	0.05548146
54	0xbd3a16fb	-0.045432072
55	0x3d46a521	0.048497323
56	0x3c5a4d5a	0.013324106
57	0x3d8f4220	0.06995034
58	0x3d210674	0.039312795
59	0x3d1ec211	0.038759295
60	0xbd3468b3	-0.04404516
61	0x3cc57b30	0.024106592
62	0x3d65eb8c	0.056132838
63	0xbdabfcf8	-0.08397859
64	0xbd09ffb4	-0.033691123
65	0x3c9b2fc3	0.018943673
66	0xbd6eaba3	-0.058269154
67	0x3cd07663	0.025447076
68	0xbcd267ad	-0.025684202
69	0xbc89850a	-0.01678707
70	0x3d61e460	0.055149436
71	0x3d7e8223	0.062135827
72	0x3d31a617	0.043371286
73	0xbc3d971b	-0.011571671
74	0xbb923132	-0.004461431
75	0xbdbf7ab2	-0.09349574
76	0xbcc0cdcd	-0.023535633
77	0xbd690c05	-0.05689623
78	0xbd85abad	-0.06526885
79	0xbb0c12d4	-0.0021373527
80	0x3d6ff26e	0.05858081
81	0xbd633ec8	-0.055479795
82	0x3b9365c0	0.0044982135
83	0xbd427e14	-0.04748352
84	0x3d074690	0.033026278
85	0x3b439a0d	0.002984646
86	0x3ca8ca76	0.020604353
87	0x3d24551e	0.040120237
88	0xbd42b17a	-0.047532536
89	0xbd8e774f	-0.0695635
90	0xbdd333c4	-0.10312608
91	0xbc3d4f81	-0.0115546
92	0x3d3cd32e	0.046099834
93	0xbdc7d6c6	-0.09757762
94	0x3d02d39f	0.0319401
95	0x3d074ed5	0.033034164
96	0x3d87a3d8	0.066230476
97	0x3db197b6	0.08671515
98	0xbcdecacc	-0.02719631
99	0xbdaf7ed8	-0.085691154
100	0xbd8ec467	-0.069710545
101	0x3cc262a8	0.023728684
102	0xbd025054	-0.031814888
103	0x3c2c7063	0.010524842
104	0xbdd92767	-0.106032185
105	0xbcae1e58	-0.021254703
106	0x3c3eec2b	0.0116529865
107	0xbd9b38b1	-0.075791724
108	0xbc8ed440	-0.017435193
109	0xbd6f28fd	-0.0583887
110	0x3ca582b7	0.020203931
111	0xbdcc2674	-0.09968272
112	0xba74e270	-0.0009341603
113	0x3daa0e12	0.08303465
114	0xbc9c4635	-0.019076446
115	0xbd3a12d2	-0.045428105
116	0xbd4a6419	-0.049411867
117	0xbcf0ccef	-0.029394595
118	0xbd551c84	-0.052029148
119	0xbd616ec8	-0.05503729
120	0x3dc719bb	0.097217046
121	0xbd9f1da5	-0.07769326
122	0xbd386228	-0.045015484
123	0xbc80698d	-0.01567533
124	0x3c94ae8c	0.018149637
125	0x3ce6c503	0.028170114
126	0xbc5b207d	-0.013374445
127	0x3d28ca01	0.04120827

model.6.weight f4 [64, 128]
0	0x3dce28a7	0.100663476
1	0xbdcf90e5	-0.10135058
2	0x3bcd0e6f	0.006257824
3	0xbe4ef763	-0.20211558
4	0x3d1ae04a	0.037811555
5	0x3daa8dd4	0.08327833
6	0xbe4a860b	-0.19777696
7	0x3e1c5302	0.1526604
8	0xbc9f00c6	-0.019409548
9	0x3dc98e4b	0.09841593
10	0x3d3f9284	0.046770588
11	0x3e584845	0.21121319
12	0xbe1ef17d	-0.15521808
13	0x3e140b41	0.14457418
14	0xbc3c22d3	-0.011482912
15	0xbd665df0	-0.05624193
16	0x3deeb229	0.11655075
17	0xbe963737	-0.29339
18	0x3da233f0	0.079200625
19	0xbde98898	-0.11403006
20	0x3e002098	0.12512434
21	0x3e81bf03	0.25341043
22	0xbe36334f	-0.1779301
23	0x3c98cb49	0.018651621
24	0xbd1a774f	-0.037711438
25	0x3dcd8a7d	0.1003618
26	0xbeb47ba5	-0.35250583
27	0xbda9dd55	-0.08294169
28	0xbdd943a1	-0.10608602
29	0xbe94b358	-0.29043078
30	0x3e322b8e	0.17399427
31	0xbe22cc41	-0.15898229
32	0x3dc7e9fc	0.09761426
33	0xbd32e9ea	-0.04368011
34	0xbde5fc57	-0.11229771
35	0xbd33c54a	-0.04388932
36	0xbcea7a25	-0.028622696
37	0x3e8344bf	0.25638387
38	0xbd000e26	-0.031263493
39	0x3cdeae40	0.027182698
40	0x3c275fbb	0.010215695
41	0x3cc7da57	0.024396105
42	0xbd50d3bc	-0.050983176
43	0xbbb5c02f	-0.0055465917
44	0xbe31c3d7	-0.17359863
45	0x3e34cd0e	0.17656347
46	0x3d10bcbc	0.03533624
47	0x3df5eba5	0.12007836
48	0x3c960686	0.018313657
49	0x3e4a0ac7	0.19730674
50	0xbde544fa	-0.11194797
51	0xba6d9993	-0.0009063717
52	0xbe67dbf5	-0.226425
53	0x3e787727	0.24264203
54	0xbc056c6c	-0.008143526
55	0x3e24ee3c	0.16106504
56	0x3dd580b6	0.1042494
57	0xbd6d77fa	-0.057975747
58	0xbcabc151	-0.020966204
59	0x3db5f945	0.08885435
60	0x3e8f0f43	0.2794133
61	0xbcb19aac	-0.021680199
62	0xbe205fab	-0.15661494
63	0x3e8cd034	0.27502596
64	0x3e184aed	0.14872332
65	0x3ea46fb1	0.32116464
66	0x3d082252	0.033235855
67	0x3da28656	0.07935779
68	0xbcfb6761	-0.030688943
69	0xbe5a5b06	-0.21323785
70	0x3c8b7e06	0.017027866
71	0x3db583ae	0.088630065
72	0x3ca782e6	0.02044816
73	0xbd437dc9	-0.04772738
74	0xbe544338	-0.20728767
75	0x3d04378f	0.032279547
76	0xbd089e69	-0.033354197
77	0x3db066c7	0.08613353
78	0xbdf0ae4f	-0.11751997
79	0x3e723690	0.23653626
80	0x3d695680	0.05696726
81	0xbdd1e8e3	-0.10249498
82	0xbe1a98e2	-0.15097383
83	0x3db18d6b	0.086695515
84	0x3da50ab4	0.08058682
85	0xbcd0cf81	-0.02548957
86	0xbe909968	-0.2824204
87	0x3c906362	0.017625514
88	0x3e0fb902	0.14035419
89	0x3d879705	0.066206016
90	0x3e434cd6	0.1907228
91	0xbe563567	-0.20918809
92	0xbe4ccffe	-0.20001218
93	0x3e0f0bcc	0.13969344
94	0x3cee7b29	0.029111462
95	0x3e43dd5c	0.1912741
96	0x3dd30baa	0.10304959
97	0xbd191064	-0.037369147
98	0x3e0ef89d	0.13962026
99	0x3d2270f3	0.039658498
100	0x3de046e6	0.10951023
101	0xbe7b74e6	-0.24556312
102	0xbd96779f	-0.07347035
103	0x3d995b09	0.07488067
104	0xbeb7a1ea	-0.35865718
105	0xbe1aafad	-0.15106077
106	0x3e4bf61c	0.19918102
107	0xbe364726	-0.17800578
108	0xbdfbf3e7	-0.1230238
109	0x3db6368f	0.08897125
110	0x3c135087	0.008991367
111	0x3c30d460	0.010792822
112	0x3d04cc8d	0.032421637
113	0x3da19ccf	0.07891237
114	0xbdb4920e	-0.0881692
115	0xbec9a21b	-0.3938149
116	0xbe7075dc	-0.2348246
117	0xbd5860cb	-0.052826684
118	0x3db5ca37	0.0887646
119	0x3d3cccfb	0.046093922
120	0x3ce50866	0.027958106
121	0xbdba7bfe	-0.09105681
122	0xbd3f9c40	-0.04677987
123	0x3caadd3a	0.020857442
124	0xbe4382fa	-0.19092932
125	0x3d57f0c7	0.052719858
126	0xbd7b8877	-0.06140944
127	0x3d0a0821	0.03369916
128	0x3db6f6e1	0.08933807
129	0x3d018242	0.031618364
130	0xbe896522	-0.2683497
131	0x3d390bb2	0.04517717
132	0x3d075d6b	0.033048075
133	0x3d4f358f	0.050588187
134	0xbe0103cb	-0.12599103
135	0xbe0fd11b	-0.14044611
136	0x3deaf73e	0.11472939
137	0xbe91ba6d	-0.28462544
138	0xbeea5be7	-0.4577324
139	0xbdfdd041	-0.12393237
140	0x3d7c94b8	0.061665267
141	0xbeb289a8	-0.34870648
142	0x3df25eb1	0.11834467
143	0x3e2dadae	0.16960785
144	0xbc25888c	-0.010103356
145	0xbbb9648c	-0.005657738
146	0xbc966bc3	-0.018361932
147	0x3e997b27	0.2997677
148	0xbe3684fc	-0.17824167
149	0xbc985ee1	-0.01859993
150	0xbcf63fd3	-0.03005973
151	0x3d9482ca	0.072515085
152	0x3e17ced5	0.14824994
153	0xbd435b1e	-0.047694318
154	0x3b8d8b25	0.004319566
155	0xbde9942a	-0.11405213
156	0xbe4fc40e	-0.20289633
157	0x3e0ccef3	0.1375082
158	0xbdeb6e79	-0.1149568
159	0xbd66f3cf	-0.056384858
160	0xbdefc560	-0.11707568
161	0xbdaed9b1	-0.08537615
162	0xbd66c0e1	-0.056336287
163	0xbe5495a3	-0.20760207
164	0x3d3c8c40	0.04603219
165	0xbd2f1e9b	-0.042753797
166	0x3cd541d1	0.02603236
167	0x3e13050a	0.14357391
168	0x3e1bc87e	0.152132
169	0xbea34652	-0.31889588
170	0xbe80805c	-0.2509793
171	0xbc4cbd51	-0.012496308
172	0x3d9505f1	0.07276524
173	0xbd80edb7	-0.062953405
174	0xbd9742b6	-0.07385771
175	0x3e5c8d87	0.21538363
176	0x3e116e3e	0.1420221
177	0x3def8bf9	0.116966195
178	0xbbec0f2a	-0.007203956
179	0xbcddcaa4	-0.027074166
180	0x3d350323	0.044192445
181	0xbe1e4c37	-0.15458761
182	0xbd59ecda	-0.053204395
183	0x3d7f8f41	0.062392477
184	0xbd822dee	-0.06356417
185	0xbec5c728	-0.38628507
186	0xbc642bdb	-0.013926472
187	0x3d14998a	0.03627924
188	0x3bf7da3d	0.007563858
189	0x3c4971f1	0.012295232
190	0xbd279513	-0.040913653
191	0xbe455df4	-0.19274122
192	0x3d945bd0	0.07244074
193	0x3c3e3c75	0.011611094
194	0x3da21297	0.07913702
195	0xbde03090	-0.109467626
196	0xbd459919	-0.04824171
197	0xbd35c4a3	-0.04437698
198	0x3e06c52c	0.13161153
199	0x3dc5e079	0.096619554
200	0xbd206d3a	-0.039166667
201	0xbcfa3fbb	-0.030547967
202	0x3de840ed	0.113405086
203	0xbd9e47be	-0.077285275
204	0x3cfee45c	0.03111475
205	0x3e1a837d	0.15089221
206	0xbc9d4521	-0.019198002
207	0x3d9eee99	0.07760353
208	0x3d24fff4	0.04028316
209	0xbe5e1923	-0.21689276
210	0xbd8c718f	-0.06857597
211	0xbdec0825	-0.11524991
212	0x3cdda48c	0.027056001
213	0xbe4af0e3	-0.19818453
214	0x3e029642	0.12752631
215	0x3de8d100	0.113679886
216	0xbda32d92	-0.07967676
217	0x3daa2deb	0.083095394
218	0xbce3f657	-0.027827425
219	0x3e3ca221	0.18421222
220	0x3dd5732a	0.104223564
221	0xbcee2cf1	-0.029074164
222	0xbe7d41dd	-0.24732156
223	0x3d6724fd	0.05643176
224	0x3df68261	0.120365866
225	0x3df0b5ce	0.117534265
226	0xbdef592e	-0.116869316
227	0x3e05ee10	0.13079095
228	0xbe166ad6	-0.14689192
229	0x3dc36873	0.095414065
230	0xbe1ac324	-0.15113503
231	0x3db41482	0.08792974
232	0xbda651cf	-0.081210725
233	0x3e0f796b	0.14011161
234	0x3e310e10	0.1729052
235	0xbe193af0	-0.14963889
236	0xbdc4aabe	-0.09602879
237	0xbdd90749	-0.10597093
238	0xbd246c32	-0.040142246
239	0xbd8e5b78	-0.0695104
240	0x3e789a30	0.24277568
241	0xbe8c867d	-0.27446356
242	0xbc973196	-0.018456262
243	0xbdc80ad8	-0.09767693
244	0xbe3d73f6	-0.18501267
245	0x3dfe9012	0.12429823
246	0x3c7e5223	0.015522513
247	0x3c99d90f	0.01878026
248	0xbe25da3c	-0.16196531
249	0x3de43bf0	0.11144245
250	0xbe118b8c	-0.14213389
251	0xbe579b12	-0.21055248
252	0xbce297fe	-0.027660366
253	0x3dd2251c	0.10260984
254	0x3de1b19a	0.11020203
255	0xbd8e72ef	-0.069555156

model.6.bias f4 [64]
0	0x3c856df3	0.01628778
1	0x3d3a3ad0	0.045466244
2	0xbd2eb84b	-0.042656224
3	0xbd91522c	-0.07095751
4	0x3cdc986e	0.026928153
5	0x380dc943	3.380446e-05
6	0x3d529851	0.05141479
7	0xbcd84141	-0.026398303
8	0x3d8a1476	0.06742184
9	0xbba35b75	-0.0049852678
10	0xbd81e289	-0.06342036
11	0xbdbef71f	-0.09324478
12	0x3baafeb1	0.00521835
13	0x3d221070	0.039566457
14	0x3dbc0815	0.09181229
15	0x3daabd21	0.08336855
16	0x3d2e8d03	0.042614948
17	0x3ab91a00	0.0014122128
18	0xbd34f7f2	-0.04418177
19	0x3d7611e0	0.06007564
20	0x3ccd315f	0.025047956
21	0xbca27cfc	-0.019834988
22	0x3e0c815e	0.13721225
23	0x3dd5134e	0.10404073
24	0xbd9abecd	-0.075559236
25	0x3e0e2222	0.13880208
26	0x3d5cc696	0.053900324
27	0x3dcb8227	0.09936934
28	0x3d5f5e9c	0.054533586
29	0xbdf1fdf1	-0.118160136
30	0xbd421e47	-0.047392156
31	0x3ccdcd92	0.025122438
32	0x3d8e255d	0.0694072
33	0x3c736b36	0.014857104
34	0x3dc2e5a8	0.0951646
35	0x3db38cc2	0.08767082
36	0xbb0554cc	-0.0020344732
37	0xbd95d289	-0.07315547
38	0x3d0b30e8	0.033982188
39	0xbcb233c3	-0.021753198
40	0x3d819198	0.06326598
41	0xbd9e4e7c	-0.077298135
42	0x3d9b51ed	0.075839855
43	0xbd9d5d4a	-0.07683809
44	0xbc46f2b8	-0.01214283
45	0x3c9005bd	0.017580861
46	0x3dbc04b0	0.091805816
47	0xbd4327e3	-0.04764546
48	0x3d72a4be	0.05923914
49	0x3d1424a4	0.036167756
50	0xbd4c02a7	-0.049807217
51	0xbcc2d221	-0.023781838
52	0xbd11d420	-0.03560269
53	0xbc9966ff	-0.01872587
54	0xbd6afb2b	-0.05736844
55	0xbd85f32f	-0.06540524
56	0x3d796087	0.06088307
57	0x3d8b4c0f	0.068016164
58	0x3da0543d	0.07828567
59	0xbd405cf1	-0.046963636
60	0xbc92718f	-0.017876415
61	0xbd196dcd	-0.03745823
62	0x3b69689f	0.0035615338
63	0xbdaf5b80	-0.08562374

model.8.weight f4 [64, 64]
0	0x3e37ce4e	0.17949793
1	0x3d8a2dcb	0.067470156
2	0xbc0281bb	-0.0079655005
3	0x3e392658	0.18081033
4	0x3e132e12	0.14373043
5	0x3defec14	0.1171495
6	0x3cec8c77	0.028875573
7	0x3d77016e	0.060304098
8	0x3f09e640	0.5386696
9	0x3dffcd90	0.1249038
10	0x3cbc04e9	0.02295156
11	0x3df8f6f8	0.121564806
12	0xbc92b585	-0.01790882
13	0xbc2a2f79	-0.010387295
14	0x3dbe8185	0.09302048
15	0xbbd0fff7	-0.0063781696
16	0xbdd68520	-0.1047461
17	0x3dece95e	0.11567949
18	0xbec5dd25	-0.38645282
19	0xbd1d6232	-0.038423724
20	0xbd297ff5	-0.041381795
21	0xbcddb0a7	-0.027061773
22	0x3d79ec6a	0.061016478
23	0x3d9bdf8d	0.07610998
24	0xbd5cfb2f	-0.053950485
25	0x3e206803	0.15664677
26	0x3eba3361	0.36367324
27	0xbe26b0d3	-0.1627839
28	0xbd1e53f2	-0.038654275
29	0xbe02dfd9	-0.12780704
30	0x3c2810b3	0.010257888
31	0x3d4bf150	0.04979068
32	0xbe1569ed	-0.14591189
33	0xbd9f2b45	-0.07771925
34	0x3d75f64b	0.060049336
35	0x3dd23eb2	0.102658644
36	0xbdbe5d6f	-0.09295165
37	0xbe61cd2d	-0.22050925
38	0xbda8d05e	-0.08242868
39	0x3dab4f22	0.08364703
40	0x3f09255f	0.5357265
41	0x3e0e5d3c	0.13902754
42	0x3e164a49	0.14676775
43	0xbdc543a7	-0.09632044
44	0x3c15a484	0.009133462
45	0xbd9e2036	-0.077209875
46	0xbc4e4f28	-0.0125921145
47	0x3ea1753a	0.3153475
48	0xbcf9c128	-0.030487612
49	0x3e221528	0.15828383
50	0xbd1efb3a	-0.038813807
51	0x3e35eb98	0.17765653
52	0xbdcf960b	-0.1013604
53	0xbe725890	-0.23666596
54	0x3e0d22a6	0.13782749
55	0x3e23b9e8	0.15988886
56	0x3d60230f	0.054720934
57	0x3c936f2b	0.017997345
58	0x3dcba8e4	0.09944323
59	0x3e66ac46	0.22526655
60	0x3e00cd8c	0.1257841
61	0x3e46f30b	0.19428651
62	0xbe0a5828	-0.13510191
63	0x3d0461eb	0.032319944
64	0xbe00b5b5	-0.12569316
65	0xbe604915	-0.21902879
66	0xbc40dd4f	-0.011771514
67	0xbe22629c	-0.15857929
68	0x3ca382a6	0.019959759
69	0x3e58df62	0.21178964
70	0xbd4a51b1	-0.049394313
71	0xbe3f377b	-0.18673508
72	0xbe2e9550	-0.17049146
73	0xbe319d4b	-0.17345159
74	0xbe7d45d0	-0.24733663
75	0xbd853964	-0.06505087
76	0xbd02f5fa	-0.031972863
77	0x3dd364a9	0.10321934
78	0x3de0d3d2	0.109779015
79	0xbd03d32d	-0.032183815
80	0x3e135246	0.14386854
81	0x3debc935	0.115129866
82	0xbd5e0022	-0.054199345
83	0x3db3c734	0.08778229
84	0x3d9ee823	0.0775912
85	0x3e452f9e	0.19256446
86	0x3e1531c2	0.14569762
87	0xbdfd1835	-0.12358133
88	0xbc683d66	-0.014174795
89	0x3dfa66d1	0.12226642
90	0xbceb8b48	-0.028752938
91	0x3d11ea02	0.035623558
92	0x3dd9326c	0.1060532
93	0x3d4db3e8	0.0502204
94	0xbe1eea21	-0.15519
95	0x3e2d4d3d	0.16923995
96	0xbe5f63ae	-0.21815369
97	0xbe4a84ed	-0.1977727
98	0xbcfdaf31	-0.030967327
99	0xbd597e5c	-0.05309902
100	0xbe0fc11a	-0.14038506
101	0x3e0e047a	0.13868895
102	0x3c4aca55	0.012377341
103	0xbdc91d42	-0.098200336
104	0xbeceb621	-0.40373328
105	0x3e135401	0.14387514
106	0xbd02a10c	-0.031891868
107	0x3d04f7da	0.032462932
108	0xbd205aff	-0.03914928
109	0xbda10588	-0.07862383
110	0xbe8c0a32	-0.27351528
111	0xbcb2ff4a	-0.021850247
112	0x3e461b31	0.1934631
113	0xbe0747e1	-0.13211013
114	0xbe5c49f7	-0.2151259
115	0x3e64b7e8	0.2233578
116	0x3cfb0965	0.030644128
117	0xbdcdfa8c	-0.10057554
118	0xbe8fd458	-0.28091693
119	0xbd9d692a	-0.07686074
120	0xbc3ed6c2	-0.011647882
121	0x3df19918	0.117967784
122	0xbd157307	-0.03648665
123	0x3dc1d4d5	0.094644226
124	0x3df238ed	0.11827264
125	0xbd5ebea0	-0.054381013
126	0xbe4a8568	-0.19777453
127	0x3d69ee90	0.057112277
128	0x3e510305	0.20411308
129	0xbdeb7229	-0.11496384
130	0xbc8a5b0a	-0.016889114
131	0x3e5ad713	0.21371107
132	0xbd553da0	-0.052060723
133	0xbe4a18da	-0.19736043
134	0xbe3cc60c	-0.18434924
135	0xbd3201bf	-0.043458696
136	0x3da235db	0.07920428
137	0x3e218e6d	0.15776987
138	0x3dfadfd2	0.122497216
139	0xbda37626	-0.079815194
140	0xbe069e2c	-0.13146275
141	0x3de7b523	0.11313846
142	0x3dd085a0	0.10181737
143	0xbe8b239c	-0.27175605
144	0x3e10151e	0.14070556
145	0x3da8c929	0.08241493
146	0x3e2c026b	0.16797797
147	0xbeed75ce	-0.4637894
148	0x3d5812a8	0.052752167
149	0x3e4fc43e	0.20289704
150	0x3b97f842	0.004637749
151	0xbd2e1ab6	-0.042505942
152	0x3ca57ff5	0.020202616
153	0x3cec2774	0.028827406
154	0xbd762bde	-0.06010043
155	0x3c3723ca	0.011177966
156	0x3da157fa	0.07878108
157	0x3e8d85ec	0.27641237
158	0x3dcf2d49	0.10116059
159	0x3d928c58	0.07155675
160	0x3d7078a0	0.058708787
161	0x3e1f6555	0.15565999
162	0x3cf45124	0.029823847
163	0xbdb29a3e	-0.087208256
164	0xbd7fc459	-0.06244311
165	0xbd596f7c	-0.053084835
166	0xbe24c20e	-0.16089651
167	0x3e91a3d3	0.284453
168	0x3dbb5669	0.09147341
169	0x3e5e617b	0.21716873
170	0x3e1d621c	0.15369457
171	0xbd77aab8	-0.060465544
172	0x3ce5ab20	0.0280357
173	0x3dc14d2f	0.0943855
174	0xbcb19500	-0.021677494
175	0x3d826085	0.06366066
176	0xbd52ef79	-0.05149791
177	0xbc06ff41	-0.008239568
178	0x3e0c64ea	0.1371037
179	0x3cd1ce6b	0.025611123
180	0x3ca126f5	0.019671896
181	0x3e409d43	0.1880999
182	0x3d82ef25	0.063932694
183	0xbd134d2a	-0.03596226
184	0x3e41714b	0.18890874
185	0x3cbd3f8e	0.023101594
186	0xbd47f20d	-0.048814822
187	0xbe47fdd2	-0.19530419
188	0xbdb7c50d	-0.08973131
189	0xbe71071d	-0.2353787
190	0x3d551210	0.05201918
191	0x3d8bebd4	0.0683209
192	0x3da21811	0.079147466
193	0x3c1b23aa	0.009468952
194	0xbd8afd66	-0.06786613
195	0xbd02d7fe	-0.031944267
196	0x3da2827e	0.07935046
197	0xbde4b9cd	-0.11168251
198	0x3dcd7fe7	0.10034161
199	0x3d6cc326	0.057803296
200	0xbe4415db	-0.19148962
201	0xbe115edc	-0.14196342
202	0xbdd829c8	-0.10554844
203	0xbd417ca8	-0.047238022
204	0x3d1bc715	0.038031656
205	0xbe1842bd	-0.14869209
206	0x3db7066f	0.08936774
207	0xbdbb282a	-0.0913852
208	0x3cfd5a18	0.03092675
209	0x3d6ea229	0.058260117
210	0xbea27803	-0.31732187
211	0xbb12c306	-0.0022394075
212	0xbc8b8383	-0.017030483
213	0xbd4be5b1	-0.049779598
214	0x3d3575fc	0.04430197
215	0x3d25ea0c	0.040506408
216	0x3c901a0b	0.017590543
217	0xbc4f0bff	-0.012637137
218	0x3e8377e5	0.2567741
219	0xbe38d714	-0.18050796
220	0xbd069e4a	-0.0328658
221	0x3d7aa993	0.061196875
222	0xbc5b9479	-0.013402098
223	0xbe2a1e9a	-0.16613236
224	0x3da96b8a	0.082724646
225	0xbd8bd03d	-0.06826828
226	0x3defa7e2	0.11701943
227	0x3db00c03	0.08596041
228	0x3c6c6f4a	0.01443083
229	0xbd430a88	-0.047617465
230	0x3db8eb6a	0.09029277
231	0x3dfd2800	0.12361145
232	0x3df6bc25	0.120476045
233	0xbd38df2b	-0.045134705
234	0x3e1301a9	0.14356102
235	0xbd213026	-0.03935256
236	0xbb1539e9	-0.0022770113
237	0x3d4193ac	0.04725997
238	0xbd5dd8e2	-0.054161914
239	0x3cc3fb64	0.023923583
240	0x3d603cbb	0.054745417
241	0x3c26f0a0	0.010189205
242	0x3d94c3a4	0.07263878
243	0x3e0cf96c	0.13767022
244	0x3dcf32d0	0.101171136
245	0x3d225aed	0.039637495
246	0x3d953989	0.072863646
247	0x3e6167bf	0.22012232
248	0x3e38ee2a	0.18059602
249	0x3dae6bbd	0.08516643
250	0xbdb2f031	-0.08737219
251	0x3e3c6677	0.18398462
252	0x3e17af19	0.14812888
253	0x3de9aeb2	0.114102736
254	0x3e0fb757	0.14034782
255	0x3d8245a9	0.06360943

model.8.bias f4 [64]
0	0xbc02c718	-0.007982038
1	0xbca8e00f	-0.020614652
2	0xbd82dca1	-0.06389738
3	0x3d27d5d9	0.040975425
4	0x3c870702	0.016482834
5	0xbd798753	-0.06092007
6	0xbda60c2a	-0.08107789
7	0x3d7ec487	0.06219914
8	0xbbfa201c	-0.0076332223
9	0x3de3cf25	0.11123494
10	0x3d3e8981	0.046517853
11	0x3d8c40d1	0.068483
12	0xbd816bd0	-0.06319392
13	0xbe194a63	-0.14969783
14	0x3df086c4	0.117444545
15	0x3e155feb	0.14587371
16	0x3df99a4a	0.121876314
17	0xbc8d41e6	-0.017243337
18	0x3e06a5d3	0.13149194
19	0xbd5bb34a	-0.05363778
20	0xbd9615bc	-0.07328364
21	0xbd8b0424	-0.06787899
22	0x3d641cb1	0.055691425
23	0xbc9b22aa	-0.018937428
24	0x3d5349fd	0.051584233
25	0x3df82bf9	0.12117762
26	0x3b5c0c96	0.0033576838
27	0x3de1d0e7	0.11026173
28	0x3b42f0ea	0.0029745647
29	0xbb06d4a1	-0.0020573514
30	0x3d4263b7	0.047458377
31	0x3d147523	0.036244523
32	0x3d895976	0.067065164
33	0xbd625e88	-0.055265933
34	0xbd31352d	-0.043263603
35	0x3e20f036	0.15716633
36	0xbccc844e	-0.024965432
37	0x3d8d774f	0.06907522
38	0xbcaac0bb	-0.020843854
39	0x3da0a5a8	0.078440964
40	0x3bd6dff5	0.0065574595
41	0x3d31c61b	0.04340182
42	0x3d85b8db	0.06529399
43	0xbb911a77	-0.0044282037
44	0x3dfe91e7	0.124301724
45	0xbd9ebda0	-0.07751012
46	0x3d06be1d	0.03289615
47	0xbd972b9f	-0.07381367
48	0x3cab49b5	0.02090917
49	0x3d0c1db1	0.034208003
50	0x3cacc0f0	0.021088094
51	0xbdf9b63f	-0.12192964
52	0x3bad12f8	0.0052818023
53	0xb7d05573	-2.4835323e-05
54	0x3ccc68ae	0.024952259
55	0xbc419bb8	-0.011816911
56	0xbc4b92f5	-0.012425174
57	0x3d70944c	0.058735177
58	0xbd95eb4e	-0.073202714
59	0x3e59e7a4	0.2127977
60	0x3d75988c	0.059959933
61	0xbcae7e00	-0.021300316
62	0x3d7766e5	0.060400862
63	0xba927d2e	-0.0011176222
