Vanilla_DQN/checkpoint.pth (torch_old, 204181 bytes, 12 tensors)

model.0.weight f4 [128, 37]
00000000: 8f91 71bb 97b9 733d 1d73 83bd 79f8 433c
00000010: d603 843d d6b8 a73c e3f0 913d ba43 4a3e
00000020: 8039 5cbe e1f0 40bd 5509 a33d cbf5 a5bc
00000030: ae09 c2be f4a8 9bbd 995d 33be c196 ea3b
00000040: 12ed 823d 63ee 843d b6de 2b3d 111c 83be
00000050: 56a9 f93b 1224 633e cc1c 9dbc 34f2 5b3e
00000060: 3ecd c93d 1de1 e73b 1a2a 313e 2d80 b1bd
00000070: 127f 31be 7b1d 09bd 0628 debd ad96 6b3e
00000080: 2024 03bd 9584 1dbe 8221 60bd 6d2a cabd
00000090: c514 31bd 70d3 393d 5514 0c3e 16f5 a53d
000000a0: 831a 93bd 5bfb eebd 70df eebc 0fcd 23be
000000b0: fe60 46be 1d32 0dbe c18e c0bd e8fe 903d
000000c0: 6062 4fbe a2d6 17bd cd3d 5d3e 5ea9 fb3d
000000d0: 3116 333e 564a 26be 2df5 083e 7099 89be
000000e0: 9328 fb3d 39a8 6dbe bb05 42bd 1599 20be
000000f0: c7fb 743d 506d 943d 8efa 03be 2dc4 c6bc
00000100: 6334 263e 26b9 e3bd cabe c7be 5123 cebc
00000110: 4875 cf3d 390f 2b3e 7701 17be d9dc 7f3d
00000120: ec97 3c3b e54f 3d3d f698 833d 52d4 823e
00000130: 3b0d 23bc cb92 bb3b 366f 3c3d fcd1 d9bc
00000140: 3571 adbd b991 783e 8966 63be 3d4f a8be
00000150: dd72 b03c 8bc7 723d cd72 2b3d f1cd eabd
00000160: bcd0 4b3e 0340 ec3c 9a49 c63d afde 153b
00000170: 4e39 d23d 1a91 243d d1e3 3cbe 1d33 90bc
00000180: a872 a43d 45d7 d73d 57c0 a43d a4d8 99bd
00000190: 0220 fe3d 726d 6d3e 6785 27be 1616 3ebe
000001a0: d005 43be 6992 bc3c 64e1 80bc 1b13 30be
000001b0: f4c2 b23e bba7 3e3d 1eb8 aebc d669 ab3e
000001c0: ed51 a4be 179d 67be 416b 39be 5a1d bdbf
000001d0: 0cbd 193c d983 f53b 3da6 473d 6578 ae3d
000001e0: 8a00 d33d 8628 cdbc 4a28 e6bc 11b1 f8bc
000001f0: a840 d6bc 26c5 50bd df7b c9bd 7d55 debc
00000200: 0a34 2dbd 0fb1 32bd e389 1f3d 53c9 7b3c
00000210: 5ecd 40bc eeeb 333c f337 493d ac95 ed3b
00000220: 8aff 993b 5184 8f3d a355 3d3d 4151 103e
00000230: 598f 233e 8f32 823d d498 b23d 2d1f 5f3d
00000240: 847e d63c d164 95bd ab25 083b d327 f93a
00000250: 93b4 efbd efed f2bd 03cc 64bd cf45 8dbe
00000260: d05b 4cbe c599 0b3e 5480 3d3d 524c f2bd
00000270: 6ac9 a0bd e391 19bf e49d 88bc ee79 81bd
00000280: 2c97 c7bd b9bf 843d df72 a3bd a3f5 92be
00000290: 3842 9b3c bc07 243e 0130 52be cc01 743d
000002a0: 8ba4 90be c1b0 12bd 25ab 6c3e 489b 843d
000002b0: 6e4f c13d e65a 443a 4587 9abd 9148 603e
000002c0: a3a9 d2bd 63fc c1be 73b3 113e c09d 0abe
000002d0: ac3c a83d 518c 35be 266b 52bc 519d 3e3e
000002e0: 76c8 453d e20b da3d 3e25 cebd 7c02 0ebe
000002f0: dc55 5fbe a9aa e2bc 3bd2 f73d f790 953d
00000300: 112e abbd d53d a2be 37e7 77bf 2796 00be
00000310: 8433 42be 4501 1e3d 1e60 b7bd 9a9d 103c
00000320: a9fd 96bc 56f2 023d 5a82 36be 3a1d 34bd
00000330: 26d8 f2bd 4664 fb3d 433c 84bd 0287 203d
00000340: 1de0 223d 0faa 1a3b 71d6 15bd 635a 23bd
00000350: 2110 9b3d 6c76 65be f904 cfbc f3f7 573c
00000360: ab12 5dbe 1ed5 6cbd 22ae c1bd 6807 3ebe
00000370: bfbd 763d eddc cd3d b04b 7e3c f5a8 0b3d
00000380: 6adf 67bc 661b ceb9 7490 78bd b908 61bd
00000390: 5762 b7bc 7c58 d53a caf7 5a3d ed19 883d
000003a0: a3cc 5a3d 6baa a13d 96e6 883d 307c 943d
000003b0: c1e1 793d 0e58 30bd e993 c7bc 32a8 6a3c
000003c0: 1001 303d 289d 9f3d 9180 0cbd b1de 5cbb
000003d0: a225 943c 9571 b33c 1904 743c a9d0 cfbd
000003e0: c43c 42bc eeb7 afbb 15e2 8dbc 5197 a33d
000003f0: b975 783e 5b71 b3be f680 c2be aa1e 90be
-0.0036860441 0.059503164 -0.064184405 0.011961096 0.06446044 0.020473879 0.071260236 0.19752398
-0.2150631 -0.04710472 0.07960764 -0.020258805 -0.3789801 -0.076005846 -0.17516173 0.0071590845
0.06392874 0.06490781 0.04196044 -0.2560735 0.0076190634 0.22181728 -0.01917877 0.21479112
0.098536 0.007076396 0.17301217 -0.08667026 -0.1733363 -0.03347538 -0.108474776 0.23006697
-0.032016873 -0.15382607 -0.054719456 -0.09871373 -0.043232698 0.04536766 0.13679631 0.08103387
-0.07182791 -0.11669036 -0.029159278 -0.15996192 -0.19372937 -0.13788648 -0.09402228 0.070798695
-0.20252371 -0.037069924 0.21605606 0.122881636 0.17488934 -0.16239294 0.13374777 -0.26874876
0.12263598 -0.23208703 -0.047368746 -0.15683396 0.059810426 0.07247412 -0.12888548 -0.024263466
0.16230921 -0.11119299 -0.39012748 -0.025163325 0.101297915 0.16705026 -0.14746653 0.062466476
0.0028777076 0.04621877 0.06425659 0.25552613 -0.009951885 0.005724286 0.046004497 -0.026589386
-0.08468858 0.24274339 -0.22207083 -0.32872954 0.021539146 0.05927233 0.04185753 -0.114650615
0.19903845 0.028839117 0.09682007 0.0022868325 0.10264836 0.040177442 -0.1844628 -0.017602498
0.080296814 0.10539106 0.080444984 -0.07512024 0.12408449 0.23186281 -0.16359483 -0.18563113
-0.19045186 0.023019033 -0.015732475 -0.17194788 0.34914362 0.04654668 -0.021328028 0.33479184
-0.32093754 -0.22618519 -0.1810732 -1.4774582 0.009383451 0.007492524 0.04874252 0.08519057
0.10302837 -0.025043737 -0.028095383 -0.03035787 -0.026153877 -0.050969265 -0.0983808 -0.027140373
-0.042285956 -0.043625887 0.03894986 0.015367824 -0.011767713 0.010981543 0.049125623 0.0072505083
0.004699652 0.07007659 0.046224248 0.14093496 0.15972652 0.063572995 0.08720556 0.05447309
0.026183374 -0.0729462 0.0020774405 0.0019009061 -0.11704364 -0.118617885 -0.055858623 -0.27592322
-0.19956899 0.13632877 0.04626496 -0.11830963 -0.07850917 -0.5998823 -0.01667685 -0.06322084
-0.097456306 0.06481881 -0.07980894 -0.2870303 0.018952474 0.16018575 -0.20526125 0.059572026
-0.28250536 -0.035813097 0.23112161 0.0647493 0.09438978 0.00074903516 -0.07545332 0.21902682
-0.10286262 -0.37887868 0.1422861 -0.1353674 0.08214697 -0.17729308 -0.012842929 0.18614699
0.048286878 0.10646798 -0.10065697 -0.13868135 -0.21810097 -0.027669268 0.12100645 0.073030405
-0.08358396 -0.316878 -0.9683718 -0.12557279 -0.18964964 0.03857543 -0.0895388 0.008826638
-0.018431501 0.03196939 -0.17823163 -0.043973185 -0.11857633 0.12274985 -0.064568065 0.039191253
0.039764512 0.0023599898 -0.03658146 -0.03988112 0.07571436 -0.22408456 -0.025270926 0.013181674
-0.21589153 -0.057820432 -0.09457041 -0.18557513 0.06023955 0.10051904 0.015520975 0.034096677
-0.014152387 -0.00039311795 -0.060684636 -0.05493996 -0.02238576 0.0016276981 0.053458966 0.0664557
0.053417813 0.07893833 0.06684606 0.072502494 0.06100631 -0.043052725 -0.024362521 0.014322327
0.042969763 0.07793647 -0.034302298 -0.003370207 0.018084351 0.021904746 0.014893555 -0.10147221
-0.011855308 -0.0053625023 -0.017319718 0.07987846 0.24263658 -0.3504742 -0.37989014 -0.28148395

model.0.bias f4 [128]
00000000: bfcf 46ba a1cc a23b 8dee b3bd 45cd 99bc
00000010: 6115 a23c 7919 04be ff15 0d3e e227 273e
00000020: 0dfd 03be f797 fb3c ae04 a0bd 91c5 6abd
00000030: 3c6a 6bba 6633 90bc 90e8 59bd 1adf 553d
00000040: f6dd 8e3d b274 87bc 6f76 c03c 2619 7cba
00000050: 75a2 b1bd bc29 023e 0130 253e 8641 cb3b
00000060: 9c35 a93c 514c 103e dedb 203e f0cf a4bd
00000070: ea06 a4bd d6cd d5bd 788d 073e b142 2b3e
00000080: 0b1e 51bd fb3c 843d 4ce3 e33c ff7b 13be
00000090: 5ff6 d53d 17e5 d33d 7dc6 4f3d 92ab 1e3d
000000a0: 0a40 073d 9b93 113e 81ee 393e 42a4 dd3c
000000b0: 658e be3d ca11 84bc c621 7e3d d0a0 87bd
000000c0: b1ba 01be 9f27 8c3d e2bc a23d c301 b23c
000000d0: 8b8d a03d a640 5c3d f5ec 643d 8b5a 5d3d
000000e0: 973f 7cbd da0c f83c 4f4a 233d 266c a9bc
000000f0: e7e1 febd 3204 5e3d dedf ee3d 559d c7bd
00000100: 1467 283e ba0a ce3b 20ca 1a3d f8c4 88bd
00000110: 71dc 27be dcdc d6bd 50bd 81bb 9f0f 0abd
00000120: e79b e63d 3429 01be 24ee 9abd 8e94 d9bc
00000130: b4b1 433e 28f9 c1bd 50b1 073e cc63 733d
00000140: d440 60bd ae38 a63d 9fe4 953d 1aa9 b7bd
00000150: 8490 de3b 7d60 193e 5c7a a93d 0160 6fbd
00000160: 62de 273c c1f7 053e 6411 f63d be0a cf3c
00000170: 63df d5bd b529 f8bd f1e0 20bd 3033 cd3d
00000180: 70d2 213c ff8e f4bd 7913 88bc 4e3b ca3d
00000190: 65c6 00be 3b7d 44be 2a53 d13d fe36 333e
000001a0: 7335 31be 7dc2 0ebe a498 88bd 970d 293e
000001b0: 9dde 92bd 04e2 7b3d a424 043e 186d 88bd
000001c0: afaa 38bd 14ed 8fbd b44b da3c e0bf 433e
000001d0: ce08 bf3d 6b25 253e 0417 3c3b 26f2 dbbc
000001e0: 6de1 51bc b58f be3d 834d 5c3b 1e12 e4bd
000001f0: edd3 27bd 95e8 963c e504 3b3e 44cf b6bc
-0.0007584057 0.0049682413 -0.08785734 -0.018774638 0.019785585 -0.12900342 0.13777922 0.16323808
-0.128895 0.03071211 -0.078133926 -0.05731732 -0.0008980369 -0.017602634 -0.053200305 0.05221472
0.069759294 -0.016535137 0.023493974 -0.00096167845 -0.08673564 0.12711233 0.16131593 0.0062028794
0.020655446 0.14091612 0.15708873 -0.080474734 -0.08009131 -0.10439651 0.1323756 0.1672466
-0.05105404 0.064569436 0.027818345 -0.1440277 0.10447382 0.1034643 0.050726403 0.03873784
0.033020057 0.14216463 0.18157388 0.027055863 0.09304503 -0.016121764 0.062043928 -0.066224694
-0.12668873 0.068434946 0.07946183 0.021729356 0.07839497 0.05377259 0.055890042 0.054041427
-0.06158408 0.030279566 0.039865788 -0.020681452 -0.12445431 0.05420322 0.11663793 -0.097468056
0.16445571 0.0062879 0.037790418 -0.06678194 -0.16392685 -0.10491344 -0.0039593354 -0.033706304
0.11260205 -0.12613374 -0.07564953 -0.026560094 0.19110757 -0.09471351 0.13251233 0.059421346
-0.054749325 0.081162795 0.07318997 -0.089678004 0.00679213 0.14978214 0.08275291 -0.058441166
0.010245891 0.13082792 0.12015036 0.025273677 -0.10442998 -0.1211733 -0.03927702 0.10019529
0.009876832 -0.11941337 -0.016610848 0.09874593 -0.12575682 -0.19188397 0.102209404 0.17501447
-0.17305546 -0.13941379 -0.06669739 0.1650909 -0.07171366 0.061494842 0.12904602 -0.06661433
-0.04508465 -0.07027641 0.026647426 0.19116163 0.09327851 0.16127555 0.0028700242 -0.026848864
-0.012810093 0.09304754 0.0033615537 -0.11136268 -0.040973593 0.01842145 0.18263586 -0.022315629

model.2.weight f4 [128, 128]
00000000: 281c 8fbd b443 bbbc 3134 14be 977e 283e
00000010: 5946 cd3d 078f 023d c4dc b43a ca3b 273d
00000020: 3243 c33d a531 e03d 0f68 ab3d 61ae 343d
00000030: 7403 df3d 0499 3e3c b6d3 a3bd 5634 a7bd
00000040: 9ba0 493c 9085 02be ddf9 13be 328c 91be
00000050: 794e 373d d95e cfbd a982 94bb 734e c9bd
00000060: e60e 49bd 7e12 093e 0c84 50be 8765 383d
00000070: c7de d9bd cb60 c73d 4f25 75bd b1cc 2f3e
00000080: f186 e33c 403c c7bd ad5b 08bc 8130 42be
00000090: d92b 5d3d fc05 dfbd 7195 f3bc 9625 93bd
000000a0: d733 fabd 7143 6dbd acb6 73bd cb30 803d
000000b0: c454 93bc 0cad 093b 15c5 60bc 1da6 97bd
000000c0: fa2d 7b3d dd75 3bbe 9c65 63bd db4c 4fbd
000000d0: 4306 2fbd 079b 3d3b 0d66 203e 2986 203d
000000e0: 1754 e0bc b762 6abd 7867 9d3d 54aa 7e3d
000000f0: 5042 dd3c b7f0 98ba b8ac afbb 3ff2 25be
00000100: c413 8d3d ccdb d13d 6f3c 103e c0c3 d7bd
00000110: 7013 213e f0e5 26bd 26e5 ca3d b81b c63d
00000120: ca20 2e3d 44f6 1dbe 7657 21bd a46a 9a3c
00000130: f712 a6bd 0862 9bbd 5b57 b33d 469e 3bbd
00000140: 5d24 0a3d c1f8 483d cb14 db3d 3b24 e93b
00000150: 5c5c f3bc 4de8 0cbd d444 c63d 1cd3 a83c
00000160: 22ed 45be 8a03 533d b810 26bd 7f13 7abe
00000170: 631a 6bbd 3b8c 58be 40ad b4bd 23ca adbd
00000180: 12bb 193d 1e00 cc3c 5fd9 f8be 7c1e e3bd
00000190: 4181 f43c 377f 20be ec90 56bd 2530 833b
000001a0: e906 88bd 0165 96bd c02f 8ebc d26c 9ebd
000001b0: 15ca 153e e217 ecbd 7705 373d 0dda 88bb
000001c0: 3ee2 02be b1c5 463d b4d0 e5bd 5290 40bd
000001d0: dfca 903d df5b 8e3d 0c44 0dbd 7c4f 2e3d
000001e0: 5dd6 b53d f1f6 dabd a434 893d 8315 c2bd
000001f0: dc18 95bb 09a2 80bd 80b0 c0bd 1fc3 88bc
00000200: fd92 953d c9e3 6e3c d2a4 e43d 9c34 93be
00000210: d30a 5fbd 77f0 8dbd 4d89 86be 5a46 efbd
00000220: 49fd f93d 31f5 dcbd c6c4 cbbc d581 17be
00000230: 8c5a 99bd ce1f 2f3d 2b9b d33c 5a4b 2fbd
00000240: cb88 b0bc 44c6 d13d 7bbc 413d 8c16 003e
00000250: c24e 85bc 4a01 ccbc bb72 633c 7a45 bfbd
00000260: 0945 03be 5a71 35bd d94e 8f3d b409 bebd
00000270: 54ae e03d a050 2bbe 317f 27bd 54bd e33a
00000280: 0794 2bbd dee1 1cbe 2453 863c 1d76 03bd
00000290: 3320 153e ac4f 20bd c994 05be c3a1 f03b
000002a0: 8915 84bd c6f2 2dbd 9783 57bd 49a7 11bd
000002b0: 4479 d03c f29a c4bd ac8b a9bd 2d74 ab3d
000002c0: d701 7dbd 8cbf 8abd d0ae 873d 9a61 933c
000002d0: af5c 373d 2d92 1c3d d68b b63d 3b4d 0bbc
000002e0: 34c9 913c a99d 32bd e3b4 0abe 3eda 1c3e
000002f0: 6468 51bd 09f9 e6bd f9d9 78bd d148 1f3e
00000300: 1a29 7f3d 8517 fa3d bc70 b63d 8279 1b3e
00000310: 9d29 383e c459 5e3d dbe2 fdbb 291c 67be
00000320: 5abe ce3c 509c 49bb f483 3e3d d902 06be
00000330: d70c 343c 54e5 8bbd d116 9cbd 408f e73d
00000340: 8399 54bc 069b 8b3d d75a 69bc 478f a3bd
00000350: ff3a e03a a70b f63c ef4d 6f3b 3bc4 7b3c
00000360: bace 83bd f6eb 5d3d 18c4 253e e40d 87bd
00000370: a318 babc f2bc 01be 7d0a 65bd 70c0 4fbe
00000380: 9b9d 33bc 36a0 06bd 599a ae3c 10d4 723d
00000390: e07b f83d 314f 4c3d 6e2a 183d 26be bd3c
000003a0: d2cd fb3b 56e2 25bc 5f53 af3d 0dcf 213c
000003b0: 07dc 6b3c ee83 0a3d 1fe2 b0bc 642d 88bd
000003c0: 04bb f0bb ba2c e9bc 36f1 38bc 19db 2fbc
000003d0: 8691 70bd dc37 143d fe40 cf3c 3c5f a7bd
000003e0: 5059 cabb 8ec0 49bc ee73 493d fce3 9fbd
000003f0: fb9f e8bc 1ea0 543c bc14 86bd 0db6 0dbd
-0.06987792 -0.022859432 -0.14473034 0.1645454 0.100231834 0.031874683 0.0013798703 0.040828504
0.09534301 0.10946969 0.08369457 0.044111613 0.108893305 0.011633161 -0.07999365 -0.08164279
0.012306358 -0.12746263 -0.14450784 -0.28427273 0.04475257 -0.10125513 -0.0045321775 -0.09829416
-0.049086474 0.1338596 -0.20362872 0.0450187 -0.106381945 0.09735259 -0.059850033 0.17167927
0.027774306 -0.09728289 -0.008322638 -0.18963815 0.053996895 -0.10889813 -0.029734345 -0.07184903
-0.12216919 -0.057925645 -0.05950038 0.062593065 -0.017984755 0.0021007685 -0.013718863 -0.074047305
0.061323144 -0.1830668 -0.055516824 -0.050610404 -0.04273058 0.0028931515 0.1566393 0.039190445
-0.027383847 -0.057223048 0.07685751 0.062174156 0.02700916 -0.0011668418 -0.005361166 -0.16205691
0.068885356 0.10247001 0.14085554 -0.10535383 0.15730071 -0.04074663 0.09906988 0.09673256
0.04251174 -0.15425974 -0.03939005 0.018849678 -0.08109086 -0.07587057 0.08756896 -0.04580524
0.033726085 0.049065355 0.10697325 0.0071149147 -0.029707126 -0.034401227 0.09681097 0.020608477
-0.1932874 0.051517047 -0.040543288 -0.244215 -0.05739821 -0.21147244 -0.08822107 -0.0848582
0.03753192 0.0249024 -0.4860334 -0.11089799 0.02984679 -0.15673529 -0.052384302 0.004003542
-0.06641943 -0.07343484 -0.017356753 -0.077355996 0.1462787 -0.11527993 0.044682946 -0.0041763843
-0.12781617 0.048528377 -0.112214476 -0.047012635 0.070699446 0.06951117 -0.034488723 0.04255627
0.08878777 -0.106916316 0.066994935 -0.09476759 -0.0045500826 -0.06280906 -0.09408665 -0.016694603
0.073034264 0.014580675 0.111642495 -0.28751075 -0.054453682 -0.06930631 -0.26276627 -0.1168334
0.122065134 -0.10788954 -0.024874102 -0.1479562 -0.074879736 0.04275494 0.025830826 -0.04279647
-0.021549603 0.10242894 0.04729889 0.12508601 -0.016272906 -0.024902958 0.013882334 -0.093394235
-0.12819304 -0.044297554 0.06997461 -0.092791945 0.109707505 -0.16729975 -0.040892784 0.001737515
-0.041889217 -0.15320536 0.016397066 -0.032095063 0.14563064 -0.03913848 -0.13045038 0.0073435022
-0.0644942 -0.042467855 -0.05261573 -0.035559926 0.025448449 -0.09599866 -0.082785934 0.08371768
-0.061769333 -0.06774816 0.0662514 0.017990876 0.044766124 0.03822534 0.0891339 -0.0085023
0.017796136 -0.043607388 -0.13545565 0.15317628 -0.051124945 -0.112779684 -0.06075475 0.15555121
0.062295057 0.12211517 0.08908221 0.1518307 0.17984624 0.054284826 -0.0077479905 -0.22569336
0.025237251 -0.0030763336 0.04651256 -0.13087024 0.010989389 -0.0683085 -0.076215394 0.1130662
-0.012976053 0.06816678 -0.014242849 -0.07986312 0.0017107426 0.030034853 0.0036514958 0.015366609
-0.06435914 0.054180108 0.16188085 -0.06594446 -0.022716826 -0.12669733 -0.055918206 -0.20288253
-0.010962869 -0.032867633 0.021313833 0.05928427 0.12133002 0.04988021 0.03714984 0.023161959
0.007684448 -0.0101247635 0.08560824 0.009876025 0.01439572 0.033817224 -0.021592198 -0.066492826
-0.0073465127 -0.02846371 -0.011287978 -0.010733389 -0.058732532 0.036186084 0.025299545 -0.081724614
-0.0061751977 -0.012313975 0.049182825 -0.078071564 -0.028396597 0.012977628 -0.065469235 -0.034597445

model.2.bias f4 [128]
00000000: 3015 c13d a90c ee3a b927 78bd bd02 d53d
00000010: fb53 cbbd c136 773d b72c 903d 95ca 3a3a
00000020: 84bd b6bc cc33 883d 8c3a 033e cd8c 993d
00000030: 45db a4bd ccd5 0d3d 8132 ac3d fc9c 77bc
00000040: 95c0 55bd eb4c 9fbc 716e 7ebd 5f1a 79bd
00000050: 91b3 80bd c4b3 253b e09a dabc 4dc2 f63c
00000060: 143f 1fbb f871 e3bb 37a0 6cbd 1aab 633d
00000070: 5605 c03c f745 ab3d 41c3 a3bd bfde 563d
00000080: 3df3 4b3d ac33 883b fcdf a63c 8312 653b
00000090: a502 383d 27c8 923d 5bb0 8dbb 7f3d 80bc
000000a0: 6f26 39bd aa49 853d 741c be3d c674 b53b
000000b0: 4cd9 a9bd 1425 e73d c9e0 74bd f267 a83d
000000c0: 0428 813d abdf afbd 5f8e bb3d 22dc 98bd
000000d0: 4e72 01bd 9175 bebc 6b79 17bc 75cd 883d
000000e0: bd10 59bb a039 883d 5174 a03d 1bd5 013d
000000f0: 0bbc 423b 89bd 8bbc 3c9b 77bc 97c1 77bd
00000100: 08b2 953d 1890 14bd 424e d23a a96b 283b
00000110: 284c 913d c998 233d 50d9 713d 0df4 56bd
00000120: 1e8c 8cbd c9aa 493d f25f 883c afb0 883d
00000130: d8e8 c13d f777 a93b f6b1 b5bd bfb2 84bd
00000140: 5e18 a4bd c86d 33bd 210c 7a3d 9c03 5abd
00000150: 515d 9fbc 9cec 9abd 06a3 4dbd 9d00 57bd
00000160: 8a4c 143d a639 aa3d 06ab f5bc ebbe 713d
00000170: f842 9ebd 4c6b a0bc 58c6 69bd 4989 13bd
00000180: 1911 683d 32d4 a3bc 8dc3 8dbc f70c 00bc
00000190: be33 76bd 6880 8d3d d8ce 48bd 290c 79bd
000001a0: 645c 3c3c 1b0a 693d 4e39 8a3c 95ff 153d
000001b0: a993 33bc 35e7 94bd 7d15 283d 3954 ba3b
000001c0: 7949 90bc 6dcc 4a3d 3076 5a3c 3f2f 873c
000001d0: b63e 8a3d 51f1 d7bc ce23 2d3d e534 8d3d
000001e0: 579e b93b 66eb a4bb d78d 0f3d 8b47 c7bc
000001f0: c8ef 9ebd 55a7 3dbd 9f69 a93d 7f16 8dbc
0.09427869 0.0018161732 -0.060584757 0.10400913 -0.099281274 0.06035495 0.07039779 0.0007125524
-0.022307165 0.066505045 0.12815303 0.07497559 -0.08049635 0.03462772 0.0840807 -0.015113112
-0.052185614 -0.019445857 -0.062117044 -0.060816165 -0.062842496 0.002528415 -0.026685178 0.030121947
-0.0024299072 -0.0069410764 -0.05776998 0.055583097 0.023440044 0.08362954 -0.07996226 0.05245852
0.049792517 0.0041565504 0.020370476 0.003495366 0.044924397 0.07167082 -0.0043240017 -0.015654324
-0.04520267 0.06508191 0.09282771 0.005537602 -0.08293399 0.11286369 -0.059784684 0.08222951
0.063064605 -0.08587583 0.091580145 -0.07463862 -0.03160315 -0.02324942 -0.009245257 0.06679813
-0.003312155 0.06651616 0.078346856 0.031697374 0.0029714133 -0.01705815 -0.015112694 -0.060487356
0.073093474 -0.03627023 0.0016045051 0.0025698936 0.07094604 0.03994063 0.059045136 -0.05247884
-0.06862663 0.04923514 0.016647313 0.06674325 0.094682395 0.0051717716 -0.08871834 -0.064794056
-0.0801246 -0.043805867 0.061046723 -0.0532261 -0.019453676 -0.07564661 -0.0502043 -0.05249082
0.036205806 0.08311777 -0.029988777 0.059019964 -0.07727617 -0.019582413 -0.05707392 -0.036019597
0.05665693 -0.019998644 -0.01730516 -0.007815591 -0.06010794 0.06909257 -0.049025387 -0.060802612
0.011496637 0.056894403 0.016873028 0.036620695 -0.010960498 -0.07270662 0.041036118 0.0056863097
-0.01761316 0.049511362 0.013333842 0.01650202 0.067502424 -0.026360186 0.042270474 0.068948545
0.0056646275 -0.0050329445 0.03504738 -0.024326107 -0.077605784 -0.04630216 0.08272099 -0.017222641

model.4.weight f4 [128, 128]
00000000: d3c5 c43d f09e a8be 0260 a0bd 16d7 d03d
00000010: 1acb e03d 3f35 623e e8a9 19bd 7a94 143e
00000020: 2aaa 5ebd 4824 b63d f580 823d 7a8a 5e3d
00000030: 2cf8 d9bd a2f3 0cbe 12ac 6cbe 7645 1f3c
00000040: 4fb1 72be 399d 843d 01ef 2abe 60fe 48bd
00000050: 79da b83c 97bd 393e 67db 043d 91e7 1a3e
00000060: 28f8 9a3d 140e b5bd d23b a3be f8a4 83bd
00000070: d234 b13d 9d39 733d 5f10 fbbd a797 8cbd
00000080: 2199 ffbd b7ca 3bbe b68a 1abe 8088 123d
00000090: 15f8 da3d 3470 d7be 1048 8cbe 18a1 773e
000000a0: 9f14 ed3c 1089 903d a16f 953d e1f3 443d
000000b0: b487 853d 0aba 8c3d afc8 16be 662a 3e3d
000000c0: f5fc b93d e49b 61bd 666e e33c f521 a2be
000000d0: 1806 a6bd b5f7 c2be fc6b a4be 8f48 bc3d
000000e0: cee4 713d 74e9 ef3c 80f1 b0bd eaf6 8dbd
000000f0: e53f 90bd 7973 603d 30bd 4ebc 28e5 b7bb
00000100: 40e0 2f3e 4de6 2f3d 1a3c 82bd 754a debd
00000110: 0b24 133d d119 04be ceef 603d 7059 83bb
00000120: 7893 4ebe 5f5a 353d 2c68 2ebd eb81 05bd
00000130: 9ab0 6dbc 0405 4cbd fb59 1d3d 4767 66bd
00000140: 39cf 283d 99d7 56bd 7754 dabc bd16 883d
00000150: 994f 023e c256 543c 4c32 85bc 036c 243c
00000160: 030c f03d 33dd 953c 8fad 6fbc 6560 1ebe
00000170: 68bf a7bc 0ff2 203e b3d3 45bd a9c9 da3d
00000180: afa1 9e3d 9289 9bbd 7795 253d 7770 983d
00000190: 8d5e a3bc 92f7 fdbb 6a45 3abe 953a be3c
000001a0: 089a 2e3d 5b7c d8bd db7c d4bc 5622 4e3d
000001b0: 3077 b63d e007 64bb 5c4f 173c b85f b1bd
000001c0: 5a81 51bd dd4e 3dbd 413a b7bc df3f 27bd
000001d0: 3412 0ebe 7236 77bd b90d 42bd b2cd 2abd
000001e0: 1c16 45bd 79a8 c6bc ff39 3fbe c472 09bd
000001f0: 01d5 aa3d 3e1d 80bb 5f05 60ba 27b8 b73d
00000200: 3853 423d 4654 22bb eebc 26bc 8ebb 8abd
00000210: 74d3 133e 0077 73bd 7a8e efbc d83c 6d3d
00000220: 4bc1 733c 494b 853d 45f8 07be 1dac 97bd
00000230: 3b5b 9dbd 21e3 143d 7b01 49bd 467e f93d
00000240: 977f 3b3d a40b d3bb 67d3 093e 4e02 d7bd
00000250: b47d 74bd 4169 153e 315e b3bd 9070 893d
00000260: a548 093e 9b6b aebc 581a 10bd 4130 5f3d
00000270: 1efd dd3d eb07 423e ef27 2abd 1713 343d
00000280: f63b 9e3d 180d 22bd f1a4 a13c 59f1 b9bc
00000290: d230 b2bd 45cd 0dbd 98be 35bc 9338 71bd
000002a0: b798 96bd 00df 1f3c 8c52 29bd e21b 9f3c
000002b0: 0504 88bd 6ca5 8abc d321 103e 8fd0 61bc
000002c0: 1d59 b93d 33f6 193d 1aed 5c3d fa3c 5bbd
000002d0: 2a0b 96bc fe5b 4abc e29a 29bc 72e2 9b3d
000002e0: 5222 84bd 5022 9c3d 2be6 9cbd 12b4 a13d
000002f0: e3d9 47bd d4f4 2dbd 69aa 8cbd e80c 0abe
00000300: 7861 c2bc c369 64bd 11d6 fa3c 772c ff3c
00000310: f745 853c 002e 1c3e 517b 82be f9fa 093e
00000320: 49df b63c f4d7 a63c af9a 943d c45f 383e
00000330: 1d26 563d 9d19 473d fa9a 30bd e730 8c3d
00000340: c479 dbbc 6659 85bd a0ac a9bc 5dd6 a03a
00000350: 0532 163d 9de6 e9ba 0569 3d3d 3eaf 3dbe
00000360: 941a 0b3e a407 97bc 8d7b 78bd d5df bc3d
00000370: 5e0f 1e3e a2ac 1c3e a090 e0bd e2d9 783b
00000380: ada2 04bd 4f85 a0bc fcc5 e33d f565 4fbe
00000390: 8971 ecbd c226 283c ea72 c23d 086d 2abe
000003a0: 4ae5 3cbd 3b06 b0bc 6bf0 26be 9209 63bd
000003b0: e5bc ecbd cd85 913d 8293 863b 005e bebd
000003c0: 87ad bbbe 7083 f43d 4259 b1bd 2ce7 343c
000003d0: 1fd4 5fbc 36cd 03bd d720 15bd 4308 7e3d
000003e0: 68ac ad3a f418 613d 38cb c43d a1eb 8abc
000003f0: 1712 3ebd c0b9 a83d 540e 12bd 591e 64be
0.096080445 -0.3293376 -0.07830812 0.101972744 0.109762385 0.22090624 -0.03751555 0.14509764
-0.0543615 0.08893639 0.06372253 0.05433128 -0.10643038 -0.13764814 -0.23112515 0.009721151
-0.2370045 0.064753 -0.16692735 -0.049070716 0.022565113 0.18138729 0.0324358 0.15127398
0.07566863 -0.08840576 -0.31881577 -0.0642795 0.08652653 0.059381116 -0.12258982 -0.06864863
-0.12480379 -0.18339048 -0.15091977 0.035774708 0.10691849 -0.42077792 -0.2739873 0.24182546
0.028940497 0.070573926 0.07296682 0.048084144 0.06520024 0.06871422 -0.14724992 0.046427153
0.09081451 -0.05508031 0.027762603 -0.31666532 -0.08106631 -0.3807961 -0.32113636 0.09193527
0.059056096 0.029286124 -0.086398125 -0.06931861 -0.07043437 0.054797623 -0.012618348 -0.0056120344
0.17175388 0.04294424 -0.0635912 -0.10854045 0.035923045 -0.12900473 0.054916196 -0.0040084645
-0.20173442 0.044275638 -0.042579815 -0.032594603 -0.014507437 -0.04980947 0.03841589 -0.056250837
0.041213248 -0.052451704 -0.026651604 0.06644962 0.12725677 0.012960138 -0.016259335 0.010035518
0.11721041 0.018293953 -0.014628782 -0.15466459 -0.020477012 0.15717338 -0.048297595 0.10682995
0.077456824 -0.07594599 0.040425744 0.07443326 -0.019942546 -0.00775046 -0.18190542 0.023221293
0.042627364 -0.10570594 -0.025938442 0.050325714 0.08909452 -0.0034794733 0.009235229 -0.08660835
-0.05114875 -0.046217788 -0.022366645 -0.040832397 -0.13874131 -0.060354657 -0.04737637 -0.041700073
-0.04811679 -0.024250256 -0.18674468 -0.033556715 0.083414085 -0.003909736 -0.0008545722 0.08970671
0.047442645 -0.002476947 -0.01017688 -0.067740545 0.14436132 -0.05943966 -0.029242743 0.057919353
0.014877628 0.065085 -0.13278301 -0.07405875 -0.076834165 0.03634942 -0.049073678 0.12182288
0.045775976 -0.0064405967 0.1345955 -0.104984865 -0.059690192 0.14590932 -0.087582 0.06710923
0.13406618 -0.021291545 -0.035181373 0.054489378 0.10839294 0.18948333 -0.04154199 0.043963518
0.077262804 -0.03956327 0.01973197 -0.022698091 -0.08700718 -0.03461959 -0.011092804 -0.058891844
-0.07353347 0.009757757 -0.04133849 0.019422475 -0.06641392 -0.016924582 0.14075403 -0.013782634
0.090502 0.03758831 0.053937055 -0.05352495 -0.01831587 -0.012351034 -0.010351868 0.076115504
-0.064518586 0.07623732 -0.076610886 0.07895674 -0.048791777 -0.042469814 -0.06868441 -0.13481486
-0.023728117 -0.055764925 0.030619653 0.031149132 0.016268713 0.15251923 -0.25484708 0.13474645
0.022323268 0.020366646 0.07256066 0.18005282 0.05228244 0.04860841 -0.043116547 0.06845265
-0.02679146 -0.06511192 -0.020712197 0.0012270916 0.036668796 -0.0017845217 0.046242733 -0.18523881
0.13584358 -0.01843626 -0.060664702 0.0922238 0.1543555 0.15300229 -0.10965085 0.0037971665
-0.032381702 -0.019594816 0.11121747 -0.20253737 -0.115450926 0.010263147 0.09494574 -0.16643155
-0.046117105 -0.021487346 -0.1630265 -0.05542905 -0.11559466 0.071055986 0.00410694 -0.09295273
-0.36655828 0.11939132 -0.08659603 0.011041444 -0.013661413 -0.032178126 -0.03640827 0.062019598
0.0013250234 0.054955438 0.096090734 -0.01695806 -0.04640397 0.08238554 -0.035658196 -0.22277202

model.4.bias f4 [128]
00000000: 2b9a b13c 4497 2abc 5b3f dabc 2752 98bb
00000010: 7062 15bd 6062 013d 42ad 963d 482c e33c
00000020: 73c3 86bd 1ede 39bd 8117 983a 95b0 a23d
00000030: 6e5b 533d 2c9d 0dbd 8c57 b83c 2299 8cbd
00000040: 0f70 203d 61f7 9c3d f3b1 1b3c fd81 67bb
00000050: 6270 8abd cf46 fb3c 47e8 c5bc 3474 403c
00000060: 021d 813d cac6 37bd d69a b53a d97a 213d
00000070: 91fd fa3c 43b8 aabc 885b 853d d79a 08bd
00000080: 1cc8 70bd c5c6 b8bd 673d e337 e4c4 bc3b
00000090: 8ddd 503d 6c09 97bb 1637 77bd 870c f03a
000000a0: ee17 9e3c 0440 b3bc 0503 2ebd ddc9 8abd
000000b0: dd02 8fbd b750 b6bd d0ad e33b 61fb d73c
000000c0: a896 22bd dab4 8b3d 468c c93c abcb 0f3d
000000d0: 02fb 80bd 31b6 743d b1ea 3cbd cd40 4f3d
000000e0: 24f4 87bb 0638 703d 6a8a 133d 6ccb f13c
000000f0: e1c5 37bd a122 903c 933e 893d 6f45 acbd
00000100: 0bfa c4bc 9f75 983c 43bf 1fbd 2000 163d
00000110: 1896 e5bc 8033 4abc 6e8e 7d3d 3230 853d
00000120: 44cf 4e3d e140 8a3a 86a2 223c e74a babd
00000130: 40e3 0abd ff1a 87bd 93f6 8fbd 051a 113c
00000140: 0424 263d 28e8 7dbd a7fe ad3c 6ab0 40bd
00000150: d686 173d 2122 863c 26ae dc3c acef 153d
00000160: 399d 4ebd a9e1 50bd 1805 d3bd 1a6e 66bc
00000170: 86b2 df3c 0259 b8bd c2aa 0d3d 9444 6b3d
00000180: 071e 9f3d 7526 c23d 8974 81bc eadf 8ebd
00000190: 8c24 8abd 85c5 d03c f97a d0bc 98c9 883c
000001a0: b13b aabd f216 88bc f598 553c 3cef 89bd
000001b0: 43c3 2ebc 6d33 49bd 3096 9d3c 7449 d0bd
000001c0: 2f71 d13b 5eae 973d 994f 1abc ef24 17bd
000001d0: 7ec5 13bd f471 3cbc 29c7 5fbd 6a44 41bd
000001e0: b382 b83d b3c0 77bd d8ca 47bd d4e3 edbb
000001f0: c9fc 673c 988a 413d 32ec 75bc 6160 1e3d
0.021679958 -0.010412041 -0.026641538 -0.004648465 -0.03647083 0.03158796 0.07357265 0.027731076
-0.06580248 -0.045377843 0.0011603684 0.079438366 0.051600866 -0.03457372 0.022502683 -0.06865145
0.039169367 0.07664371 0.009502876 -0.0035325282 -0.067597166 0.030673413 -0.02415861 0.011746455
0.06304361 -0.044867314 0.0013855349 0.039423797 0.030638488 -0.020839816 0.06511599 -0.03335079
-0.05878459 -0.09022287 2.7089101e-05 0.005760776 0.050992537 -0.0046092775 -0.06035527 0.001831428
0.01929852 -0.021881111 -0.04248335 -0.067767836 -0.06982968 -0.08902114 0.0069482103 0.026364984
-0.03969446 0.06821604 0.02460302 0.035106342 -0.06297876 0.059744064 -0.046122257 0.05059891
-0.004148977 0.058647178 0.036020674 0.029515944 -0.044866446 0.017594637 0.06701388 -0.08411681
-0.024045011 0.018610774 -0.03900076 0.036621213 -0.028025672 -0.01234138 0.06190341 0.06503333
0.050490633 0.00105479 0.009926444 -0.09096318 -0.03390813 -0.06596946 -0.07029452 0.008856301
0.04056169 -0.06198898 0.021239592 -0.04704324 0.036993824 0.016373696 0.02693851 0.036605522
-0.050442908 -0.050996456 -0.10303706 -0.014064336 0.027306806 -0.09001352 0.034586675 0.057438448
0.07769399 0.09479991 -0.015802639 -0.06976302 -0.06745252 0.02548481 -0.025449263 0.01669769
-0.083121665 -0.016612504 0.013036956 -0.067350835 -0.010666671 -0.04912131 0.019236654 -0.1017026
0.0063916664 0.07406305 -0.009418392 -0.036900457 -0.036077015 -0.011501778 -0.054633293 -0.047184385
0.09009304 -0.060486507 -0.04877743 -0.0072598252 0.01415939 0.047251314 -0.015009927 0.038666133

model.6.weight f4 [64, 128]
00000000: 478d d43d 489e 5abd 59ce 2dbd 0b80 11be
00000010: 102b dfbb 5c62 093d d070 4cbe cbbe 123e
00000020: 0623 a1bc ad2d cd3d f73b 8d3d 14a7 5e3e
00000030: a770 0abe 9a1e f43d ffbe 06bd 21c1 69bd
00000040: b4b8 b53d e705 79be 9a25 7d3d 6a03 92bd
00000050: 10ce 073e 174b 1e3e 0730 23be 13a1 d3bc
00000060: 78d9 15bd 1cb7 893d f0fc 83be 7ebf bebd
00000070: 68b7 9dbd 3b8f 57be d5df 263e 006b f4bd
00000080: d55b ce3d 50c6 8ebd b773 5fbd 2bb4 97bb
00000090: 8ea9 ccbc ddc7 693e 93d6 a3bc 0bc2 f73c
000000a0: 26b0 8c3d 0078 f43d d28a 23bd 5d45 62bc
000000b0: 6045 04be a53e 2e3e 406c 013d 3b83 543d
000000c0: 73a1 cc3c c12a e13d 5919 ebbd b365 17bc
000000d0: 58a6 33be 7ff7 4f3e 148b 4dbd 2726 293e
000000e0: a9a8 f63d ecc6 61bd 8990 5e3c c0c2 953d
000000f0: ff50 463e c00e 90bc 6e93 e7bd bdf5 723e
00000100: a0b3 293e 17de 403e 9291 583c 3c9f 213d
00000110: ac9d 5bbc aeea 29be 25f1 803c f37f df3d
00000120: a5ca f3bc dd67 78bc 0878 12be 0a49 80bc
00000130: fb7a bdbc 6e68 b13c 9ba4 bebd f48b 743e
00000140: 6969 7b3d 64f5 83bd b9e0 febd 53be 8f3d
00000150: 65a6 ab3d 2017 0e3d e259 11be b52f 07bc
00000160: d24a 143e a972 b53d 848b 0f3e c60b 45be
00000170: 87ec 3cbe 864c dc3d ac9c 8b3d adab 2c3e
00000180: 1c61 0d3d e3b5 b5bd 3658 da3d 6395 e73c
00000190: 89a1 e43d ab2a 21be 6fd5 21be 8e39 c63d
000001a0: 3d1b 6dbe d409 05be 4b9d 323e 36fc 0fbe
000001b0: a44a c0bd fe61 963d cafb 893b 0733 4e3c
000001c0: a9c7 95bd 7307 c03d ace7 54bd a62c 68be
000001d0: 89ba 31be 08c6 d8bd 14f4 b23d c4e4 0c3d
000001e0: 29b7 013d 135b a0bd a362 50bd 3886 ab3c
000001f0: 9108 01be de19 123d 71d0 8abd 9185 213d
00000200: 9d77 e93c 1d76 e63c 1d46 82be cac8 d53c
00000210: 2182 cbbc e80c 1f3d f042 05be 1d58 1abe
00000220: 9c09 043e 12eb 81be ad98 afbe 2e97 1bbe
00000230: 8fe7 9b3d e2e6 a0be 534d a93d 465b 113e
00000240: 676f adbb 5774 283c 3bc7 14bc 9466 213e
00000250: bc8e 00be 878f a0bb 192d c7bc 0bb2 473d
00000260: a736 0a3e f46a 7bbd c850 a73b 632b 8ebd
00000270: c796 1cbe 12d7 0f3e 14ab 39bd 3231 68bd
00000280: 4d09 cfbd 8aa7 bebd 7549 543a 968c 0bbe
00000290: ed82 993d f858 16bd 3c07 eb3c 5438 f93d
000002a0: bfee 543e d482 3bbe 9169 5fbe 700a d8bc
000002b0: d544 9e3d 8cc2 91bd 1768 b9bd 2dc9 003e
000002c0: f1ff 753d dc3c ff3d 1789 bf3c 8f16 31bd
000002d0: 3f0c 443d 2c4c 6dbe b2e9 60bd b4f2 9f3d
000002e0: 0a67 a2bd 8fd8 d7be 7d65 e0b8 71dc 5f3d
000002f0: 78fc 4f3d f93a d03c f94f 123c 032d 42be
00000300: 5709 f23d a75c 2d3c 495b 5c3d c890 babd
00000310: 4a9d 3dbd 40eb 79bc 62f4 d93d 6ee4 503d
00000320: efe1 bfbc e68f 3fbd 3d5d 0b3e 435d b4bd
00000330: 9a10 ae3c 3bf6 0d3e 6d29 e1bb ddd7 f73c
00000340: ea2b 0f3d 89b3 28be a674 30bd 8810 debd
00000350: 4016 603d 1a72 31be 3274 293e 65cd 9d3d
00000360: 29f3 90bd e493 bc3d 0070 7dbc 43cc 563e
00000370: cf49 c43d f197 a6bd f8eb 40be 3741 a43d
00000380: 5418 173e a87a 123e a527 0cbe 9415 b23d
00000390: e3ef fbbd 63e5 8a3d 8a87 64be adbe 223e
000003a0: 3dcf 58bc 1132 073e 74db 443e 251a 0dbe
000003b0: 9281 acbd f6ff babd 8a35 50bd eedc 86bd
000003c0: 1ce7 533e 9fa7 9abe 1167 d6bc e059 36bd
000003d0: 644d 0ebe f014 a03d df51 adbd a977 033c
000003e0: 474c 26be d29c 723d 4280 92bd 1b4f 50be
000003f0: e6c8 a0bd 65bf cc3d 63b7 e43d ea93 84bd
0.10378509 -0.053373605 -0.042433117 -0.14209001 -0.0068105534 0.03354107 -0.1996491 0.14330594
-0.01967002 0.100184776 0.06896203 0.21743423 -0.13519536 0.11919899 -0.03289699 -0.057068948
0.0887312 -0.24318658 0.061803438 -0.071295574 0.132622 0.15458332 -0.1593629 -0.025833642
-0.036584347 0.067243785 -0.25778913 -0.09313868 -0.077009976 -0.21050732 0.16296323 -0.11934471
0.10076109 -0.06971419 -0.054553714 -0.004629632 -0.024983194 0.22830148 -0.019999778 0.030243894
0.06869535 0.11936951 -0.03992731 -0.013810483 -0.1291709 0.17016084 0.031597376 0.051882964
0.024979329 0.10994483 -0.11479444 -0.009240556 -0.17543924 0.20309256 -0.050181463 0.1651846
0.12043888 -0.055121347 0.013584265 0.07312536 0.19366835 -0.017585158 -0.11307417 0.23726554
0.16572428 0.1883472 0.0132183 0.0394585 -0.013404291 -0.1659343 0.015739987 0.10913076
-0.029759714 -0.015161482 -0.14303601 -0.015659828 -0.02312993 0.021656241 -0.0930874 0.23881513
0.061379824 -0.06443289 -0.12445206 0.07018723 0.083813466 0.034690022 -0.14194444 -0.00825112
0.14481667 0.0885976 0.14018065 -0.19242772 -0.18449603 0.10756783 0.06816992 0.16862364
0.03451644 -0.08872583 0.10661356 0.028269475 0.11163623 -0.15738933 -0.15804075 0.096789464
-0.23154922 -0.1299203 0.17442815 -0.14061055 -0.093892366 0.07342909 0.004210924 0.012585408
-0.07313473 0.09376421 -0.051978752 -0.22673282 -0.17356314 -0.105846465 0.087379605 0.034397855
0.031668816 -0.07829871 -0.050875317 0.020938024 -0.12600924 0.0356692 -0.06778038 0.03943402
0.028499419 0.028132493 -0.25444117 0.02609672 -0.024842324 0.038830668 -0.13013816 -0.15072675
0.1289429 -0.25374657 -0.3429617 -0.15194389 0.07612526 -0.3142615 0.082667015 0.14194974
-0.005292821 0.010281644 -0.009080703 0.15761787 -0.12554449 -0.0048999223 -0.024313496 0.04875378
0.1349741 -0.061381295 0.0051060654 -0.06941869 -0.15291892 0.14046887 -0.04532917 -0.05668754
-0.10109196 -0.09309299 0.0008098104 -0.13627848 0.07495675 -0.03670594 0.028689973 0.12168947
0.207942 -0.18311626 -0.21817614 -0.026372164 0.077279724 -0.07117185 -0.09053057 0.12576742
0.060058538 0.1246278 0.0233808 -0.043234404 0.04786324 -0.23173589 -0.05491037 0.07809964
-0.079298094 -0.4215741 -0.00010700056 0.05465359 0.050777882 0.025418745 0.0089302 -0.18962483
0.11818188 0.010581172 0.053797994 -0.09109646 -0.04629258 -0.015253842 0.106423154 0.050999098
-0.023423163 -0.04676809 0.13609786 -0.08806851 0.02124815 0.1386346 -0.0068713934 0.030254299
0.03495399 -0.16474737 -0.043079995 -0.10842997 0.05470872 -0.17328683 0.16548231 0.077051915
-0.07077629 0.092078954 -0.015468597 0.20976357 0.0958439 -0.08134449 -0.18840015 0.08020251
0.14755374 0.14304602 -0.13686998 0.08695522 -0.12301614 0.06782033 -0.22317329 0.1589305
-0.013233003 0.13202693 0.1922434 -0.13779505 -0.08423151 -0.09130852 -0.05083231 -0.06585108
0.2069363 -0.3020601 -0.026172193 -0.044519305 -0.1389671 0.078164935 -0.08462881 0.008024135
-0.16240035 0.059231587 -0.071533695 -0.20342676 -0.07850818 0.09997443 0.11167791 -0.06473525

model.6.bias f4 [64]
00000000: be7b c63c ec33 5b3d 1c6f 26bd 714e 6dbd
00000010: 3734 023d 2cae 18bc b41d 723d 7257 00bd
00000020: e178 843d 506a 8dbc cdda 38bd 3844 b9bd
00000030: d586 493c 36f7 513d 1380 be3d eca1 b23d
00000040: 8293 093d 0449 ae3c 04e8 26bd 6d28 4b3d
00000050: 3122 fb3c 783b 76bc 7c1c f93d 6d52 dd3d
00000060: 17c9 9abd 0297 113e 0c73 823d 0c9d e93d
00000070: 691f 4a3d b538 efbd 1edf 74bd f14b 0d3d
00000080: 3f1b a13d 25bc 0dbb edfd a53d f208 b93d
00000090: 94ce 073b 95b1 82bd ba5e 513d 9fc7 723b
000000a0: 089f ad3d 2218 47bd b881 733d 245e 9dbd
000000b0: ab8b 8abc 60d1 9a3c e38c aa3d f588 29bd
000000c0: d72e 943d 3860 333d dcd4 4fbd 35df cabc
000000d0: 2f5b 3abd cc05 a4bc 2f6a 83bc 22dc 90bd
000000e0: 1688 a23d 4c22 b63d d0c0 bd3d 42c1 6abd
000000f0: 9ee8 dc3a 0f68 cabc 4b26 993b b7e0 a8bd
0.024228927 0.053516313 -0.040633306 -0.057936136 0.031788077 -0.00931887 0.05911036 -0.031333394
0.06468368 -0.017262608 -0.04513054 -0.09046215 0.012300213 0.05126115 0.09301772 0.087222904
0.03358794 0.021275051 -0.04074861 0.0495991 0.030655952 -0.015028827 0.12163636 0.10806737
-0.07557886 0.14217761 0.063696 0.114069074 0.04934636 -0.11680738 -0.059783094 0.03449625
0.07866525 -0.0021627035 0.08105073 0.09034909 0.0020722495 -0.06381527 0.05111573 0.0037045253
0.084775984 -0.048607 0.05944988 -0.076839715 -0.016912302 0.018898666 0.08327653 -0.041390378
0.072354965 0.043792933 -0.050740108 -0.024764637 -0.045497116 -0.020022295 -0.016041843 -0.07073237
0.079361126 0.0889326 0.09265292 -0.05731321 0.0016853993 -0.024707822 0.0046737543 -0.08245986

model.8.weight f4 [64, 64]
00000000: bd15 323e dc68 833d 5d00 b0bc e3a5 573e
00000010: fb61 163e 2224 303e b0d1 9f3c 0dad 763d
00000020: 3bd3 b43e becb cd3d 84ce ea3c f8f6 f83d
00000030: 4d8d 88bc 8fba 1fbd f8d6 b53d ad87 ca3c
00000040: 89e4 a7bc fa64 ef3d f1c8 c8be 3b19 52bd
00000050: 12d5 81bd 5d48 e6bc f269 a33d 0242 803d
00000060: 7e13 34bd 68f2 283e 4fd3 973e a205 14be
00000070: d84a 16bd 5b41 babd 9e28 273b 8efe 043d
00000080: 0269 35be 8d47 8ebd 2735 4d3d 6549 ca3d
00000090: e2bd 97bd af90 2fbe ae37 a9bd f5bb 6d3d
000000a0: 427f 013f bf8a 133e 232b 0f3e a743 c5bd
000000b0: ad22 513c 844e 60bd 4da6 98bb 9d6e a43e
000000c0: 316d d6bc afbe 1f3e 17a7 86bc 81d8 283e
000000d0: 035b ebbd f7a4 84be 1736 e83d ba5c ad3d
000000e0: b750 1f3d 5fb1 4e3d 11b2 cf3d 48ac 0b3e
000000f0: 3f97 0e3e 6563 1c3e 5331 17be 3c7f 103d
00000100: fe1f 38be 1ee1 8cbe cba3 9fbc a5a1 f6bd
00000110: 8f09 11bc 67dd 303e 9d6a 00bd 31e5 3bbe
00000120: 5245 abbd 43e4 62be 4d37 49be 6439 85bd
00000130: 3bc6 bcbc 2975 c03d f248 df3d 67b4 91bc
00000140: 7e4e 133e 7f4d 0e3e 4913 83bd f245 b03d
00000150: 5f43 143d 519b 313e 17d7 0e3e db2c 2fbe
00000160: 39aa 153c 6832 f73d fd9e 6dbd 6bef de3c
00000170: 3a49 f33d 008b 443d c20b 2abe 3ab3 123e
00000180: 16d1 3fbe d583 61be 4a57 dcbc ffec 51bc
00000190: d370 f0bd e5f6 163e 4239 09bd 8d7e 1dbe
000001a0: 0a62 71be 9176 023e 7580 c7bc daf7 043d
000001b0: 3768 27bb 4939 97bd 2d34 89be 2429 1fbe
000001c0: cf67 4e3e 12c9 cbbd 41c0 8cbe 2962 483e
000001d0: 8930 933d d9bc 79bd 05b8 5bbe c63b b5bd
000001e0: f6dd a0bc 1535 d03d 95e9 21bd 5018 de3c
000001f0: 83e3 b33d 9911 41bd f39a 82be 90ee 693d
00000200: b69e c83d a9dc 08bc 5575 52ba 3998 473e
00000210: 0395 27bd da84 3ebe 67b3 4cbe 9441 3abd
00000220: 7d15 b03d b79b 223e 4547 bf3d 2676 a3bd
00000230: 3a82 f8bd da3f 0e3e 21e7 f13d b2c6 97be
00000240: 4c84 ec3d aa77 b33d 2477 623e 75ca c7be
00000250: fb4b 903d 2c26 bb3d 161f 653b 372f 17bd
00000260: b827 833c 56f8 473d 86f6 4fbe c2b9 1b3d
00000270: a7a6 4f3d 55a6 653e ab63 073e 18ef 973d
00000280: 5555 aa3d e119 1d3e c662 a23c f04c b1bd
00000290: df57 7bbd ce82 803d 5ae9 e9bd dc10 803e
000002a0: 1d47 1c3d a560 3d3e 2760 1c3e e485 6bbd
000002b0: 13c3 093d 0d00 a63d c89e 9fbc dbd9 263d
000002c0: 414b dcbc 162f ebba 9b8a fc3d dd6f 233d
000002d0: 74ee b33c 3804 043e 41f6 973c 2007 c6bc
000002e0: f4ef 173e d10b 0b3d 71fd 1cbd e06b 94be
000002f0: ab42 a2bd cadb 1ebe 14e3 3d3d 9a3d 873d
00000300: e0d2 e13d ecbc 07be cdd0 8cbd 359c 09bc
00000310: 78f7 c03d 401f 83bd b180 c83d 84ba 803d
00000320: 76da 6fbe a18a a1bd 9125 b3bd e9da 3cbd
00000330: 10ca 443d dd96 05be 0d49 d23d b2d2 e8bd
00000340: 9492 953c ee9e 873d 722a 9fbe ddf3 adbb
00000350: 5ea5 e3bc a10f 31bc e367 8f3d 2a1e b83c
00000360: 9bf6 173d ce91 f33b f2c3 543e 9542 45be
00000370: fee1 4339 bbbc bd3d aa9d 89bc fcdc 17be
00000380: ff1e 7a3d 2bde b2bd 8491 ec3d 6af6 c23d
00000390: f8f5 f53c e2fb 94bd e98a f43d c98a d93d
000003a0: 392c 003e 0c55 4abd 1ab7 143e 105d 2dbd
000003b0: c926 9f3c b9cd 513d a1bd ffbc 2294 2f3c
000003c0: 4352 783d a532 c93c 7e9e 9f3d 441d 883d
000003d0: b4c2 8f3d 27c6 b63c 9deb 853d e81c 6a3d
000003e0: 97b4 fd3d 2c16 2e3d 9afc 98bd a208 fd3d
000003f0: b5f5 263e a293 ef3d 263e e43d daf8 873d
0.17391105 0.06416485 -0.021484548 0.21059375 0.14685814 0.17201284 0.019509166 0.060223628
0.35317406 0.10048626 0.028662927 0.121564806 -0.01666894 -0.038996276 0.08878893 0.024722898
-0.020494716 0.116891816 -0.39215806 -0.051293593 -0.06339468 -0.028110677 0.07979192 0.0626259
-0.0439639 0.1649872 0.29653403 -0.14455274 -0.03669247 -0.09094497 0.0025506387 0.032469325
-0.17715839 -0.06947241 0.05009952 0.0987728 -0.07409264 -0.17145036 -0.08262573 0.058040578
0.50584805 0.14408396 0.13981299 -0.09632044 0.012764615 -0.05476238 -0.0046584965 0.3211564
-0.026175113 0.15600084 -0.016437097 0.1648884 -0.114919685 -0.25907108 0.11338442 0.08464952
0.038895335 0.050462123 0.10141385 0.13639939 0.13924883 0.15272291 -0.1476491 0.03527759
-0.17980954 -0.275155 -0.019487282 -0.1204255 -0.008852377 0.17271958 -0.031351674 -0.18349148
-0.08362831 -0.22157387 -0.19650002 -0.06505087 -0.023043742 0.093973465 0.10902585 -0.017786218
0.14385411 0.1389675 -0.06400163 0.08607091 0.036197063 0.17344405 0.13949238 -0.17106955
0.0091348225 0.12070161 -0.05801295 0.027213773 0.11879201 0.047984123 -0.16606048 0.14326182
-0.18732104 -0.22022946 -0.026897091 -0.012812852 -0.117402695 0.1474262 -0.03350187 -0.15380307
-0.23572555 0.12740542 -0.024353245 0.032462932 -0.0025544295 -0.07383973 -0.2679762 -0.15543038
0.20156787 -0.099504605 -0.27490428 0.19568695 0.07186992 -0.060971115 -0.21456917 -0.088492915
-0.01963709 0.101663746 -0.0395294 0.027111202 0.08783629 -0.047135923 -0.25508842 0.057112277
0.09795897 -0.008353391 -0.0008028348 0.19491662 -0.040913593 -0.18605366 -0.19990312 -0.045472696
0.085978486 0.15879713 0.093397655 -0.079815194 -0.12134214 0.13891545 0.118116625 -0.2964378
0.11548671 0.087630585 0.22115761 -0.3902165 0.07045742 0.0913814 0.0034961156 -0.036910262
0.01601015 0.048820816 -0.20308885 0.03801895 0.05069604 0.22426732 0.13221614 0.074186504
0.08317057 0.15341903 0.01982249 -0.08657253 -0.061363097 0.06274949 -0.114214614 0.25012863
0.038153756 0.18493898 0.15271054 -0.057500735 0.033633303 0.081054784 -0.019484892 0.040735107
-0.026891353 -0.001794311 0.123311244 0.039901603 0.02196429 0.12892234 0.01855004 -0.02417332
0.14837629 0.033946816 -0.038327638 -0.28988552 -0.07922872 -0.1551353 0.046359137 0.066035464
0.11026549 -0.13255662 -0.06875763 -0.008399059 0.09422201 -0.06402445 0.09790171 0.06285575
-0.2342318 -0.078877695 -0.087473996 -0.046107206 0.048044264 -0.13045831 0.102678396 -0.11368312
0.01825837 0.0662211 -0.3108707 -0.005308612 -0.027788814 -0.010806949 0.07002237 0.02247532
0.037100416 0.0074331528 0.20777872 -0.1926368 0.00018680838 0.09264513 -0.016798813 -0.14830393
0.061064716 -0.087337814 0.115511924 0.09519656 0.030024514 -0.07274605 0.119405575 0.10622174
0.1251687 -0.049397513 0.14522973 -0.04232508 0.019427674 0.051221583 -0.031218352 0.01071647
0.060625326 0.024560282 0.07793902 0.06646207 0.070195585 0.022311283 0.0653908 0.057156473
0.123879604 0.042501613 -0.07470055 0.12355162 0.16304667 0.116980806 0.111446664 0.066392615

model.8.bias f4 [64]
00000000: 2a76 c0bc 5811 bfbc 6fee 71bd 4716 203d
00000010: 1f87 083d bbfe 5dbd ae09 90bd f54a 5f3d
00000020: 3535 18bd 4318 d73d 44fb 203d 915a 813d
00000030: 74cb 87bd b213 02be 7f73 da3d 03ac 0b3e
00000040: c369 e93d 4cf1 d0bc d387 0a3e f6d1 48bd
00000050: e3b9 a0bd 0e6e a8bd 8e82 533d 4bea b7bc
00000060: 073a 053d b613 ed3d 10c0 95bb 1d7d e03d
00000070: 43e6 173c 1376 c13c 2ede 433d d76a bf3c
00000080: be32 803d 425b 36bd 8064 d3bc c11e 143e
00000090: c269 98bc 0260 973d 3b67 e4bb 9cee b23d
000000a0: e451 72bc 305d 823d a928 663d ffa6 1dbc
000000b0: 327c e83d 9f04 a2bd d906 2e3d bf95 9fbd
000000c0: 5597 b03c e4c4 993c c276 8b3c 1e44 edbd
000000d0: fa5b 863c a9f2 34bc 2fc5 743c 8624 9ebc
000000e0: 7366 533c ca79 473d 5e26 acbd dd00 4d3e
000000f0: d16d 753d 3001 9abc a33d 943d 68e7 a1bc
-0.023493845 -0.0233237 -0.05906528 0.039083745 0.033331987 -0.054198008 -0.07033096 0.054514844
-0.037160117 0.105026744 0.039302126 0.06316102 -0.066306025 -0.12702826 0.106665604 0.13639836
0.113971256 -0.025505684 0.13528375 -0.04902836 -0.07847955 -0.08224116 0.05163818 -0.022450587
0.032526042 0.11576025 -0.004570015 0.109613635 0.009271207 0.023615872 0.04781931 0.023366375
0.06259678 -0.044520624 -0.025804758 0.14464857 -0.018605117 0.07391359 -0.006970314 0.087369174
-0.014790032 0.0636543 0.05619112 -0.0096223345 0.113518134 -0.07911038 0.042487 -0.07792234
0.021556536 0.018770643 0.017024402 -0.11585258 0.01640128 -0.011044183 0.01493959 -0.019304525
0.012902844 0.04870013 -0.084057555 0.2001986 0.059919182 -0.018799394 0.07238319 -0.019763663

model.10.weight f4 [4, 64]
00000000: dae1 553e 0628 9fbe e3d2 26bd 21fc e13d
00000010: 013f 783e 7388 dc3d f4e7 843e 4f72 093f
00000020: 5e57 aabd 448a a43d 8dc8 4ebe b720 29bd
00000030: 61b3 d2bd 1cb2 c4bd 3dfb 173e 7126 623d
00000040: 3a26 c93d 5861 15be e92e 313d dd68 73bd
00000050: 648a 08bd 22be c6be 58d5 3b3c bab4 dd3d
00000060: e008 1cbf 76a0 f03d e428 f03c 0888 a9bb
00000070: 84f5 8fbc 497e a33d 5b8e 9bbe 0938 363e
00000080: 4da2 bb3d a7c6 053e 01b5 713e 6d0c 293e
00000090: 857e f13d 1483 3fbe 5c12 4ebe 7aee 313e
000000a0: 4a47 88bd 9bed c9bd 68fc 87bb 942c 003d
000000b0: aed4 b23d d541 87be 490c 92be 3cbc 23be
000000c0: 9f4a 813d 6e7a 323e 7ac0 563d 7380 713b
000000d0: f8f7 cf3e 89e1 6c3e 7871 103e b295 9fbe
000000e0: efcc 30be 5b6d f33c f2ff 86bd 251b 123e
000000f0: d7ae a6bd c2a5 b5bc 9c0f 9cbe d5ed b73d
00000100: b9cc 1e3e d79f f8bd 2e2e c3be e5cf c83c
00000110: 2018 4c3d dcaf 16be 1292 02bf a3f0 cc3d
00000120: 5e50 d83d a47a fe3d 8884 d7bd b826 11be
00000130: 3029 20be 4514 af3d 2ff0 613d dafc 323e
00000140: ea7c 2abd ad1b 8a3e 3a2f dbbd d7b7 9abc
00000150: fbd6 a23d 2b32 c13e 50b6 ff3d 665e c7bd
00000160: a3c4 fabd b94e 6fbd 7a9d 3a3e f4c9 073e
00000170: fd61 f83d fa44 86be 7540 8ebd 6876 243c
00000180: 5718 50bd 1eda c53e dc9d 8e3e 29a0 603e
00000190: 304a 983d df9b b93c a71e 523e eae5 f3bd
000001a0: a80d 9c3d b768 a03d 9ef2 4c3c 4d64 5abd
000001b0: cfec 363e 8281 90be f81a 933e d440 98bd
000001c0: d275 a83d a487 d13d 19a4 923d 2960 5cbe
000001d0: 4d79 65be 66a5 bcbc 2a5d 1a3e 1b4a 15be
000001e0: 6e75 d63d 026f 4c3e f95e b0bd fe32 3ebc
000001f0: 7bd9 093f 01c0 dd3b d904 a43d b1c9 ab3e
00000200: 6d54 ad3d f163 04be e344 463e a380 2cbd
00000210: d4ac 15be dc23 debd 4cb7 34bc 439a cc3b
00000220: c36f 33bd 733d 023e 29d5 22bf b466 eabd
00000230: fddf ca3d f73b e4bd 12a4 a5bd 5aa8 1a3e
00000240: 7ffc 86bd 359e 57be 2cb5 e63d 3524 963c
00000250: d18f 123e e9ed 85bd 531a e6ba cbdf 2cbf
00000260: c962 ad3d f86b 043e 9888 3e3e 5f0b 073e
00000270: ed76 4a3d 0316 66be cf95 ccbc d5a2 493d
00000280: e5ed f3bc d254 c63e 15d2 223f 4262 37bd
00000290: a204 903d 803d 87be b862 743e 1a53 e4bc
000002a0: f3aa f43d 7ce0 a4be 51fe fa3d c80d 0c3e
000002b0: 676b 3e3d b60e 91be 99dd f73b d271 69be
000002c0: 8f69 e33c b103 bd3d 1649 0ebd 1bb3 79bd
000002d0: b109 08be 8ba0 c0be 0f07 9b3e 8e8f fbbc
000002e0: 781a 2fbb e76d 723e 6287 3e3e 8374 183e
000002f0: b912 a03e 7942 95bd 593e 87be ed8e 99be
00000300: 21cb c8bc 68de eabe f204 b33d a2b3 cdbd
00000310: ffc9 7c3e 39b1 01be 7330 073e 5849 eb3e
00000320: 2665 e03c d0bf 10bd 27dd a5be 5ffe 883e
00000330: e8fd 07be 787f 8c3e 4365 f83d b4e8 273e
00000340: 6d1c 8ebc 7ec5 183e a778 69bc 7b66 5cbd
00000350: c9b9 b63d 6c5c cf3d e10c 00bd b49c 5dbe
00000360: b3d5 b4be 04d4 1abe df02 4d3e 50ff 2c3e
00000370: 7266 96bd 63eb bf3e 5c1e 07be 570c 053d
00000380: 2990 f93d a05b c43e 6a75 9bbe e606 803d
00000390: d980 513c 3141 a4be b3ec 433c 14a0 05be
000003a0: c4c1 bd3d f598 48bd 95de 643d fe4a 063e
000003b0: bfc3 213e c87e f7be 07ce 123d b630 9d3d
000003c0: af9c c2bd ebbb a33c b1f5 123c 26e0 303e
000003d0: e6b9 2d3e 90b6 ddbe 0a47 c2bc 73d8 2fbd
000003e0: 5e0b 13be 6854 473e 7e54 893e 4b1c 153e
000003f0: c55b 37be 9ff5 88be 5590 aa3d 8580 23bf
0.20886937 -0.31085223 -0.04072846 0.11034418 0.24242784 0.10768213 0.25958216 0.53690046
-0.08317445 0.080341846 -0.20193692 -0.041290965 -0.1028812 -0.09604284 0.14841934 0.05521244
0.09821744 -0.14587915 0.043257628 -0.059426177 -0.033335105 -0.38816935 0.011464439 0.108254865
-0.6095104 0.117493555 0.029316373 -0.005173687 -0.017573126 0.07983071 -0.30382046 0.17794813
0.09161816 0.13064061 0.23604204 0.16508646 0.1179171 -0.18702346 -0.20124191 0.17376128
-0.06654222 -0.09859773 -0.004149962 0.031292513 0.08731972 -0.26417413 -0.28524998 -0.15989774
0.06313061 0.17429516 0.052429654 0.0036850243 0.40618873 0.2313291 0.14105785 -0.31168896
-0.17265676 0.02971523 -0.065917864 0.14268167 -0.08138817 -0.022173766 -0.3048066 0.0898091
0.15507783 -0.12139862 -0.3812117 0.024513194 0.049827695 -0.14715523 -0.51004136 0.10006835
0.10562204 0.124257356 -0.10523325 -0.14174926 -0.15640712 0.08548788 0.055160698 0.17479268
-0.041623034 0.2697424 -0.10702367 -0.01888649 0.079511605 0.37733588 0.12485945 -0.09734802
-0.12244537 -0.058424685 0.18224135 0.13260633 0.12128065 -0.262245 -0.06945888 0.010037996
-0.050804462 0.38642973 0.27854812 0.21936096 0.07436025 0.022657333 0.20519505 -0.11909087
0.07619792 0.07832473 0.012509016 -0.05331831 0.17863773 -0.28223807 0.28731513 -0.0743424
0.082255974 0.102309495 0.071602054 -0.21521057 -0.22409554 -0.023028087 0.15074602 -0.1457905
0.10471617 0.19964221 -0.086118646 -0.011608837 0.53847474 0.0067672734 0.08008737 0.33552316
0.084633686 -0.1292875 0.19362216 -0.042114865 -0.1461671 -0.108466834 -0.0110300295 0.0062439754
-0.043807756 0.12718754 -0.63606507 -0.1144537 0.099060036 -0.1114425 -0.080879346 0.15103284
-0.065911286 -0.21056445 0.112650245 0.018327812 0.14312674 -0.065395184 -0.0017555453 -0.6752898
0.084661074 0.12931812 0.18606794 0.13187931 0.049429823 -0.22469334 -0.024973778 0.049227554
-0.029776523 0.38736588 0.6360181 -0.04477144 0.07032134 -0.26414108 0.23865783 -0.027871657
0.119466685 -0.32202518 0.12255538 0.13677132 0.046489146 -0.28331536 0.0075642583 -0.22797325
0.027760295 0.0922922 -0.03473767 -0.060961824 -0.13284947 -0.37622485 0.30278823 -0.0307081
-0.0026718657 0.23674737 0.18606332 0.14888196 0.31264284 -0.07288069 -0.26414755 -0.29991856
-0.024510922 -0.45872808 0.087411776 -0.10044028 0.2468643 -0.12665261 0.13202076 0.45954394
0.027391981 -0.035339177 -0.32395288 0.2675657 -0.13280451 0.27441 0.12128689 0.16397363
-0.017347539 0.14919087 -0.014249957 -0.05380867 0.089221545 0.1012505 -0.031262282 -0.21641809
-0.3531929 -0.1511994 0.20020626 0.16894269 -0.07343759 0.37484273 -0.13195175 0.03248247
0.121856995 0.38351154 -0.30363017 0.06251316 0.012787067 -0.32080987 0.011958289 -0.13049346
0.092654735 -0.048973996 0.055876333 0.13114545 0.15797327 -0.48338914 0.035841014 0.076753065
-0.09502541 0.019987067 0.00896971 0.17273006 0.16965446 -0.43303347 -0.023715515 -0.04293103
-0.14359805 0.19465792 0.26822275 0.14561574 -0.17906101 -0.26749894 0.083283104 -0.6386798
