Dueling_DQN/checkpoint_end.pth (torch_old, 204181 bytes, 12 tensors)

model.0.weight f4 [128, 37]
000000 c8 29 70 3d 10 2e 20 3d f5 1e ad bd 32 08 69 3c
       0.058633596 0.03910643 -0.0845317 0.014223145
000010 db c6 92 bb b3 65 e2 3c e0 7e 99 3d 8d 1a 24 3e
       -0.004479272 0.027636385 0.074949026 0.16025753
000020 b3 cc 90 bd 91 0e 2e bd 2c df ce 3d 24 af 0c 3d
       -0.07070293 -0.04249436 0.101011604 0.034346715
000030 c7 3a de be 32 bb fa bd 50 56 19 be c4 9e 89 3d
       -0.4340422 -0.12242736 -0.14974332 0.06719735
000040 7e 88 14 3e 5b b3 d8 bb be e3 42 bd b5 64 b3 be
       0.14505193 -0.0066131777 -0.047580473 -0.3503777
000050 be 3b a9 3d 4a a9 05 3e 76 6a 3e bd 32 2e 9e 3e
       0.08263348 0.1305286 -0.046488248 0.3089462
000060 ab 99 e6 3d fa be 31 3d f5 af 18 3e c5 d6 70 bd
       0.112597786 0.04339502 0.14910872 -0.05879857
000070 3d e9 7d be 21 cc ae bd 7f b9 1b be 21 ab 60 3e
       -0.24796005 -0.08535028 -0.1520748 0.2194028
000080 90 d1 c8 3c d5 47 c7 bd ee c5 11 bd e2 cb a3 bd
       0.02451399 -0.09730498 -0.03558915 -0.07997872
000090 b9 f4 3a bd 6b b0 94 3c 2c 2d 21 3e 03 1d 9c 3d
       -0.045643542 0.018150529 0.15739888 0.07622721
0000a0 e9 20 41 bd af ab aa bd 69 fc 54 bd 93 67 39 be
       -0.047150526 -0.08333527 -0.05199853 -0.18105917
0000b0 4f f8 3a be 6e 49 18 be 10 00 2f bd 2b 2b 17 3d
       -0.18258785 -0.14871761 -0.04272467 0.036906403
0000c0 aa 71 49 be b0 71 9b bd 46 65 8a 3e 3c 1f 74 3e
       -0.19672266 -0.075900435 0.2703039 0.2384004
0000d0 96 ee 2b 3e ad 78 38 be b6 af 0a 3e fc 8a 8a be
       0.16790232 -0.18014784 0.13543591 -0.27059162
0000e0 b8 1f 30 3e f2 e4 76 be 4d e8 90 bd 48 6a 07 be
       0.171996 -0.24110773 -0.07075558 -0.13224137
0000f0 86 98 95 bc fa c0 14 3e f6 4a 02 be 22 17 84 bc
       -0.018261205 0.1452674 -0.12723908 -0.016124312
000100 32 5e ec 3d 34 78 47 bd b4 a2 d1 be c0 c5 66 bc
       0.11541404 -0.04869862 -0.40944445 -0.014085233
000110 0d 3e d9 3d 2d 4f 14 3e 93 c0 34 be 9c 26 12 3e
       0.10607538 0.14483328 -0.17651586 0.14272541
000120 c8 e6 09 3d c2 fd 01 3d 30 aa a3 3d be ca 5d 3e
       0.033667356 0.031736143 0.07991445 0.21659371
000130 ce 3d cd bc b7 80 eb 3d bd 49 4b 3d 18 06 8b bd
       -0.025053885 0.1149916 0.04963087 -0.06788272
000140 58 9a eb bd 06 fd 8e 3e fc c6 8d be 04 78 bb be
       -0.11504048 0.27927417 -0.27690876 -0.36615002
000150 00 8a eb 3c 13 30 87 3d 9e 29 30 3d 10 20 e9 bd
       0.028752327 0.06600966 0.04300844 -0.113830686
000160 68 4c 57 3e 9a e6 8b 3d 73 57 0d 3e 3b fb 37 bd
       0.2102524 0.06831093 0.1380289 -0.044917326
000170 63 d0 28 3d 46 6a 8e 3d 4b 2a 35 be d9 4d 42 bc
       0.041214358 0.06953864 -0.17691915 -0.011859381
000180 b4 ea b2 3d 62 38 aa 3d be 15 aa 3d 91 01 a5 bd
       0.08736172 0.083115354 0.08304928 -0.080569394
000190 11 36 15 3e 7f 9e 76 3e 76 b8 50 be 5a 9f 55 be
       0.14571406 0.24083899 -0.20382866 -0.20861569
0001a0 17 3d 31 be 9b f5 03 bd c3 f9 bd 3c 08 1f 42 be
       -0.1730846 -0.03221665 0.023190385 -0.1895715
0001b0 f3 a6 b6 3e a2 31 54 3d 00 8a a6 bc fc 9a b1 3e
       0.35674247 0.051805146 -0.020329475 0.34688556
0001c0 94 ff a6 be 6b 73 62 be 89 36 a3 be f0 5b f3 bf
       -0.32616866 -0.22114341 -0.31877545 -1.9012432
0001d0 59 0f e2 3c f6 6f 1c 3d 5b 9d 50 3d cc f2 9e 3d
       0.027595209 0.03819271 0.050931316 0.077611536
0001e0 18 59 73 3d b0 b3 7a bc 22 44 b7 bc fc b3 a9 bc
       0.05941114 -0.01530163 -0.022371355 -0.020715706
0001f0 20 9f a6 bc b4 47 e7 bc 3c 19 ba bd 63 b4 dd bc
       -0.020339549 -0.028232433 -0.09086844 -0.027063554
000200 24 91 ef bc ff fd 1b bc fc e9 f4 3d d5 1b 9c 3c
       -0.029244013 -0.009521007 0.119586915 0.01905624
000210 70 62 8e 3c af a6 ba 3c 5a 43 12 3d 8d d7 9c 3c
       0.017380923 0.022784559 0.035708763 0.019145751
000220 f0 64 30 3c b8 35 b3 3d f1 c7 88 3d f8 fc 02 3e
       0.010766253 0.087504804 0.06678761 0.12791812
000230 67 bc f9 3d 72 d1 95 3d a5 d5 b6 3d 17 d1 84 3d
       0.12194138 0.07315339 0.08927468 0.06485193
000240 96 71 37 3d 34 10 8b bd a8 91 6e bb 1a 03 6a 3b
       0.04478606 -0.067902 -0.0036402736 0.0035707415
000250 42 24 89 bd 1e f5 35 be 70 42 4c bd d6 93 90 be
       -0.06696369 -0.17769286 -0.049868047 -0.2823779
000260 86 31 37 be ef 07 2c 3e 71 97 04 3e 94 ad 32 be
       -0.17889985 0.16799901 0.12948395 -0.17449027
000270 de 4c ce bd aa 5a 13 bf b6 b0 a8 bc 2c e0 e0 bd
       -0.10073255 -0.5756022 -0.020592075 -0.109802574
000280 4a 76 ca bd 86 e2 9d 3d 83 1d b9 bc 53 48 90 be
       -0.09885843 0.077092215 -0.02259708 -0.2818018
000290 6e e9 b2 bc a1 92 37 3e 2b bb 77 be 27 07 98 3d
       -0.021839824 0.17927028 -0.24192493 0.07423239
0002a0 21 ff 90 be 87 88 26 bd a6 1a 4c 3e 89 08 be 3d
       -0.28319648 -0.040657546 0.1993204 0.09278972
0002b0 06 8e 03 3d 23 22 8e bc 67 4e 0c be cd 32 87 3e
       0.032117866 -0.017350262 -0.13701783 0.26405945
0002c0 82 9f 61 be 48 c7 00 bf 81 43 29 3e d0 ae 39 be
       -0.22033504 -0.5030408 0.16529657 -0.18133092
0002d0 ef d9 6d 3d 12 a6 02 be 2a c4 10 bc 8b c0 37 3e
       0.058069166 -0.12758663 -0.008835832 0.17944543
0002e0 3d 70 2c 3d 39 ca b5 3d 38 e8 97 bd 03 32 1a be
       0.042099226 0.088764615 -0.07417339 -0.1505814
0002f0 b1 b4 7c be cf ae 7b 3c 3b 4f b5 3d 7c d6 ee 3d
       -0.24678303 0.015361502 0.08853003 0.116620034
000300 5d a1 a0 bd db 46 f9 be 3f 1a 88 bf e7 de 01 be
       -0.078432776 -0.4868687 -1.063301 -0.12682687
000310 cb 01 5d be e9 f5 2b 3d 24 7f c6 bd 5d e1 97 3d
       -0.21582715 0.041982565 -0.09692219 0.074160315
000320 95 98 7a bc 6d 51 df bc b0 bd 4c be d3 63 08 3c
       -0.015295167 -0.027260507 -0.19994235 0.008324581
000330 6c e9 d8 bd 1a e5 ea 3d 70 bd b2 bd 99 33 14 3d
       -0.10591397 0.11469479 -0.087275386 0.03618202
000340 b1 f7 e4 3c e0 ef 03 bc 5c eb 9a bd c9 22 29 3c
       0.02795014 -0.008052796 -0.075644225 0.010323235
000350 fe de 11 3d 74 67 2d be e4 76 57 3c e9 21 b8 3c
       0.035613053 -0.16933995 0.013150904 0.022477107
000360 31 5a 88 be 9d b9 1b bd 5b 1f 7f be ff c9 7e bd
       -0.2663131 -0.03801881 -0.24914305 -0.062204357
000370 87 ce 07 3d 45 24 c6 3d 3c 24 4b 3c f6 13 32 3d
       0.033155944 0.096748866 0.012398776 0.043476067
000380 97 15 90 3b c5 de 64 3c 33 1c 4c bd 9e 0f fc bc
       0.004397105 0.013969128 -0.04983158 -0.030769166
000390 f5 fe cc bc 08 34 96 bb ee e0 a8 3d df 4a b1 3d
       -0.025023917 -0.0045838393 0.08246027 0.08656859
0003a0 a9 bd 68 3d bc 83 9e 3d 27 62 ae 3d 28 c5 c1 3d
       0.0568215 0.0773997 0.08514815 0.09461433
0003b0 58 6c 30 3d 35 7a 20 bd 98 74 70 bc ab 53 e7 3c
       0.043072075 -0.039179046 -0.014676236 0.028238138
0003c0 b7 24 64 3d 35 25 86 3d ef 2b 92 bc ef fd 33 3c
       0.055699077 0.065500654 -0.017843215 0.010985835
0003d0 5f e7 57 3c da cb 47 3d a6 3d 00 3d 8e a7 ad bd
       0.013177722 0.048778392 0.031308793 -0.08479224
0003e0 f6 e5 aa bb 6f 66 19 3b a6 bd 22 bc 3f cd ae 3d
       -0.0052154018 0.0023407002 -0.009932911 0.08535241
0003f0 1b fa 84 3e 96 6b c8 be 81 c3 b2 be 26 42 e3 be
       0.25972065 -0.39144582 -0.34914783 -0.44386405

model.0.bias f4 [128]
000000 31 9a 54 bc a6 e7 5e bc 35 18 e7 bd ed f3 f9 ba
       -0.012976215 -0.013605034 -0.11283914 -0.0019069888
000010 38 7a 95 3c f2 0c 0f be d5 44 19 3e 99 31 34 3e
       0.018246755 -0.13969782 0.14967664 0.17597045
000020 91 a1 18 be cf 44 d0 3c b5 53 d1 bd 69 7a 33 bd
       -0.14905383 0.025423435 -0.10221044 -0.04381791
000030 fa 0e 4e bc d4 9a 81 bc aa 76 84 bd 6e 9f 52 3d
       -0.012576813 -0.015820898 -0.06467946 0.051421575
000040 9f 0c 57 3d 71 ea 9e bc 3d f5 8d 3c d0 b8 0a bd
       0.05250227 -0.0193989 0.017328853 -0.033867657
000050 95 50 bd bd 4e e8 0e 3e f4 38 24 3e de ca b5 bc
       -0.092438854 0.13955805 0.16037351 -0.022191461
000060 30 e8 c3 3b 56 d8 17 3e d6 8e 1a 3e f6 a0 a9 bd
       0.0059786066 0.1482862 0.1509355 -0.08282654
000070 56 e3 8d bd 2b c0 c2 bd e8 33 eb 3d da 42 43 3e
       -0.069281265 -0.095093094 0.1148451 0.1906847
000080 a7 04 7f bd eb cf d4 3d bb 00 ae 3b 08 32 41 be
       -0.062260296 0.1039122 0.0053101457 -0.18866742
000090 41 47 d4 3d 81 5a bf 3d 8e c9 58 3d 9f ba d6 3c
       0.10365153 0.09343434 0.052926593 0.026212035
0000a0 e9 19 0e 3d a5 b7 12 3e 95 5a 37 3e 95 ad c3 3c
       0.03469268 0.14327867 0.17905648 0.023886481
0000b0 bf 60 bb 3d 31 0f 08 bd f1 f4 4f 3d 55 90 85 bd
       0.09149312 -0.033217613 0.050770704 -0.0652167
0000c0 c2 9d 0c be c8 15 b5 3d 32 11 62 3d db b9 06 3d
       -0.13732055 0.08842045 0.05519218 0.03289209
0000d0 7c d4 8b 3d fb 09 27 3d 39 e1 50 3d e5 c3 24 3d
       0.068276376 0.040781002 0.05099604 0.040225882
0000e0 f5 00 7e bd 7b f3 56 3d aa 86 cf 3c 1e dc 0c bd
       -0.06201263 0.052478295 0.025332768 -0.034389608
0000f0 d4 d8 15 be b1 e9 86 3d 38 a5 07 3e 8f 6d d7 bd
       -0.14633495 0.06587542 0.1324662 -0.105189435
000100 38 a4 24 3e 9e 44 81 bb 37 c0 d7 3c c2 b8 a9 bd
       0.1607827 -0.0039449474 0.026336772 -0.08287193
000110 e1 e0 51 be 72 4d d3 bd 95 aa 58 bc bd d8 99 bc
       -0.2049594 -0.10317506 -0.013224264 -0.018780107
000120 91 be c9 3d 78 d9 b1 bd 85 11 c3 bd a4 5e 2a bc
       0.09850801 -0.08684057 -0.09524826 -0.010398541
000130 9b 13 50 3e 7e eb bd bd 35 a0 0a 3e 24 34 54 3d
       0.20319979 -0.09273432 0.13537677 0.051807538
000140 c8 8b 57 bd 4f bb 91 3d 0f ae 8c 3d aa 7c cd bd
       -0.05262354 0.071158044 0.068691365 -0.100335434
000150 54 9d 7b 3b 9e 36 05 3e 93 12 b0 3d c1 24 92 bd
       0.0038393335 0.13009116 0.08597293 -0.071359165
000160 e6 d9 01 3d 95 73 ea 3d 2d 88 eb 3d 05 65 52 3d
       0.031701945 0.11447827 0.11500583 0.05136587
000170 9d 2a d5 bd b4 2d ec bd 8f b4 20 bd 18 2e eb 3d
       -0.104085185 -0.11532155 -0.039234694 0.11483401
000180 0b d7 cf ba 5f 1d 0d be b3 c8 ff bc 3c 37 ce 3d
       -0.0015856934 -0.13780735 -0.03122363 0.10069129
000190 95 0e 0e be 80 ed 61 be f7 66 9d 3d 90 0a 1e 3e
       -0.1387275 -0.22063255 0.076856546 0.15433717
0001a0 db ee 35 be d0 34 08 be b7 05 be bd 36 42 35 3e
       -0.17766897 -0.13301396 -0.09278434 0.17701039
0001b0 49 33 a0 bd fe 4c 92 3d 39 a6 f8 3d a6 9a 5b bd
       -0.07822282 0.07143591 0.121410795 -0.05361428
0001c0 ae 03 79 bd 8f 63 a4 bd 08 22 00 3d f0 85 2c 3e
       -0.060794525 -0.08026802 0.031282455 0.16847968
0001d0 5f 56 cf 3d 34 2b 1a 3e 18 cb 9b bc b2 4e 74 bd
       0.10123896 0.15055543 -0.019017741 -0.059645362
0001e0 24 f8 b5 bb 83 4d 9b 3d 14 b4 77 bb af aa ed bd
       -0.0055532623 0.075831436 -0.0037796544 -0.11604821
0001f0 03 88 1d bd 6f bb 39 bc 7a 08 3d 3e ab 34 f9 bc
       -0.03845979 -0.011336192 0.18460265 -0.030420622

model.2.weight f4 [128, 128]
000000 01 a9 50 bd 3b 6d 00 bd 4d 09 53 be b6 ea 56 3d
       -0.050942425 -0.03135417 -0.20609017 0.05246993
000010 04 d8 b8 3d d7 01 c1 3b b6 6c 16 be 61 64 95 3c
       0.09025577 0.005890112 -0.14689907 0.018236341
000020 2d c1 c2 3d ca 3d 3a 3e 67 d6 bb 3d 32 2e 73 3d
       0.095095016 0.18187633 0.091717534 0.059370227
000030 e6 2b 3f 3d 80 ad 5a 3c 30 a9 cb bd d5 d8 ba bd
       0.046672724 0.01334703 -0.09944379 -0.09123389
000040 1a db c6 3d 42 71 ce bd 93 b9 0a be d4 4d ce be
       0.09709759 -0.10080196 -0.13547353 -0.40293753
000050 17 9f cf bc ae e5 c1 be 91 c7 8a 3d fd 51 9b bd
       -0.025344415 -0.37870544 0.067763455 -0.075839974
000060 66 0f ab bd f4 1d 00 3e d5 2b 41 be 37 7e bc 3d
       -0.083525464 0.12511426 -0.18864377 0.09203761
000070 95 06 f5 bd 9d 70 87 3d f2 78 ee bb 73 70 1c 3e
       -0.11964146 0.06613276 -0.0072776014 0.15277271
000080 55 47 35 3c 08 aa 1b bd db f5 02 bb ff c1 62 be
       0.01106437 -0.03800395 -0.0019982967 -0.22144316
000090 fe 05 40 3d 34 ac 45 be f5 50 ca bc 60 d2 d0 bd
       0.046880715 -0.19303972 -0.024696806 -0.10196376
0000a0 ef b9 1c be 26 cd b9 bd f7 82 be bd 45 e8 ac 3d
       -0.15305303 -0.09072332 -0.09302323 0.084427394
0000b0 24 0f 79 bc b0 59 b9 bb b5 d8 ae bc 1e a7 13 be
       -0.015201364 -0.0056564435 -0.021343568 -0.14419219
0000c0 3a bd 3c 3d fe f0 2e be 4e 1e 92 bd 00 49 54 bd
       0.046078898 -0.17084119 -0.071346864 -0.05182743
0000d0 ca 1b b6 bc 39 8c 16 bc 09 e1 c8 3d 4a eb 5f 3a
       -0.022230048 -0.009188705 0.09808547 0.00085418357
0000e0 4a 82 e1 bd a0 1a eb bd 04 86 83 3d b2 97 9f 3d
       -0.11011179 -0.11479688 0.06422046 0.077926055
0000f0 3d 6b 95 3c 06 e2 29 3d 42 9e 51 bc a7 a4 6b be
       0.018239612 0.04147532 -0.012794079 -0.23012029
000100 29 c9 24 3d a6 23 d4 3d bd cc 6d 3e 21 74 8e bd
       0.040230904 0.10358362 0.23222633 -0.069557436
000110 18 5e 7d 3e 90 08 5a bd 42 be f7 3d 70 52 61 3e
       0.24742925 -0.053230822 0.12096836 0.22004104
000120 f7 1f 6b 3c 67 ea 4f be 7c ff 2b bd 63 2f b0 3c
       0.014350883 -0.20304261 -0.041991696 0.02150697
000130 f8 04 7d bd d7 63 47 bd b4 ad 9a 3d 55 a1 6f bc
       -0.061772317 -0.0486792 0.075526625 -0.014625867
000140 81 d9 d6 3c 61 68 0d 3d f9 75 e0 3d e9 3c b1 3d
       0.02622676 0.03452337 0.109600015 0.08654196
000150 af 31 4c bc 9d 11 39 bc d0 94 12 3e 2a 4d 8a 3d
       -0.012463017 -0.011295703 0.1431458 0.06752999
000160 c5 46 4f be 95 d1 c0 3d 86 d7 65 bd e1 27 9a be
       -0.2024184 0.094149746 -0.056113742 -0.3010855
000170 e3 a4 9d bc b5 b3 7b be b2 24 2b be ef 11 cf bd
       -0.019243663 -0.24580272 -0.16713217 -0.101108424
000180 f2 21 4e 3d 85 8e ea 3d 6d a8 1a bf 78 d6 86 be
       0.05032534 0.11452965 -0.6041325 -0.26335502
000190 91 5f 37 3d b9 20 7c be 55 9d cb bd 72 85 c3 3c
       0.044768874 -0.24621858 -0.09942118 0.023867343
0001a0 22 3b 19 3e d7 02 a9 bd 1b d4 63 3d 0e cf 46 bc
       0.14963964 -0.08252495 0.0556222 -0.012134327
0001b0 a6 9f 09 3e de 41 ec bd 45 e7 64 3d 2c a3 50 bd
       0.13439807 -0.11536001 0.05588462 -0.050936863
0001c0 25 3e 08 bd 56 50 af 3d dc 9f 45 be e8 42 8a bc
       -0.03326239 0.08560245 -0.19299263 -0.016877607
0001d0 11 12 02 3e 92 57 3d 3d a0 fc ae bb 68 c7 73 bc
       0.12702204 0.04622609 -0.005340174 -0.014879085
0001e0 19 45 df 3d 1e c1 0b be 62 8a f2 3d 62 c0 ea bd
       0.10901851 -0.13647887 0.11842801 -0.11462475
0001f0 b8 2c 20 b9 73 d1 c4 bd 9b 89 a4 be d1 41 0b be
       -0.00015275448 -0.09610262 -0.32136235 -0.13599326
000200 28 1d 14 3c 42 43 74 bc 0e c3 93 3d 42 df a8 be
       0.0090401545 -0.014908614 0.07214938 -0.32982832
000210 83 cb 91 bc 4b a8 84 bd a6 2b 96 be 99 38 09 be
       -0.017797237 -0.06477412 -0.29330176 -0.13400497
000220 99 57 d5 3d b5 e3 97 bd 9b 6b 95 bc 44 d4 2e be
       0.104170986 -0.074164785 -0.018239787 -0.1707316
000230 89 4e 53 bd 81 53 d2 3c 45 a0 34 3d ee a5 84 bd
       -0.05158857 0.025674583 0.044098157 -0.06476961
000240 40 79 5b bd 2d f6 6f 3d f0 99 33 3d bc 79 1c 3e
       -0.05358243 0.05858438 0.043847978 0.15280813
000250 9f 69 9f bc 3f c3 99 bc ea 29 12 3d eb 46 ad bd
       -0.019459544 -0.018769858 0.035684504 -0.08460792
000260 15 d9 01 be 4c 05 80 3d 73 e2 af 3d 51 b2 8f bd
       -0.12680466 0.0625101 0.08588114 -0.07016433
000270 2d 95 07 3e d9 23 e8 bd bb 85 cf bd b2 52 98 bd
       0.132405 -0.113349624 -0.10132929 -0.07437648
000280 7b bd 3c bd 25 f9 06 be 10 9d 65 bc 52 de bf bc
       -0.04607914 -0.13180979 -0.014014497 -0.02342144
000290 95 59 49 3e 41 73 c4 bd e2 af 05 be fd eb ce 3d
       0.19663079 -0.095922954 -0.13055375 0.10103605
0002a0 4a 21 eb 3a 7f 60 86 bd 94 13 bc bd 75 d7 a6 bd
       0.0017938998 -0.06561374 -0.09183422 -0.08146564
0002b0 74 0a 9a 3c ca 91 b5 bd f5 3d f1 bd b3 9b 23 3c
       0.018803813 -0.08865698 -0.117793955 0.009985852
0002c0 65 32 6c bc 84 ab a5 bd 43 b8 0a 3e a7 e1 76 3c
       -0.014416312 -0.08089355 0.13546853 0.015068448
0002d0 72 8c 46 3d 44 55 b5 3d f1 99 26 3e 93 11 42 bc
       0.048473783 0.08854154 0.16269661 -0.01184501
0002e0 3c 15 63 3d 37 14 ad bd b1 0e 47 be 46 65 65 3e
       0.055440173 -0.08451121 -0.19439198 0.22401914
0002f0 bd ce 96 bd 39 77 93 bb 09 89 2e bd ff bc 4d 3e
       -0.07363651 -0.0045002964 -0.042611156 0.20091628
000300 53 ea 14 3d 92 f7 01 3e 85 80 a2 3d ef da 33 3e
       0.03635628 0.12692097 0.079346694 0.17563985
000310 1d 05 1b 3e e6 54 c1 3d 15 17 03 bd 84 30 37 be
       0.1513867 0.09440021 -0.032004435 -0.17889601
000320 a0 14 d4 3c e8 bf ba ba 64 ca 91 3d e5 b4 fb bd
       0.025888741 -0.0014247866 0.07118681 -0.12290362
000330 5d b2 2d 3c 60 97 3b bd 6d b8 aa bd 6c cc 20 3e
       0.010601607 -0.04579866 -0.08335958 0.15702981
000340 92 6e be bc 21 13 48 3d e5 b5 20 bb 7a 53 b8 bd
       -0.023246083 0.048846368 -0.002452248 -0.09000297
000350 28 63 0f bb 89 df 8a bb 7e b4 5f bb 88 4c 42 3c
       -0.002187917 -0.0042380732 -0.0034134681 0.011859067
000360 3a 74 aa bc 1c 95 6b 3d 14 1c 44 3e 6b 5b 9d bd
       -0.020807374 0.05751525 0.19151336 -0.07683452
000370 5d c6 e0 3b d8 03 f9 bd 57 5a 38 3d 71 71 9b be
       0.0068595842 -0.12158936 0.04500803 -0.30359986
000380 a5 33 9f bd dd e6 12 bd 39 4a 88 bc b7 eb e2 3c
       -0.07773522 -0.0358647 -0.016636955 0.027700288
000390 84 be 49 3e 95 d3 d8 3d 8b 61 50 3d 91 ee 53 bb
       0.19701582 0.10587231 0.050874274 -0.0032338242
0003a0 7e 06 9f bc ba cb 98 3c a3 62 bb 3d e8 90 8b bc
       -0.019412275 0.018651832 0.09149673 -0.01703687
0003b0 e3 e1 d5 3c 2b c0 06 3e 8c e3 0b bd 6a c1 9c bd
       0.026108688 0.13159244 -0.034152552 -0.07654078
0003c0 b2 6d a7 bc c0 45 2f 3d 31 5f 3f bc a9 61 2d bc
       -0.020438049 0.04279113 -0.01168041 -0.010582366
0003d0 92 d1 87 bd 19 43 f7 bb 46 28 69 3a 5e ed 92 bd
       -0.06631769 -0.0075458405 0.0008894246 -0.071741804
0003e0 a8 06 4c ba c3 bc c5 bd 29 22 4c 3d 2e e3 98 bd
       -0.0007782974 -0.09655144 0.049837265 -0.07465206
0003f0 04 05 3a bc 92 bb 12 bd b7 c5 82 bd 4d b9 de bc
       -0.011353735 -0.035823412 -0.06385367 -0.027187968

model.2.bias f4 [128]
000000 54 b1 a5 3d 3d fd 1f 3c 3e 9a 3e bd 63 91 c0 3d
       0.08090463 0.009764967 -0.046533816 0.0940273
000010 e0 b9 f7 bd 20 ed 3c 3d 23 5f 62 3d d4 c4 bb bc
       -0.12096 0.046124578 0.05526651 -0.022921003
000020 5e 5d a2 bc 04 cd 81 3d c9 4f 00 3e 44 fa 82 3d
       -0.019819912 0.06337932 0.12530436 0.06395391
000030 23 d9 92 bd 91 57 cf 3c 68 32 c5 3d 92 64 27 bc
       -0.07170322 0.02531031 0.09628755 -0.010216849
000040 6a a7 85 bd 8e fe 01 3a e7 e5 ac bd a6 51 9a bd
       -0.06526072 0.0004958891 -0.08442288 -0.075351045
000050 54 42 a9 bd b0 68 8c bb 45 77 9a bc dc 37 1a 3d
       -0.08264604 -0.0042849407 -0.0188557 0.037650928
000060 2c 7d 8f bc da 30 0d bc b0 5c 86 bd 06 0f 4e 3d
       -0.017515741 -0.008617604 -0.065606475 0.050307296
000070 af 1b 81 3c 6f e3 bd 3d fa 84 a2 bd de 0d 18 3d
       0.01576027 0.09271895 -0.079355195 0.0371226
000080 4a a0 48 3d 5e b5 f6 3c b1 36 d9 3c 68 ec 77 3c
       0.04898099 0.03011578 0.026515337 0.015132047
000090 2e 36 b1 3c 10 a0 8a 3d 00 f1 3c bb 6f 34 2b bc
       0.02163228 0.06768811 -0.002883017 -0.010449513
0000a0 73 d7 9f bd de cc c3 3d 6e 14 dc 3d 7e a4 0a 3c
       -0.078047656 0.0956056 0.10746084 0.00846207
0000b0 6c d5 ae bd a4 06 07 3e 0a 19 9d bd 06 f2 ac 3d
       -0.08536801 0.13186127 -0.076707914 0.084446
0000c0 ad e9 12 3d 6b 4f f6 bd db 52 aa 3d 9f 8c ac bd
       0.03586738 -0.120268665 0.08316585 -0.08425259
0000d0 ee eb 4a bd d6 10 f2 bc 7b 6e 0d bd db 46 61 3d
       -0.049541406 -0.029549044 -0.03452919 0.054999214
0000e0 0e bf 89 bb c2 b2 98 3d 2b 20 54 3d d6 7b c3 3c
       -0.0042036837 0.0745597 0.05178849 0.02386276
0000f0 12 55 65 bc ca 0f a0 bc 83 ca 4e bc c5 85 92 bd
       -0.013997333 -0.019538779 -0.012621525 -0.07154421
000100 6a d2 83 3d f3 8e 24 bd f4 1c 1c 3b d8 78 2b 3c
       0.06436618 -0.04017539 0.0023820968 0.010465823
000110 f1 f0 c8 3d dd 23 e9 3c 88 58 3e 3d d3 f0 54 bd
       0.09811581 0.028459484 0.04647115 -0.05198748
000120 8e db f2 bd 16 fd 71 3d 3c 98 15 3d 03 a4 45 3d
       -0.11858283 0.059079252 0.036522135 0.048252117
000130 c1 9e d9 3d 5c 19 ad 3b 40 70 bf bd 61 18 9b bd
       0.10625983 0.005282564 -0.09347582 -0.07573009
000140 3d e0 8e bd c5 33 66 bd 89 e5 36 3d 30 3a 85 bd
       -0.06976364 -0.056201715 0.044652496 -0.06505239
000150 18 53 43 bc b9 7c b7 bd 3d 03 6e bd 7d a8 70 bd
       -0.011921667 -0.08959336 -0.058108557 -0.058754433
000160 57 f0 02 3d ff e3 c3 3d 60 34 a0 bd 35 8d 10 3d
       0.031967487 0.09564971 -0.0782249 0.035290916
000170 44 2c ad bd c2 57 4f bd 54 60 2e bd c0 93 8a bd
       -0.084557086 -0.0506208 -0.042572334 -0.06766462
000180 dd af 37 3d 5d 65 05 bd 99 fe 2d bd dc e7 29 bb
       0.04484545 -0.03256737 -0.04247913 -0.0025925552
000190 f3 8c 96 bd 18 4c 62 3d 95 46 22 bd be 52 86 bd
       -0.07351103 0.05524835 -0.039618094 -0.065587506
0001a0 1d 22 a1 bb 9a 99 27 3d e8 a7 67 bb 6d da 97 3c
       -0.0049173967 0.04091797 -0.0035347883 0.01853677
0001b0 ee 48 95 bb 3d fe 96 bd ed 99 b6 3c 2c a3 01 3c
       -0.004555813 -0.07372711 0.022290194 0.007912438
0001c0 f5 70 de bc 49 33 22 3d 44 75 91 3b 9f 89 97 3c
       -0.027153471 0.03959969 0.004439028 0.01849824
0001d0 1f 00 68 3d bc 14 13 bd 69 17 17 3d e6 e3 8a 3d
       0.05664074 -0.035908446 0.03688756 0.067817494
0001e0 14 ad 0e 3c df 7b 6d bc 90 c7 fa 3c 49 fe bf bc
       0.008708257 -0.014494865 0.030612737 -0.023436682
0001f0 51 ba da bd ec 2f 61 bd fa ec a9 3d a6 1b 4b bd
       -0.10680068 -0.054977342 0.08297153 -0.049586914

model.4.weight f4 [128, 128]
000000 ba ca df 3d cd 28 0b bf c6 5d e2 bd 20 bf dd 3d
       0.10927339 -0.5435913 -0.11053042 0.1082747
000010 ed 20 63 3d 5d 68 84 3e 8c 56 9f bc d7 f8 47 3e
       0.055451322 0.25860873 -0.019450448 0.19528519
000020 53 3d 4e 3e 12 d7 d9 3d 32 e4 35 3d b2 71 99 3d
       0.20140581 0.106367245 0.044407077 0.07492389
000030 54 4e 05 be c2 8c a0 bd 34 55 db be 4d e5 58 3d
       -0.13018161 -0.078393474 -0.42838442 0.052953053
000040 e1 fc 53 be a9 28 39 3e 6b 59 97 be 2f 20 b3 bd
       -0.20701934 0.18081917 -0.29560408 -0.08746373
000050 fc b3 be 3d 68 36 4e 3e 8e 69 02 3e c1 8b 3d 3e
       0.09311673 0.20137942 0.12735578 0.18510343
000060 ca db 80 3d 1e 20 73 bc 30 ae c4 be 32 85 c1 bd
       0.062919214 -0.0148392 -0.38414145 -0.09449233
000070 e2 15 57 3d 67 3b e0 3d 77 69 16 be 1c 08 8d bd
       0.052511103 0.1094883 -0.14688669 -0.06886312
000080 16 04 1d be 66 90 2e be a2 f4 88 be 54 5f 68 bd
       -0.1533359 -0.17047271 -0.2674914 -0.056731537
000090 db 05 91 3d 79 56 ef be 65 53 9d be 85 88 44 3e
       0.07081195 -0.4674566 -0.30727687 0.19192703
0000a0 b5 88 fb 3c 74 04 40 3d 2a 7f fe 3d 85 39 b9 3d
       0.030704835 0.046879247 0.12426598 0.09044174
0000b0 be 11 ce 3d dc 17 92 3d 24 cd 0c bd dc 27 3d 3d
       0.10061978 0.07133457 -0.034375325 0.04618059
0000c0 a7 4d a5 3d c6 63 9a bc 37 05 2f 3d b2 41 b5 be
       0.08071452 -0.018846404 0.042729583 -0.35401684
0000d0 96 e9 0c be 74 26 12 bf 75 be e1 be 0e 07 d7 3d
       -0.13760981 -0.57089925 -0.4409062 0.104993924
0000e0 4e de a3 3d 49 b9 27 3d d3 98 df bd 75 b4 90 bd
       0.08001386 0.040948186 -0.10917821 -0.070656694
0000f0 0a 49 28 bd 3c 2f 83 3d 8c c4 81 3d 7c 46 6e 3c
       -0.04108528 0.064054936 0.063363165 0.014543172
000100 85 17 50 3e f8 a3 18 3d 3d af 83 bd f5 0c 33 be
       0.20321472 0.037265748 -0.064299084 -0.17485411
000110 a0 58 b3 3c 15 f5 13 be f0 a6 dd 3d e2 f6 1f bd
       0.021892846 -0.1444896 0.108228564 -0.039053805
000120 82 90 c2 be 06 79 94 3d 4f cd 3a bd 51 72 9f bd
       -0.38000876 0.07249646 -0.045605954 -0.07785476
000130 d7 a9 8f bd b5 72 0f be 77 3d 5f 3d ef 4b b8 bc
       -0.07014816 -0.14008601 0.054501977 -0.022497145
000140 17 88 a4 3d 80 6d 84 bc 23 c4 08 be b5 1c 92 3c
       0.080337696 -0.016165495 -0.1335607 0.017835954
000150 62 50 0f 3e 41 44 a3 3d f0 2d 55 bd 87 cd 0a be
       0.13995507 0.07972003 -0.052045763 -0.13554965
000160 12 0c 1b 3e 3b 44 b3 3d 55 31 06 bd 0f 25 4e be
       0.15141323 0.08753248 -0.03276189 -0.20131324
000170 4d 5d de bd 0e 97 1e 3e 6b 98 5c bc 99 0e 1c bd
       -0.108576395 0.1548731 -0.013464074 -0.03809986
000180 4c df a2 3d 09 cf 55 be 77 29 40 3d e7 23 04 be
       0.07952747 -0.20879759 0.046914544 -0.1290432
000190 e8 ff cb 3a 91 c2 99 bc 36 57 87 be 27 3c 8a 3c
       0.0015563937 -0.018769534 -0.26433724 0.016874386
0001a0 c4 2a c8 3c 18 b5 cb bd 6d ca 53 3d ba 76 33 3d
       0.024434455 -0.0994665 0.05170672 0.0438144
0001b0 3b 0e 56 bb b6 13 64 3d 43 32 75 bd 6f d6 af bd
       -0.003266229 0.05568286 -0.059862386 -0.08585822
0001c0 b9 c8 21 bd 6e 42 a3 bd f8 f3 ad bc 73 f8 07 bd
       -0.039498065 -0.07971655 -0.021234497 -0.033195924
0001d0 2a e9 17 be 95 7c 24 be 57 ef 2f bd 74 57 f2 bb
       -0.14835039 -0.1606315 -0.04295286 -0.007395679
0001e0 08 80 91 be 27 3f 2e bd ad 1c 65 be 46 97 a4 bd
       -0.28417993 -0.042540696 -0.2237422 -0.080366656
0001f0 50 1b b9 3d c9 59 f3 bc 58 ad 28 3d d2 b7 b6 3d
       0.090384126 -0.029705899 0.04118094 0.0892178
000200 d5 68 15 bc b1 42 7f bc c9 ba 47 3d ce bd 97 bc
       -0.009119232 -0.015579865 0.048762117 -0.018523123
000210 2d 0c 2e 3e 53 31 22 be 62 b0 a8 bd f6 02 d1 3d
       0.16996832 -0.15839128 -0.08236767 0.10205643
000220 22 3f bf 3c 9f e7 c9 3d 78 07 2e be aa e5 7a bd
       0.023345534 0.09858631 -0.16995037 -0.06125418
000230 05 39 0f be 85 4c 5a 3d 00 75 d4 bd 83 e6 fc 3d
       -0.13986595 0.05329563 -0.103738785 0.12348654
000240 e2 94 82 3c 33 0c ab bd 5b 86 a0 3d 61 6a b1 bd
       0.015940133 -0.08351936 0.07838126 -0.08662868
000250 97 dc 27 be 0f 7a c0 3d 4e 1e 12 be 68 9a 38 3d
       -0.16392742 0.09398281 -0.14269373 0.04506913
000260 b3 3e 1f 3e bb b2 50 bc 36 a0 a4 bc 57 f3 b3 3d
       0.15551262 -0.012737925 -0.020095926 0.08786648
000270 a4 00 22 3e 4a 45 21 3e 03 b1 66 bd 72 c0 f7 3c
       0.15820557 0.15749088 -0.056321155 0.030243132
000280 72 88 b0 bd cc 6b 86 bc eb ba 34 bd 1b b0 73 bc
       -0.08619775 -0.016408823 -0.04412357 -0.01487353
000290 ce ec 74 bc b3 56 04 bc 48 77 2f bd 75 cb ba bb
       -0.014949037 -0.008077311 -0.042838365 -0.0057005235
0002a0 a9 f0 c4 bd e9 f6 81 bc b3 cb e6 bd 29 58 b8 3c
       -0.09616215 -0.015864806 -0.11269321 0.022502976
0002b0 d9 81 19 be 6c 22 db ba b9 99 1c 3e 62 c5 38 bd
       -0.14990939 -0.0016718633 0.15293016 -0.045110114
0002c0 5e db de 3d d6 76 c9 bc 47 01 c0 3d 1f 67 b4 bd
       0.10881685 -0.024592798 0.09375244 -0.08808731
0002d0 eb a8 a0 bc ce 78 dc 3d 52 da 8a bb e7 39 16 3d
       -0.019611796 0.10765229 -0.0042374516 0.036676314
0002e0 5a 85 81 bd 6d c6 ef 3c 45 51 0d bd f8 7d 26 3e
       -0.06324263 0.029269421 -0.034501333 0.16258991
0002f0 e3 3e c0 bd 8a 76 a3 3b 33 66 12 be 5a e2 0c be
       -0.09386995 0.004988496 -0.14296798 -0.13758221
000300 14 8a 5f bc 99 a1 9d bd 6b ce 87 3d 42 d1 13 3e
       -0.01364376 -0.07696838 0.06631168 0.14435294
000310 b5 d9 7f 3d 22 ed 0f 3e fb 0d 8e be cd 51 29 3e
       0.06246348 0.14055303 -0.2774504 0.16535111
000320 74 73 bc 3c f1 c3 03 3d de 19 00 3e a5 da 30 3e
       0.023004271 0.032169286 0.12509868 0.17270906
000330 a3 9e 82 3d 95 44 de 3c 8a 5c c7 3c e9 3b ba 3d
       0.06377914 0.027132312 0.024336118 0.09093458
000340 a0 1a d9 bc 3f 5e c1 bc 94 79 9b bc f3 b4 88 3c
       -0.026501954 -0.02360451 -0.018978871 0.016687846
000350 bb 58 27 3d 85 fd 4d 3b 1e dc 94 3d d8 1d 87 be
       0.040856104 0.0031431627 0.072685465 -0.26389956
000360 c8 b8 21 3e b9 91 7e bc f5 f8 09 be 79 d5 0a 3e
       0.15793145 -0.015537673 -0.13473876 0.13557996
000370 76 6a ba 3d b7 69 11 3e 6c f5 db bd f6 07 2c 3d
       0.09102337 0.14200483 -0.1074017 0.04199978
000380 c2 5f 7c 3b f5 e3 12 3c be 30 de 3d fd f3 86 be
       0.0038509225 0.008965482 0.108491406 -0.26358023
000390 fe f5 0f bd 76 13 d6 3c b3 a6 d0 3d eb 98 08 be
       -0.035146706 0.026132327 0.10188045 -0.13339584
0003a0 0b 80 d7 bd 09 cb eb bd 33 59 4a be 40 f5 99 bb
       -0.10522469 -0.11513335 -0.1976059 -0.0046984255
0003b0 ea 33 13 be 1d 15 1a 3d b6 82 6f 3d e7 7b b7 bd
       -0.14375272 0.03761779 0.058474265 -0.08959179
0003c0 c1 58 c0 be 8b 9c a3 3d ba aa 2f be b3 6d 16 bc
       -0.37567714 0.079888426 -0.17154971 -0.009181428
0003d0 5b 3e c5 bd 10 4a 3a bd d2 dc 73 3d 61 78 22 3d
       -0.09631034 -0.045480788 0.059536763 0.039665584
0003e0 70 a2 bf bd 53 2a bb 3d 80 dc 6e 3d 09 3f d0 bc
       -0.09357154 0.09138932 0.058315754 -0.025420683
0003f0 fa 42 11 bd b7 3e 1c 3e 9c 90 12 ba c3 c2 5d be
       -0.035464264 0.15258299 -0.00055910065 -0.21656327

model.4.bias f4 [128]
000000 36 c3 0d bc 33 6a fd bb 2a 34 be bc b7 18 b9 bb
       -0.008652499 -0.007733607 -0.023218233 -0.005648698
000010 81 66 1b bd 9a e1 0a 3d 91 8b b7 3d c2 51 27 3d
       -0.037939552 0.033906557 0.08962167 0.040849455
000020 c0 63 9d bd f0 1b 5e bd ff 6c 59 bc b5 01 97 3d
       -0.076850414 -0.054225862 -0.013270616 0.073733725
000030 ea 3d 28 3d 0d 67 ce bd 62 91 d3 bb f3 2e af bd
       0.04107467 -0.10078249 -0.00645654 -0.08553877
000040 f4 4e 3a 3d fd 91 57 3d 47 d5 94 3c 75 13 10 3d
       0.04548545 0.05262946 0.018168105 0.035174806
000050 87 25 a8 bd fc aa 54 3d b0 14 a0 bc b1 a4 48 3c
       -0.08210283 0.051920876 -0.019541115 0.012246297
000060 9e bd 5b 3d 02 c6 96 bd a1 a3 53 3b af cd 61 3c
       0.05364763 -0.07361986 0.0032293575 0.013781949
000070 53 25 87 3c 23 75 29 bd 50 8e 82 3d a3 a5 59 bd
       0.01649729 -0.041371476 0.063748 -0.05313648
000080 1e 1a 88 bd 51 07 bf bd 29 ef bb bb 59 75 e8 3b
       -0.066456065 -0.09327567 -0.005735297 0.007094067
000090 c9 1c 4d 3d 59 b9 e3 bb 71 9b 24 bd 52 99 53 bb
       0.05007628 -0.0069495854 -0.040187303 -0.003228743
0000a0 40 13 14 bc 75 42 01 bd af 85 4c bd b3 a6 a1 bd
       -0.009037793 -0.03155752 -0.049932178 -0.078931235
0000b0 67 26 bd bd a7 38 f6 bd 45 b5 ce bc 9e 59 ca 3c
       -0.0923584 -0.12022524 -0.02523292 0.024700936
0000c0 6c 29 59 bd 3f db 82 3d b1 b2 1b 3d 70 34 df 3c
       -0.05301802 0.06389474 0.03801221 0.027246684
0000d0 e4 f0 34 bd 81 db 23 3d f8 6a 18 bd 16 0b 35 3d
       -0.044175044 0.040004257 -0.03721139 0.044200025
0000e0 07 b9 de b7 3c dc ab 3d 8d e9 3d 3d 93 f2 5c 3d
       -2.6550622e-05 0.08391616 0.04636531 0.053942274
0000f0 4c 42 3b bd 96 d5 c7 3c 7f d1 28 3d b3 2e c0 bd
       -0.045717523 0.024393838 0.041215416 -0.09383907
000100 d9 6f 1f bd bf e0 99 3b 8c 69 98 bd 97 f4 09 3c
       -0.038925026 0.0046959813 -0.074420065 0.008420131
000110 83 81 07 bd 90 bd 0a bd cf 6b 60 3d c4 d3 5f 3d
       -0.033082496 -0.033872187 0.054790314 0.054645315
000120 3a ce 17 3d 9f 24 c5 bc 1c a0 40 bc 65 d2 be bd
       0.037061907 -0.024065314 -0.011756923 -0.09317473
000130 7e b6 76 bc 73 40 80 bd 13 d4 6d bd d0 a4 ad bc
       -0.015058158 -0.06262293 -0.058063578 -0.021196753
000140 66 7d 67 3d 55 70 85 bd b8 ee 04 bc 30 ce 4a bd
       0.056516074 -0.06515566 -0.008113556 -0.049513042
000150 60 d7 fe 3c b1 ec 2b bc f8 99 59 3c 7c aa 1a 3d
       0.031108558 -0.010493443 0.013281338 0.037760243
000160 70 ca 2a bd fc 77 b7 bd 42 5f bc bd 31 79 9f bc
       -0.041696966 -0.08958432 -0.091978565 -0.019466968
000170 4d ac 60 3d b8 0d cd bd 4f db bb 3c c3 6f 26 3c
       0.05485182 -0.10012382 0.022931723 0.010158482
000180 8e 61 86 3d 6a d4 a4 3d 7f 54 19 bd f7 20 cd bd
       0.06561576 0.08048327 -0.037434097 -0.10016053
000190 e0 48 b2 bd 01 b6 ab 3c 03 46 fc bc ac 08 b3 3b
       -0.08705306 0.02096081 -0.030795103 0.0054636803
0001a0 b6 dd eb bd 5f 62 e5 bc e6 57 14 3c 7f 78 a2 bd
       -0.115168974 -0.028001009 0.00905416 -0.07933139
0001b0 de ca bf bc 61 e4 92 bd ee 9f 54 3c b4 ce cf bd
       -0.023412164 -0.07172466 0.012977583 -0.10146847
0001c0 3f 39 67 bc 0e dc a3 3d 33 bf 13 bd af e1 63 bd
       -0.01411277 0.080009565 -0.036071014 -0.05563515
0001d0 59 35 71 bd c0 2d 6c bd 3e a5 4f bd 7a 4d 9f bd
       -0.058888767 -0.057660818 -0.050694697 -0.07778449
0001e0 8a 77 e4 3d 00 0c db bd 58 24 42 bd 76 2b bc bc
       0.11155613 -0.10695648 -0.04739794 -0.022969943
0001f0 d6 2f 28 3c b3 ed d6 3b f9 af ea bc 88 ac 51 3d
       0.010265311 0.0065590977 -0.028648363 0.05118993

model.6.weight f4 [64, 128]
000000 7f 0f 0a 3e b2 13 f4 bd c4 73 c0 3c dc 82 77 be
       0.13482474 -0.11917819 0.023492701 -0.24171013
000010 4d 1f 99 3d fd 86 e3 3d 84 a4 6b be ab e3 21 3e
       0.07476673 0.11109731 -0.23011976 0.15809505
000020 97 b5 9a bc 2a 6c a5 3d 07 2d 49 3d 3e bc 76 3e
       -0.018885417 0.08077271 0.049115207 0.24095246
000030 1e b9 27 be f9 58 37 3e c1 ea 16 bc 04 75 48 bd
       -0.1637921 0.17905034 -0.009211243 -0.04893972
000040 4c d2 cf 3d cb b4 a5 be e3 7f d1 3d ef c4 6a bd
       0.10147533 -0.32364497 0.102294706 -0.057316717
000050 bf 2a c8 3d 23 79 ae 3e 9f 23 3d be de 35 05 3d
       0.09773778 0.34076795 -0.1847062 0.032522075
000060 24 25 2a bd 7f 86 02 3e 03 0c d1 be e1 b3 c8 bd
       -0.041539326 0.12746619 -0.40829477 -0.09799934
000070 e3 19 e0 bd 87 55 ba be 27 a5 5a 3e 91 20 20 be
       -0.109424375 -0.36393377 0.21352063 -0.15637423
000080 82 05 d4 3d fa e4 05 bd 6e 59 11 be a6 af 35 bd
       0.10352613 -0.032689072 -0.14194271 -0.044356965
000090 4b b6 da bb 54 0a 8e 3e 24 9e 6e 3a 22 96 80 3c
       -0.006674563 0.27742255 0.0009102544 0.015696589
0000a0 38 0f 90 bd 68 a4 46 3c df 34 48 bd f9 dc 93 bc
       -0.07034153 0.012124158 -0.048878547 -0.018049704
0000b0 7b 6d 46 be 85 77 47 3e b6 32 de 3c 6a d2 f8 3d
       -0.19377701 0.19479187 0.02712379 0.12149508
0000c0 b1 12 90 bd de 11 8a 3e 4b 89 db bd f1 fa 35 3c
       -0.07034815 0.26966757 -0.10719546 0.011107192
0000d0 4f d9 84 be 96 ab 83 3e bb d3 93 ba ba 00 50 3e
       -0.25947043 0.25716847 -0.001127831 0.20312777
0000e0 9c 78 bf 3d 8a 57 47 bd 30 45 73 3c b5 73 b0 3d
       0.09349176 -0.048667468 0.014848039 0.08615819
0000f0 42 dc a4 3e 7b bf b8 bc 70 9c 4c be 41 6d 99 3e
       0.32199293 -0.022552243 -0.19981551 0.29966167
000100 22 b1 17 3e 47 ea c4 3e 01 24 f3 3c 24 bc e4 3d
       0.14813665 0.3845999 0.029680254 0.111686975
000110 ca bd 85 bd 7a f7 4e be 28 42 05 3d 24 a7 c2 3d
       -0.0653034 -0.20211592 0.032533795 0.09504536
000120 a8 ad 61 3c 44 3e 1f bd c3 06 89 be 7c 60 36 3d
       0.013774313 -0.03887774 -0.2676297 0.04452561
000130 d1 34 72 bd f9 54 e5 3d 0f 3c 31 be c7 8d 71 3e
       -0.0591324 0.11197848 -0.17308067 0.2358924
000140 17 ce 61 3d eb e4 cd bd f7 b8 46 be 4d 50 d2 3d
       0.055128183 -0.10053428 -0.19406496 0.102692224
000150 55 8d d5 3d 63 51 f2 bc 5e 39 84 be 1a 95 04 ba
       0.104273476 -0.029579824 -0.25825018 -0.0005057618
000160 93 fb f2 3d 3f 10 5b 3d 88 0e 4f 3e 5f cb 72 be
       0.1186439 0.05348229 0.20220387 -0.23710392
000170 23 e8 71 be 65 a4 11 3e fa 8c da 3c e8 51 46 3e
       -0.2362371 0.14222868 0.026678551 0.19367182
000180 81 5f dd 3d ce bd 0c bc 26 cf 24 3e fc 9f 43 3d
       0.108092315 -0.008590175 0.16094646 0.047759995
000190 51 03 d1 3d 87 6d 73 be 77 41 35 bd 04 3d 9c 3d
       0.10205711 -0.2377225 -0.044251885 0.07628825
0001a0 b8 86 db be bf 3f 35 be 09 21 81 3e 63 da 51 be
       -0.4287622 -0.17700098 0.25220516 -0.20493464
0001b0 d1 af 00 be a1 d9 ee 3d 8b c4 f2 3b 04 2a a1 bd
       -0.12567069 0.11662603 0.0074086837 -0.07869342
0001c0 31 a6 73 3d d8 3c 62 3d d9 f6 d4 bd 05 9c 04 bf
       0.059484664 0.055233806 -0.10398645 -0.51800567
0001d0 54 27 86 be 87 6b 57 bc b1 7f c3 3d 32 a6 77 3d
       -0.2620188 -0.013148195 0.095458396 0.06046123
0001e0 5d 7d 3b 3d 04 9b e6 bd f6 8a 3c bd 79 6f 6f bb
       0.045773853 -0.11260036 -0.04603096 -0.0036534949
0001f0 ff 48 51 be 3b 28 a2 3d 90 05 83 bd bc 05 f9 3a
       -0.20438002 0.079178296 -0.06397545 0.0018998901
000200 44 3b ec 3d 7e 6d 1e 3d ae a6 7e be a7 a9 ad 3d
       0.115347415 0.03867864 -0.24868271 0.08479624
000210 ba b5 22 3d 7a c3 a8 3d 62 b9 95 bd 08 b4 34 be
       0.03972409 0.08240409 -0.073107496 -0.17646801
000220 75 69 04 3e cf ae 85 be 6a 12 f5 be af 64 a1 bd
       0.12930854 -0.2610993 -0.4786561 -0.07880532
000230 44 bb 2d 3d 81 51 b8 be b7 9c f3 3d bc e7 26 3e
       0.04241492 -0.35999683 0.11895125 0.16299337
000240 39 ab 43 bd 1a c0 bc bc 7a bc 07 bd fb 5f c4 3e
       -0.047770713 -0.02304082 -0.03313873 0.38354477
000250 d6 a5 47 be 28 4b 78 bd 54 d5 2a bd a4 2c db 3d
       -0.19496855 -0.06061855 -0.04170735 0.10701874
000260 8e ec 25 3e 29 99 6a 3b 0c 62 46 3c 1d a3 0f be
       0.1620352 0.0035796857 0.012108337 -0.14027067
000270 62 28 7c be cb d1 0d 3e 37 a2 13 be b9 4b 09 bd
       -0.2462478 0.13849561 -0.14417349 -0.03351948
000280 b7 76 ec bd 5b e7 71 bd 35 a8 aa bd 0a 47 5c be
       -0.115460806 -0.05905853 -0.08332864 -0.21511474
000290 ca 21 d4 3c f5 1f 4c bd 1f c3 9e 3c d5 fc 1d 3e
       0.025895018 -0.049835164 0.01938015 0.15428479
0002a0 5b 99 06 3d 26 ad 85 be 8f bc 8e be 8e 26 bf 3b
       0.032861095 -0.26108664 -0.27878234 0.0058334535
0002b0 26 6c a8 3d 87 00 3a bd 08 aa 81 bd c1 81 89 3e
       0.08223753 -0.04541066 -0.06331259 0.26856807
0002c0 9d 06 78 3e 46 5e ff 3d 7f d4 cb bc a8 8e 23 bd
       0.24221273 0.12469153 -0.0248816 -0.03993097
0002d0 b3 15 18 3d 2f 31 9a bd 74 3c 89 bd 13 e6 ab 3c
       0.03713007 -0.07528912 -0.06700984 0.020983731
0002e0 85 c5 5b bd 39 5a d4 be 82 0a b6 bc f7 05 1a 3d
       -0.053655166 -0.41475084 -0.022221807 0.037603345
0002f0 a4 15 96 bd 9f 22 42 3a e8 06 8a bd 59 89 4d be
       -0.07328346 0.00074056716 -0.067395985 -0.20071925
000300 ec 1e 51 3d 38 39 af 3b cc 16 aa 3d 9d 0c e1 bd
       0.05105488 0.005347397 0.083051294 -0.10988734
000310 67 81 47 bd 99 02 c3 bb 2f 97 18 3e a9 9b db 3d
       -0.048707392 -0.0059512374 0.14901422 0.10723049
000320 18 de 65 bd 0c c2 23 bd b0 95 e9 3d 78 77 fb bd
       -0.05612001 -0.03997998 0.11405504 -0.12278646
000330 12 90 70 3c 2f 80 03 3e e3 2c 17 bd be 6f 27 bc
       0.014682787 0.12841867 -0.03690804 -0.0102195125
000340 2e f8 2f 3d d1 6e 45 be a0 5c d5 bd aa f8 d6 bd
       0.042961292 -0.19280554 -0.104180574 -0.10496648
000350 4d 43 ef 3c 46 6a 6c be c4 1e fd 3d cc 81 f4 3d
       0.029206896 -0.23087415 0.12359384 0.11938819
000360 82 79 e0 bd 0c ee de 3d 59 4f 55 bd ae 66 37 3e
       -0.10960676 0.108852476 -0.052077625 0.17910263
000370 0d d5 8c 3d 1e b8 00 3d e9 20 8a be 3f 87 76 3d
       0.06876574 0.031425588 -0.26978233 0.060187574
000380 37 56 f5 3d 40 c9 d9 3d 54 d5 08 bd bd 16 1c 3e
       0.11979335 0.106340885 -0.03340657 0.15243049
000390 4f 7c 0a be 8b 94 a1 3d 6e d7 f7 bd cb 4a 66 3d
       -0.13523982 0.078896604 -0.12101637 0.056223672
0003a0 ac bc cc bd 3c 3a 24 3e 27 24 5b 3e d1 c0 26 be
       -0.09996924 0.1603784 0.2140051 -0.16284491
0003b0 43 1b 0c be ab bd c5 bd df 72 13 bd 10 d5 01 be
       -0.13682275 -0.09655317 -0.03599822 -0.12678933
0003c0 22 ad 82 3e d1 4d 9b be 06 fe 4a bc 7d f9 69 bd
       0.25522715 -0.30332807 -0.0123896655 -0.057122696
0003d0 eb ab 6f be f3 5e d5 3d 25 01 b7 3c 1a dd de 3c
       -0.23405425 0.10418501 0.022339413 0.027205039
0003e0 a3 51 23 be 7a 80 0f 3e 24 c2 04 be 11 34 61 be
       -0.1594911 0.14013854 -0.12964684 -0.21992518
0003f0 07 fc c5 3c 94 d6 ee 3d b6 4c ff 3d 84 05 a1 bd
       0.024168028 0.11662021 0.12465803 -0.0786238

model.6.bias f4 [64]
000000 b7 8e c3 3c a2 1b 03 3d 01 18 40 bd 6f 0f b3 bd
       0.023871763 0.032008775 -0.046897892 -0.08743178
000010 65 ea 81 3c 85 f1 0d 3c 89 a9 4c 3d 4f 59 99 bc
       0.015858838 0.00866354 0.04996637 -0.018719343
000020 85 85 90 3d 6d 0f fb ba c6 69 88 bd 15 e5 c5 bd
       0.07056717 -0.0019154378 -0.066608 -0.096628346
000030 f0 4b 18 bc f8 08 4b 3d 19 1a b0 3d c1 81 a8 3d
       -0.009295449 0.0495691 0.08598728 0.082278736
000040 88 48 2c 3d be 59 e7 bc e9 df 7d bd ab e4 87 3d
       0.04206136 -0.028241035 -0.061981115 0.06635412
000050 10 ab e4 3a b4 8e bd bc ef 17 1b 3e 6e 05 dc 3d
       0.0017446 -0.023139335 0.15145849 0.10743223
000060 36 0c 9c bd 06 56 0b 3e f7 25 60 3d 14 41 c7 3d
       -0.076195166 0.13607034 0.054723706 0.097292095
000070 d0 b8 52 3d 07 4f e9 bd 39 44 08 bd 70 3c 8d 3c
       0.051445782 -0.113920264 -0.033268187 0.017240733
000080 e9 9b 7e 3d 22 a6 ff 3c e7 a2 d6 3d ac 24 a4 3d
       0.062160406 0.031207148 0.1048029 0.08014807
000090 be 1b 3a bc 11 80 a1 bd aa 2d b7 3c eb 28 cf bc
       -0.011359153 -0.07885755 0.022360642 -0.025288066
0000a0 0e c3 72 3d f7 cf dc bd c6 3f b8 3d a0 15 77 bd
       0.05926805 -0.10781854 0.08996539 -0.060323358
0000b0 2b d0 03 bc 82 56 58 3c 0f 65 c1 3d f6 50 43 bd
       -0.008045237 0.013204219 0.094431035 -0.047684632
0000c0 74 17 53 3d b1 a0 13 3d c3 2e 88 bd 4e bb 03 bd
       0.05153604 0.03604192 -0.06649544 -0.03216105
0000d0 4b 45 d2 bc 1e d4 d8 bc c3 97 b3 bd 43 80 92 bd
       -0.025667807 -0.026468333 -0.087691806 -0.0715337
0000e0 5f a4 66 3d ac 49 94 3d fa a4 88 3d e8 0a 4c bd
       0.0563091 0.07240614 0.06672092 -0.04981509
0000f0 ea 40 c5 bc 7a 6c 83 bd ed f3 a3 3b ef ab b5 bd
       -0.024078805 -0.06417175 0.0050034435 -0.08870684

model.8.weight f4 [64, 64]
000000 6c 0b 4a 3e f9 38 85 3c e2 c8 f2 38 53 29 26 3e
       0.1973092 0.016262518 0.000115768766 0.16226701
000010 d4 c0 14 3e ce e9 85 3d c2 52 2b 3d cf f0 69 3d
       0.14526683 0.06538735 0.04182697 0.05711442
000020 f5 38 1d 3f bd d6 fe 3d b8 ec 87 3c f8 f6 f8 3d
       0.61415035 0.12443302 0.016592368 0.121564806
000030 26 1e aa bc 4c 7e f4 39 1d 16 cd 3d 0f 77 9a bc
       -0.020766329 0.00046633405 0.100139834 -0.0188556
000040 cd 97 3c be 0f 3f ea 3d 1a b8 be be f8 01 59 bd
       -0.18417282 0.11437809 -0.37249833 -0.052980393
000050 ae d9 a9 bc 37 aa 6b bc 22 92 2d 3d 8e 31 8a 3d
       -0.02073368 -0.014383844 0.04237569 0.06747733
000060 85 95 72 bd 5e 66 16 3e 54 5a d4 3e 72 b7 24 be
       -0.059224624 0.14687487 0.41475165 -0.16085604
000070 dd 8a 1b bd 68 bc cc bd 84 5b 0c 3d b9 bf 19 3d
       -0.037974227 -0.09996873 0.034266964 0.037536357
000080 37 52 c6 bd cb 6d 9f bd fc f9 7e 3d b0 c1 c8 3d
       -0.0968365 -0.07784613 0.062250122 0.09802568
000090 7e ac c3 bd 3b 82 5e be 7d 29 f1 bd 70 a5 88 3d
       -0.09554385 -0.21729366 -0.117754914 0.0667218
0000a0 37 a8 10 3f 9b b2 f2 3d 27 ea 1c 3e a3 3f f7 bd
       0.56506675 0.118504725 0.15323697 -0.120726846
0000b0 64 64 7f 3b cd 95 9c bd 3a eb 98 bc 60 56 9b 3e
       0.003896975 -0.0764576 -0.018666852 0.30339336
0000c0 4d 9c 12 bd 25 fa 27 3e 5b be 89 bd 2c 99 74 3e
       -0.03579359 0.16404016 -0.067257605 0.23886555
0000d0 1d b1 ed bd 42 4f 5f be 83 f3 ff 3d 7a ad 49 3e
       -0.11606047 -0.21807578 0.12497618 0.19695082
0000e0 43 4a 5a bb ff f1 33 3c 40 72 cf 3d 20 f8 69 3e
       -0.0033308424 0.010982989 0.10129213 0.22848558
0000f0 bd eb c7 3d e3 41 30 3e b7 4c 06 be 79 ab 0b 3d
       0.097617604 0.17212634 -0.13115202 0.034099076
000100 d2 a8 62 bd 68 6d 5e be d2 84 54 bc 2e 67 2b be
       -0.05533678 -0.21721423 -0.01297112 -0.16738579
000110 75 ac 81 3c d7 aa 46 3e 87 bd 64 bd 93 c2 29 be
       0.015829304 0.19401108 -0.05584481 -0.1657813
000120 db fd 78 be 8b d4 3d be e3 6a 93 be 64 39 85 bd
       -0.24315588 -0.1853811 -0.28792486 -0.06505087
000130 f0 28 3b 3b 2b 5c e6 3d 72 6b bd 3d f7 e0 26 bd
       0.0028558336 0.112480484 0.09249009 -0.040741887
000140 bc 3b 02 3e 0d 32 12 3e 16 8f 21 bc d1 cc b1 3d
       0.127181 0.14276905 -0.0098607745 0.08681644
000150 5f 66 a1 3d 78 01 25 3e c4 50 04 3e a9 ee a1 bd
       0.07880854 0.16113842 0.12921435 -0.07906849
000160 6b 89 b3 bd 02 6b e5 3d d2 08 ec 3b 7f 17 cc 3c
       -0.08766445 0.11202051 0.0072032 0.024913548
000170 72 4f b8 3d 78 02 46 3d 6a 17 c2 bd b0 79 34 3e
       0.08999528 0.048342198 -0.09477122 0.17624545
000180 d8 c2 56 be 2c 83 62 be 92 91 eb bc 2d 62 e3 bb
       -0.20972764 -0.2212035 -0.028755937 -0.0069391937
000190 3b 3c 22 be 75 47 e2 3d aa 4d 69 3d e0 40 16 be
       -0.15843289 0.110487856 0.05695883 -0.14673185
0001a0 c7 79 09 bf 7b cc 4a 3e 82 07 27 bd 6d d5 28 bd
       -0.5370144 0.19804566 -0.040778644 -0.041219164
0001b0 34 05 d8 bc c3 8f 6a bd 62 8c 5d be af 90 6b 3d
       -0.026369669 -0.057266008 -0.21635583 0.057511028
0001c0 26 9c 33 3e 4b f5 20 be de 6a 16 be 96 f1 7a 3e
       0.17540035 -0.15718572 -0.14689204 0.2450622
0001d0 ef 11 b0 3c 26 01 e7 bd 65 bc 6e be c4 de ff bd
       0.021492926 -0.11279516 -0.23314054 -0.12493661
0001e0 df 4f 12 bb 9e 52 f3 3d 2c 78 0b bd c4 b4 00 3e
       -0.002232544 0.11880992 -0.03405015 0.12568957
0001f0 bc 74 3b 3d 1a 00 50 3c de b4 48 be 90 ee 69 3d
       0.045765623 0.012695337 -0.19600245 0.057112277
000200 4e c5 3a 3e ce be 2f be 64 ad 91 bd 96 8e 57 3e
       0.18239328 -0.1716263 -0.0711315 0.21050486
000210 77 fd 51 bd a5 dc 8b be 71 1a 39 be 64 e5 37 bd
       -0.051267114 -0.27316776 -0.18076493 -0.0448965
000220 eb b0 d4 3d 38 0d 29 3e 56 91 01 3e c6 13 9d bd
       0.10385307 0.16508949 0.12653098 -0.07669787
000230 b5 40 14 be d0 9f e8 3d 12 b3 b8 3d 6f 10 85 be
       -0.14477809 0.11358607 0.0901853 -0.259891
000240 b7 ef 24 3e f1 8c 74 3d 0d ed e7 3d c7 fa 03 bf
       0.16107069 0.059704725 0.11324511 -0.5155453
000250 15 ef 0d 3d 62 4f 64 3e a3 21 ce 3b 0b bc 43 bd
       0.034651835 0.22295907 0.006290631 -0.047786754
000260 cf 03 93 3c 26 35 e8 3c fb 66 0f bd 6b b4 0a bb
       0.017946152 0.028345656 -0.03501032 -0.0021164666
000270 99 84 b2 3d 41 08 82 3e 7f 03 05 3e a2 26 89 3d
       0.08716697 0.25396922 0.12989615 0.06696822
000280 be 1e 37 3d 0f 0d 29 3e ae 50 1c 3d 8e 88 a1 bd
       0.044707052 0.16508888 0.03816288 -0.07887374
000290 22 06 d4 bd 92 20 ad bd 2f 40 fc bd 5f 29 a6 3e
       -0.10352732 -0.08453478 -0.123169295 0.3245344
0002a0 06 c8 32 3e b5 e0 71 3e 12 0d 23 3e 64 f7 b6 bd
       0.17459115 0.23620875 0.15922955 -0.08933905
0002b0 e9 dd e3 3c 3c 96 e4 3d a4 09 2a bd 3d 13 b5 3d
       0.027815776 0.111614674 -0.0415131 0.0884156
0002c0 64 e1 94 bd dd 51 84 bc 4d bb 0d 3e a5 39 ec 3c
       -0.07269552 -0.016152317 0.13840981 0.02883608
0002d0 02 a5 82 3c 28 80 44 3e c8 3e 06 3e b0 9b 9d bc
       0.015947822 0.19189513 0.13109887 -0.019239277
0002e0 3c 31 45 3e 8b bf 4b 3c 98 75 34 bd 34 67 24 be
       0.19257063 0.012435804 -0.04405746 -0.16054994
0002f0 27 0f b8 bd 02 1f 87 be 6e 8c d3 3d d4 eb 8b 3d
       -0.08987265 -0.26390845 0.10329519 0.0683209
000300 9b 48 00 3e 51 29 9b 3c 69 7d ab bd 0b b9 64 bd
       0.12527697 0.0189406 -0.083735295 -0.055840533
000310 e5 12 8e 3d bf f2 ed bd d7 60 b6 3d 9f 6c 44 3d
       0.069371976 -0.11618566 0.089051895 0.04795515
000320 36 27 60 be cb 3d 46 be 63 ce e2 bd ee 35 42 bd
       -0.21889958 -0.1935951 -0.110745214 -0.047414713
000330 89 8d b9 3c c7 02 30 be 9a 3d a3 3d 03 9a da bd
       0.022650497 -0.1718856 0.07970734 -0.10673907
000340 da 6d 90 3d ba 08 51 3d 07 59 ae be 10 30 ba 3b
       0.070522025 0.051033713 -0.34052297 0.005681999
000350 54 8e cf bb 93 06 98 bd f2 c2 14 3c d0 97 9d 3c
       -0.0063341055 -0.07423129 0.009079682 0.019237429
000360 13 e5 8a 3b c9 d9 f7 bc e2 53 a0 3e 4a 49 44 be
       0.0042387336 -0.030255215 0.31313998 -0.19168583
000370 3b 3f 35 bd 06 ae cf 3d bb d8 4d bd 36 64 2c be
       -0.044249754 0.10140614 -0.05025552 -0.16835102
000380 97 f8 d3 3d 7b d1 a1 bd b1 39 e5 3d 26 b7 93 3d
       0.10350149 -0.07901283 0.111926444 0.07212667
000390 16 65 3d 3c 5c e8 79 bd ee f5 92 3d 5e 28 d3 3d
       0.011559745 -0.06101261 0.071758136 0.10310434
0003a0 79 b0 e3 3d cb 18 84 bc ef 5a 0d 3e 6c 43 46 bd
       0.11117644 -0.016125103 0.1380422 -0.048404142
0003b0 8a 69 92 bc b0 4c 5f 3d 3e 91 a6 bd 12 1b 6c 3d
       -0.01787259 0.054516494 -0.081331715 0.057643004
0003c0 30 ef 1a 3d c2 84 da bb 39 fd 8a 3c de 39 29 3e
       0.037825763 -0.006668658 0.01696645 0.16525981
0003d0 ec d0 c2 3d 0d e3 49 3d 3e 5e 4b 3d 98 49 a9 3e
       0.09512505 0.049288798 0.049650423 0.3306396
0003e0 67 d2 3d 3e f5 d5 23 3e 50 7d cd bd d3 2a 29 3e
       0.18537293 0.15999587 -0.10033667 0.16520242
0003f0 5b 82 c6 3d 72 8b a6 3d d4 35 17 3e a1 fd 83 3d
       0.09692832 0.08132066 0.14766628 0.0644486

model.8.bias f4 [64]
000000 b0 da 3b 3c 11 e3 92 bc 2e 9d 69 bd 2e d5 37 3d
       0.011465713 -0.01793054 -0.057034664 0.04488104
000010 9d d1 4b 3c 30 b3 a8 bd 48 a9 c6 bd 9a 24 72 3d
       0.012440112 -0.08237302 -0.097002566 0.059116937
000020 8b 0c 91 bc 57 ae f3 3d 2b c0 51 3d 12 32 9c 3d
       -0.017706176 0.11898487 0.051208656 0.07626738
000030 94 39 8c bd 2f 05 34 be 78 6d 01 3e c0 a9 1e 3e
       -0.0684692 -0.17580102 0.12639415 0.15494442
000040 ca 1b 12 3e 2b 66 96 3b c5 5a 04 3e bf 89 63 bd
       0.14268413 0.004589816 0.12925251 -0.055551287
000050 c0 74 6a bd 9c 81 9f bd eb 2c 91 3d ae 8c 0a bc
       -0.057240248 -0.07788393 0.070886455 -0.008456392
000060 89 d8 7b 3d 07 67 0a 3e d5 a0 ba 3b 55 34 e0 3d
       0.0614858 0.13515864 0.005695442 0.109474815
000070 b5 40 52 3c 44 cd 02 bc 36 55 5f 3d 4b 9e 45 3d
       0.01283281 -0.007983509 0.054524623 0.048246663
000080 07 c5 8b 3d db 81 85 bd f9 b2 4b bd 38 c6 2c 3e
       0.06824689 -0.065189086 -0.04973123 0.1687249
000090 22 78 43 bc 4d 3a 84 3d 6d 00 14 bd 4a cc 93 3d
       -0.011930497 0.064564325 -0.03613322 0.072166994
0000a0 ad 98 63 3c c5 4f 25 3d ff 23 86 3d 9d 9c 05 3b
       0.013891381 0.040359277 0.065498345 0.0020387538
0000b0 84 fc 07 3e a6 ec 93 bd 63 64 c9 3c 07 1d 99 bd
       0.13279921 -0.072228715 0.024584 -0.0747624
0000c0 bb 87 6e 3c 2b 25 4c 3d 83 76 e4 3c 6f 1c 00 be
       0.014558728 0.049840134 0.027888542 -0.12510847
0000d0 f4 39 63 bc 2f 85 ac bb 1a 77 00 3d 1c a7 50 bc
       -0.013868798 -0.0052649 0.031363584 -0.0127351545
0000e0 1a e1 3b bd c0 18 7d 3d 6b 05 9c bd 90 a8 62 3e
       -0.04586897 0.06179118 -0.07618221 0.22134614
0000f0 0e bf 29 3d 06 58 a0 bc 61 e1 83 3d dd 24 ec 3a
       0.04144197 -0.019573223 0.06439472 0.0018016357
