Dueling_DQN/checkpoint.pth (torch_old, 155258 bytes, 13 tensors)

hidden_layers.0.weight f4 [128, 37]
00000000: d60e 2ebb da73 5c3e b5da 67be f950 4abe
00000010: 1cac 8ebd 6974 db3b d9ce d63c d89e 053e
00000020: dea3 4c3d 65fa 89bc 861b 9fbd ea83 2d3d
00000030: 85af 0bbe 69d3 9ebd ee02 1b3d 16a7 a8bc
00000040: bd31 a93d 02bf 513e c857 79be 0e72 36be
00000050: 995d 993c 27f2 8b3e 90ef 8bbd c54d e33d
00000060: 6190 efbd 8c50 b8bd af40 383e a904 edbd
00000070: c4bf f53c 1a6c d8bd eddd 7dbe 25d6 773e
00000080: 71c8 32bc 2a48 3dbd 8f6d 4bbe b350 41be
00000090: a049 43bd 87c0 463e 03e1 113d 819f 383d
000000a0: 77fb 8fbd ade3 5ebe db98 e73d 1ce9 2dbe
000000b0: 5f54 6dbe 5286 a5be 043d 06bf f334 393d
000000c0: be54 f0bd 77d0 383d d1e3 133e 8b7e e33d
000000d0: e152 013d c830 7b3d ae97 353e 15ce 83be
000000e0: 2016 34ba 3f8e 41bd e901 52be f943 febd
000000f0: ff62 673a bb0c 86bd 4769 05be 9e1c 953d
00000100: 2e25 b93d eca0 8abd f22b 053d 4de8 f4bb
00000110: da60 b93d 58e3 293e 6984 45be 9f95 9cbd
00000120: 7f07 873d feca 6e3d b64c ec3d 701f 813e
00000130: 8854 3f3c b950 e4bd eaca 763d 1e00 2fbe
00000140: 48af 34bd 2bf4 173e 4bb0 0a3e 37b8 7dbe
00000150: c0f5 e33d b280 19be 32f5 20bd bc23 dabc
00000160: 02d4 c13d 121c 29be 0dc1 d43d 7936 e93d
00000170: bc6b 923e b8fe a0bd 88c6 1cbe 4c65 39bd
00000180: 3191 1e3e f924 02bd e51c d4bc 90ea 17be
00000190: 0c77 143e a0f7 4a3e 45fb 3cbd 1c2a fdbd
000001a0: 29fd 9dbd ad03 a53c b011 aebd 4f86 44be
000001b0: 6212 1f3d 1b3f c83c a0cb 81bd ceb2 3e3d
000001c0: 1445 14be 49a9 653e 61ac 683d e599 25be
000001d0: 7905 80bd 1a1f e0bd f020 393d cd81 e33d
000001e0: 1d9d be3d 4e2b 5eba 2b9b 37bd fb91 f23c
000001f0: 1ebb b1bd f22b a0bd df34 9cbd 9cad 30be
00000200: 911d babb 5006 08be 6ee3 27bd 4621 f73d
00000210: 8071 38be a7a8 1fbe f199 bdbd 9dfb 2fbe
00000220: 08f7 01be b2f9 833b 6e5c b53d 42e8 183e
00000230: 6564 5b3e 599e df3d 4518 423e cd38 803c
00000240: 64ce 9cbe db11 a1be 41fb 873d 58a6 0dbc
00000250: 041b 9bbd 2be3 35be be1d ffbd 85bd 03be
00000260: 5e6e b3bd 7df0 be3d d0f5 b23d 8271 15be
00000270: 9e7b a13c cede f7be 4870 413c 7e5a f2bd
00000280: a1c9 963c f2bb 61be 323c 21be 55fe 0cbe
00000290: 9ff7 76bc 8acf c4bc 3f9d afbd 0c82 313e
000002a0: a55e 31be 7cac b4bd a092 343e 9f07 35bc
000002b0: 3093 eb3d 5fc5 d73c c2bb 88be 87a1 443e
000002c0: 0e2c 773c cc92 1ebe b01f 023e 1d28 3b3d
000002d0: e764 58bd 786b 673d d615 dc3e 62d1 ae3d
000002e0: 726a 713d 13f9 dfbc cc6f 0d3c 10db e0bd
000002f0: 4ee2 fcbc 6ef1 943d 4757 b43d 6d09 753e
00000300: 65eb f2bd 906a 893d 9329 02bf a2cf 3cbd
00000310: 4594 06be ba72 5b3c e81a 84bd 2cec 08be
00000320: af89 4bbb 9b15 0a3e b165 0abe 35a5 25be
00000330: e0b9 dfbd 9493 b53d cd79 2bbe 5c82 263e
00000340: c9ee fd3d a271 233e 4bdf 1fbd c4b2 97bd
00000350: c8ab 023e 1191 27bd 4ef8 81bc 61b0 ce3c
00000360: d1a0 73bd 03c3 fbbd 07e0 073d 92c8 62be
00000370: e744 17bc 63cb eb3d ad0c 3c3d 089a b53d
00000380: 6baa 0abe 3118 b8bd 1a06 76be 99fa 2bbe
00000390: 4700 31bd 0982 85bb 3c77 f73d 1b62 593e
000003a0: 4570 0a3c cdf2 8a3d 4aa8 0f3e 8e70 86bd
000003b0: 3c66 d23d 7959 75bd 890b 05be a1ff b73d
000003c0: 3c95 753d 6e90 f03d 5d94 b2bd 286b a33d
000003d0: 18c2 7e3d 46ec d5bd 7667 643e 185f 3cbe
000003e0: 89de 5f3c b841 0a3c a26a ffbd e794 cc3d
000003f0: 70a4 c73d 867a 4fbd a1e5 9cbd be79 4bbd
-0.0026559136 0.21528569 -0.22642024 -0.19757451 -0.06966421 0.006697227 0.02622168 0.13048875
0.049960963 -0.01684303 -0.077689216 0.04236213 -0.13641174 -0.07755167 0.03784459 -0.020587485
0.0826144 0.2048302 -0.24349892 -0.17816946 0.018721389 0.27333185 -0.06832802 0.11098818
-0.1169746 -0.08999738 0.17993425 -0.115731545 0.029998668 -0.10567494 -0.24791689 0.24202783
-0.010912047 -0.0462114 -0.19866012 -0.1887844 -0.047677636 0.19409381 0.03561498 0.04507399
-0.07030385 -0.21766539 0.11308452 -0.16983455 -0.23176716 -0.3232904 -0.5243685 0.045216512
-0.11734913 0.045120683 0.14442374 0.111081205 0.03157318 0.06132582 0.17733642 -0.25743166
-0.0006869752 -0.047254797 -0.20508541 -0.124153085 0.0008826702 -0.06545397 -0.13028441 0.07280849
0.090402946 -0.06768975 0.032512613 -0.0074739815 0.09051676 0.16590631 -0.19288792 -0.076457255
0.06593227 0.058299057 0.11538069 0.25219297 0.011677869 -0.11148209 0.060252108 -0.17089888
-0.044112474 0.14839236 0.13543813 -0.24777304 0.111308575 -0.149905 -0.039296336 -0.026628368
0.094642654 -0.16514614 0.10388384 0.11387343 0.2859782 -0.07861084 -0.15310109 -0.04526262
0.15485074 -0.03177354 -0.025892684 -0.14835572 0.14498538 0.19821024 -0.046138067 -0.12361547
-0.07714302 0.020143354 -0.084994674 -0.1919186 0.03883589 0.024444154 -0.063376665 0.04655724
-0.14479476 0.22427858 0.05680502 -0.16171987 -0.06251044 -0.10943432 0.045197427 0.11108742
0.09307311 -0.0008475081 -0.044825714 0.029610625 -0.08678268 -0.07820882 -0.07627272 -0.17253727
-0.005679794 -0.13283658 -0.04098838 0.12066893 -0.18012047 -0.1559168 -0.092578776 -0.17185827
-0.12691891 0.0040275687 0.0885552 0.1493235 0.21425016 0.10918874 0.1895457 0.015652085
-0.30626214 -0.31458935 0.0663972 -0.0086456165 -0.07573512 -0.17762439 -0.12456845 -0.12865265
-0.08761285 0.09323213 0.08738291 -0.14594081 0.019712266 -0.48412174 0.011806555 -0.11833666
0.018406691 -0.22044352 -0.15745619 -0.13768895 -0.015073686 -0.024024744 -0.08574914 0.17334765
-0.1732126 -0.08821961 0.17634058 -0.01104918 0.11502683 0.026339231 -0.26705748 0.19202243
0.015086187 -0.15485686 0.127074 0.045692552 -0.052830603 0.056498975 0.4298541 0.0853603
0.058939405 -0.027340448 0.0086326115 -0.10979283 -0.03086963 0.072726116 0.08805709 0.23929377
-0.11861304 0.06709778 -0.5084469 -0.04609645 -0.13142498 0.013394052 -0.064504445 -0.13371342
-0.0031057408 0.13484804 -0.13515355 -0.16176303 -0.10924125 0.08866039 -0.16745682 0.16260666
0.1239906 0.15961316 -0.03903131 -0.07407144 0.12760842 -0.04090983 -0.015865471 0.025230588
-0.05947954 -0.12293055 0.033172633 -0.22146824 -0.009232736 0.11513402 0.045910526 0.0886727
-0.13541572 -0.08988989 -0.24025765 -0.16794814 -0.043213155 -0.0040743393 0.12083289 0.2122883
0.008449619 0.06784592 0.14029041 -0.06564437 0.10273406 -0.05989978 -0.12992682 0.08984304
0.059956774 0.11746298 -0.08719704 0.07979423 0.06219682 -0.10445456 0.22305092 -0.1839565
0.013663896 0.00843852 -0.124715105 0.09989338 0.09748161 -0.050653957 -0.07660986 -0.04967665

hidden_layers.0.bias f4 [128]
00000000: cefe 593c db46 a43d 684a 8bbd 88a8 73bd
00000010: e479 f1bb 0a0d 99bd 36f0 c03d 4a9d 713d
00000020: 840c 0bbe b526 0f3d 3dc3 07be 4ea0 87bd
00000030: 6708 2fbd 745e 81bd 547e 27bd 76ee b0ba
00000040: d88d 3e3d 0db9 57bd 36b1 24bc 732a 013a
00000050: 3ee2 92bd 3dfe c83d 44b8 1a3e 466b 9f3c
00000060: e2a4 a03d 7ff2 213e 26f8 283e e328 6abd
00000070: 0927 eebd 8121 b4bd b969 123e 140e 0d3e
00000080: e533 1fbd 0154 2a3d 8b9e 403d dacd 2abe
00000090: 40f4 a43c 82b7 a43d 4dec 0f3d e354 273d
000000a0: a10f 8d3d 062c 053e 88e9 2d3e b89c 843d
000000b0: d779 7d3c d10b 30bd f55a 9a3d 15df 9dbd
000000c0: c0af 05be 0a8e b23d e6c5 933d 3692 823d
000000d0: b255 273d 407d e53d a5e5 813d b315 623d
000000e0: a9a7 08be 422f 2a3d 61bb 033d e174 18bd
000000f0: af03 eabd 7c0a ae3d f3a5 003e c964 a7bd
00000100: 99c6 dc3d c9a7 833d 526d 5a3d 953b 63bd
00000110: 9653 3abe 7db7 bbbd 2619 b23d d332 e9bc
00000120: 313d 0e3e 59ee e2bd cf75 c9bd b5df aa3c
00000130: dcd7 293e ce65 e3bd 326a 1d3e 3695 8f3d
00000140: 2cde 9abc db17 c03d 4bd4 c73d 238f e9bd
00000150: 6150 d6bc 9cbf 183e 0764 ac3d 4904 6cbd
00000160: b6ba 23bd 27e4 153d e143 d43d 44a4 64bd
00000170: 200c f1bd 285d febd 647a 0b3c 7e46 bd3d
00000180: 005f 9fbc 2503 dfbd 1423 8ebd 925d 2f3e
00000190: db41 bebd b887 26be 2397 253e 83b9 393e
000001a0: cc3c 47be 71d4 3dbe 86ff b4bd 2000 383e
000001b0: 1b3d c5bd 47a8 edbb 7a3d 173e 4418 62bd
000001c0: 4b0a 9bbd b838 d2bd a9c3 c33c 750b 163e
000001d0: 7f68 873d 44b6 153e 8692 553a adec 5e3d
000001e0: 3ca4 b8bc df50 773d 20fb 87bc 260b 22be
000001f0: 5fe7 08bd 7972 543d 4f44 113e dba2 57bc
0.013305379 0.08021327 -0.06801301 -0.059486896 -0.007369267 -0.0747319 0.094208166 0.058987893
-0.13578993 0.034949023 -0.13258071 -0.066223726 -0.042732622 -0.06316844 -0.04089196 -0.0013498801
0.04652199 -0.052666713 -0.010052016 0.0004927285 -0.071720585 0.09814117 0.15109354 0.019460332
0.07843949 0.15815161 0.16500911 -0.0571679 -0.11628539 -0.08795453 0.14298142 0.13774902
-0.03886785 0.04158402 0.0470262 -0.16680089 0.020135999 0.08042814 0.035137463 0.04085244
0.068877466 0.13005075 0.16983616 0.06475204 0.015470943 -0.04298002 0.0753688 -0.07708565
-0.13055325 0.08718498 0.072154805 0.06375544 0.04085321 0.1120553 0.06342629 0.055196475
-0.13345207 0.041548975 0.03216112 -0.03722084 -0.11426484 0.084980935 0.12563305 -0.0817352
0.10780067 0.06428487 0.053326912 -0.055476744 -0.18195948 -0.09165857 0.08696203 -0.028466618
0.1389053 -0.110806175 -0.09836923 0.020858625 0.1658625 -0.11103402 0.15372542 0.070108816
-0.018904768 0.0937955 0.097572885 -0.11404254 -0.026161375 0.14916843 0.08417516 -0.057621274
-0.039972983 0.036594536 0.103645094 -0.05582072 -0.11769891 -0.12420112 0.008513067 0.09241961
-0.01945448 -0.10889272 -0.06940284 0.17125538 -0.09289905 -0.1626271 0.16170935 0.18137173
-0.19456786 -0.18538071 -0.088378 0.17968798 -0.096307956 -0.0072527262 0.14769545 -0.055198923
-0.075703226 -0.102647245 0.023897009 0.14652808 0.06611728 0.1462031 0.0008147139 0.05442493
-0.02253925 0.06037986 -0.016599238 -0.15824565 -0.033423778 0.051866982 0.14186214 -0.013161386

hidden_layers.1.weight f4 [128, 128]
00000000: 1895 27bd 4a3b 34bd e772 30bd e9ac 193d
00000010: 649b 823d 6bcf fa3c e445 223d 57de c43d
00000020: 6ffc 3d3d f920 003d d93c 8e3d 7f84 863d
00000030: 6766 babc 6836 d9bc 7787 04be 9425 3a3d
00000040: 8488 a43c 4d0f 96bd 742e 1ebd c63b 4ebd
00000050: a4af 1c3c a8a0 7b3d 0fcb b73c 9915 093d
00000060: 90e9 243d 4008 bd3d 8d83 a4bd 9983 40be
00000070: 7579 aabd bc05 0c3d ad4d fa3c 3d69 1f3d
00000080: e8a9 bd3c 868f b2bd d344 0f3d 7c88 c5bc
00000090: 7522 8d3d 0d01 923c 23df 313d 5ac4 833c
000000a0: dde8 8dbd ad9e 23bd 9c6d 3bbd a1b2 173d
000000b0: a4a1 ba3d e806 6d3c 656e 86bd 32de 9abd
000000c0: c417 02bd 5aba 1dbd e6d1 bebd 4bf4 c9bd
000000d0: 0f18 d1bd 2561 97bd ec4c 0139 7e45 203d
000000e0: 43fd a43d 8888 01be a3e4 6a3d f0b9 163d
000000f0: 671e 83bc 1421 443d 8366 0b3c 711a e5bd
00000100: b301 0abc b758 c93d 72ae 903d ca50 2dbe
00000110: 08dd 453c 6d02 133b b29a b63d 4c2d 9ebd
00000120: 4455 48bc f99c c1bc 36e5 27bd fcca c1bc
00000130: b3b2 0ebe 1b1c e2bb 219d 7d3d 0656 183d
00000140: 22e1 5c3c 2341 d43d b731 a3bb a754 31bd
00000150: c43b 4ebd d3ed 5bbd 98d1 163d 2900 a1bc
00000160: 640d 5f3d a17f 323d 4ec0 3c3e 7652 8cbd
00000170: c456 98bd 72f6 8abd e26c 16ba be5b 81bc
00000180: b8ef 56bd 0478 9c3c d146 05be 2fcd 18bc
00000190: 73ac 793d 4b2e 76bd c0d2 ac3d 5353 09bd
000001a0: 6473 17bd 7f74 e43c f612 853c e5e3 a1bc
000001b0: 8203 053e 86bf a3bd f229 183d 3fc3 17bd
000001c0: 9e45 c0bd b315 683c 7865 fcbd ce00 e6bc
000001d0: c4be fc3d 2299 b63d 663c babd 486c 61bc
000001e0: f6dc 0b3e a60b cdbd 98bd 4f3d 3f29 b5bd
000001f0: b912 453d c917 b7bd 666a e83d 33d8 0f3a
00000200: dde1 1b3e 9799 b93c fb25 2cbd f4f3 adbd
00000210: 06b0 60bd 7444 1bbd 3a35 573c 770d 95bd
00000220: 39d1 813d ed6c 2cbd 3d18 5f3c 2fe0 14bc
00000230: 36e4 b0bd bf31 b6bb aa9e 4bbd f72f 8c3c
00000240: 26e1 09be 79a0 c53d d4c9 20bd 2e42 43bd
00000250: 95ca 4a38 aa0d a4bd 8bbb c43d 8e5f a3bd
00000260: d49d 14be 3ddf 4ebd 573f cd3d 41c3 ebbd
00000270: 00cd 3bbc be68 c8bd c0b0 dbba fef3 16bd
00000280: 540e de3c e31b b9bc d105 933d 2e66 86bd
00000290: d6ce a03d 7593 883c 3f5a 84bd da97 59bd
000002a0: 8ff1 a83b 6685 c33c 08de 09bd a3aa c6bd
000002b0: efb9 0ebe c027 a8bd f350 1cbc 9ebe cc3d
000002c0: 59d8 74bd 8c0b d8bc d416 a23d f6dc 8dbc
000002d0: 6f75 da3d e30f b5bd 76c6 6fbd 463e 64bd
000002e0: 82c7 bdbd 3fe5 50bd c33a 19bd 9bba 0abc
000002f0: bade 0cbd e5b2 03be d912 f13d 4aeb a33c
00000300: c408 ae3d b855 f73d 55e2 483c 7516 0b3e
00000310: c0a9 7a3e de49 a73d fe32 263d d6ec 16bd
00000320: ef4f f7bb 6365 2ebd 8e64 1b3e 5437 72bb
00000330: ee14 febc b863 3ebc 191b 89bb 9172 1b3b
00000340: 0bb4 493c 1eb8 573d 813b b6bd bb87 f7bc
00000350: 496d 33bd 3e6f b2bc 5469 3e3d 4308 b2bd
00000360: c593 c13d 43fd 62bd 16f6 1ebe b683 80bd
00000370: 5fb4 cabb b565 f63d 2550 63bd 650e bfbd
00000380: 8e41 963d 901a 4cbe dec2 a3bc 471c 3ebc
00000390: 3907 193d de6c a63c 0f16 a33d 5b92 bd3d
000003a0: 2fec 363b 22a4 6bbd 7e8e 98bc 0e28 593d
000003b0: 2d16 57bc 30d7 4439 f0c5 853d 2042 78bd
000003c0: 4015 2ebd 9368 2f3e 5401 c6bd cd9c 0abe
000003d0: 4339 74bd b11b b53d dc26 893d 3449 9abd
000003e0: 44d9 9c3b 91d9 6abc 0c1e 07bc 40a2 7bbd
000003f0: 5b18 c8bc 84f4 503d 36ae 583d aa75 2ebc
-0.04091367 -0.044001855 -0.04307833 0.037518416 0.06377295 0.030616483 0.039617434 0.096127205
0.046383318 0.031281445 0.069451995 0.065682404 -0.022753907 -0.0265152 -0.129423 0.045445994
0.020084627 -0.07327137 -0.03861852 -0.050349973 0.00956336 0.06143251 0.022435693 0.033467863
0.040261805 0.09230089 -0.08032904 -0.188002 -0.08323947 0.034185156 0.030554617 0.038918722
0.023152307 -0.08718781 0.034977745 -0.024112932 0.06891338 0.017822767 0.04342569 0.016084839
-0.06929181 -0.039946247 -0.04575883 0.03703559 0.09112862 0.014466979 -0.06564025 -0.07561912
-0.031760946 -0.038507797 -0.09317379 -0.09861048 -0.10209667 -0.07391576 0.00012331054 0.039128773
0.08056118 -0.12649739 0.05734695 0.036798418 -0.016005708 0.04788311 0.008508327 -0.11186684
-0.008423257 0.09831374 0.07064523 -0.1692535 0.012076624 0.0022431866 0.089162245 -0.077234834
-0.01222736 -0.02363442 -0.040990077 -0.02365636 -0.13935356 -0.006900323 0.061917428 0.037191413
0.01348141 0.10363986 -0.0049802917 -0.04329362 -0.050349966 -0.053693604 0.036820978 -0.019653397
0.05445613 0.043578748 0.18432733 -0.06851666 -0.07438424 -0.06785287 -0.00057382707 -0.015790816
-0.052474707 0.019100197 -0.13015296 -0.009326263 0.060955476 -0.060102742 0.08438635 -0.03352673
-0.03697528 0.02788758 0.016244393 -0.019761989 0.1298962 -0.079955146 0.037149377 -0.037051436
-0.093882784 0.01416533 -0.12324041 -0.028076556 0.12341073 0.089159265 -0.09093551 -0.013758726
0.13658509 -0.100119874 0.05071792 -0.08845758 0.04811356 -0.089400835 0.11348419 0.0005487233
0.15222879 0.022656245 -0.04202841 -0.08493796 -0.05485537 -0.03790708 0.013135249 -0.07277959
0.06338734 -0.042096067 0.013616619 -0.009086653 -0.08637278 -0.0055601294 -0.04971186 0.017112715
-0.13464794 0.09649748 -0.03925498 -0.047670536 4.8349222e-05 -0.08010419 0.096060835 -0.0797721
-0.14513332 -0.050505865 0.10021847 -0.11511851 -0.01146245 -0.09785603 -0.001676105 -0.036853783
0.027106442 -0.022596305 0.07178844 -0.06562458 0.07851951 0.016671875 -0.064625256 -0.053123333
0.005155749 0.02386732 -0.03365901 -0.09700515 -0.13938116 -0.08210707 -0.009540784 0.09997295
-0.059776638 -0.026372693 0.0791451 -0.017317276 0.1066693 -0.08840921 -0.058538876 -0.05572345
-0.09266569 -0.050999876 -0.037409555 -0.008467342 -0.034392096 -0.12861212 0.11771173 0.020009656
0.08497766 0.120768964 0.012260993 0.13582785 0.24478817 0.08168386 0.040575974 -0.036846958
-0.0075473706 -0.04257716 0.15175077 -0.0036959248 -0.03101584 -0.0116204545 -0.0041841385 0.002371941
0.012310992 0.052665822 -0.08898068 -0.030216089 -0.043805394 -0.02178156 0.046487167 -0.08692982
0.09452013 -0.05541731 -0.15523562 -0.06275122 -0.0061860527 0.12031118 -0.055496354 -0.093289174
0.07336722 -0.19932008 -0.01999038 -0.0116034215 0.037360404 0.020315584 0.07963192 0.09256431
0.0027911772 -0.057529576 -0.018622633 0.053016715 -0.013127846 0.0001877218 0.06531894 -0.060609937
-0.042500734 0.17129736 -0.09668222 -0.13536377 -0.05962492 0.08843172 0.06696865 -0.07533494
0.0047866423 -0.014334098 -0.00824691 -0.06143403 -0.024425676 0.05101444 0.052900515 -0.0106481705

hidden_layers.1.bias f4 [128]
00000000: 29e3 be3d 1756 3fbd 3ab6 8ebd eb4b b83d
00000010: eabd cdbd b444 a13d 2e82 a93d baaf b4bc
00000020: 0071 4e39 e082 923d 2303 a53d 0bea 533d
00000030: 1205 47bd 81b2 173d 2f1d 943d 9422 7dbd
00000040: d1dc d2bc bb20 a5bd 7fa3 8abd ebf2 91bd
00000050: 4def 93bd 6893 0ebd 4252 50bd cc5b 363d
00000060: 80e3 eb3c 6a3c cf3c f010 c7bd e9ca d83c
00000070: 8c69 213d e9fb 8e3d e7aa 59bd 2a98 6c3d
00000080: 7688 de3c d185 d0bc e17e 0e3c 9976 a5bc
00000090: e3ee 2c3d 397a 103d 3a7c 89bc ac54 aabc
000000a0: 1015 80bd 81ce a83d 2b2e 5c3d 2642 baba
000000b0: 5ab9 6dbd 5e5d 873d 3708 56bd 6598 2a3d
000000c0: 310e a53d dd9d 8cbd 877f ae3d 70c6 abbd
000000d0: 946f 04bd 16fe 6fbc b614 d73c 1a51 413d
000000e0: 689a b8bb 3717 913d 7a03 9c3d 23eb 5e3d
000000f0: 4ef7 f63b 3fa2 8ebc 6f32 3cbd aab2 a4bc
00000100: a613 9b3d 1e0a 8aba 932c 5fbb 5cd0 e43b
00000110: 375a 9a3d 5e96 a73d a755 813d e094 4bbd
00000120: fd7f bbbd 4fcf b53c e886 cc3c 1d88 833d
00000130: 9210 c83d 46c8 093b ed55 8dbd e4a6 21bc
00000140: c4a9 b5bd 1979 ccbc a811 8f3d 4372 a8bd
00000150: 42da 25bd 7926 3ebd 2636 38bd 43d7 42bd
00000160: 2023 093d 3a9d a73d aa17 efbc b904 7d3c
00000170: 8b34 6cbd 51c8 9d3b 471e 9bbd 4539 79bd
00000180: 243c ad3c e023 b33c 4f97 81bc 2193 56bc
00000190: ee46 5ebd a5b3 a53d 3385 b1bd 5606 0ebd
000001a0: 0990 f63c 0629 4e3d 5bc7 c5ba 3a68 9e3c
000001b0: 5217 5ebd d1ad e6bd 41a5 ce3c 9cf5 853c
000001c0: ad56 abbc 03f5 953c c12a 4a3d 53f1 043d
000001d0: 1b0f 683d 854b 3dbc 891e 053c 5014 d03d
000001e0: 82ee 5d3d 340e 433c 0a10 363d 5b88 0b3a
000001f0: 02a3 93bd f0ec 96bd 4bdc ab3d 210b 8b3c
0.09320671 -0.04671296 -0.06968351 0.08998855 -0.10045989 0.07874432 0.08276783 -0.02205645
0.00019687787 0.07153869 0.08057239 0.051736873 -0.04858882 0.03703547 0.07232129 -0.061800554
-0.02574006 -0.080628835 -0.06769466 -0.07126411 -0.072233774 -0.034808546 -0.050859697 0.044521138
0.028795004 0.025297362 -0.097200274 0.026463943 0.039407298 0.06981642 -0.0531415 0.057762302
0.027164679 -0.025454434 0.0086972425 -0.020198153 0.042220008 0.03527281 -0.016782869 -0.020792328
-0.06254017 0.082425125 0.053754967 -0.0014210388 -0.058038093 0.06609605 -0.052253928 0.04164924
0.080593474 -0.068660475 0.08520418 -0.08387458 -0.03233297 -0.014647981 0.026254993 0.047196485
-0.005633641 0.07084506 0.076178506 0.054423463 0.0075368052 -0.01741135 -0.045946535 -0.020104725
0.07572107 -0.001053158 -0.0034053668 0.006982846 0.07536738 0.08182977 0.06315165 -0.049702525
-0.09155271 0.022193579 0.024966672 0.06422446 0.097687855 0.0021023913 -0.06901155 -0.00986645
-0.08870271 -0.024960088 0.069857895 -0.08224919 -0.04049135 -0.04642341 -0.044973515 -0.04756857
0.033480763 0.081842855 -0.029186089 0.0154430205 -0.057667296 0.0048151393 -0.07574134 -0.060845632
0.021146841 0.021867692 -0.01581922 -0.013096602 -0.054266863 0.08090905 -0.08667984 -0.03467401
0.030097978 0.05033209 -0.001508932 0.019336808 -0.05422146 -0.112636216 0.025225284 0.016352467
-0.020915354 0.018305307 0.04935718 0.032456707 0.05665503 -0.01155365 0.008124956 0.10160124
0.054182537 0.011905242 0.04444889 0.0005322748 -0.07208826 -0.07369411 0.08391627 0.01697308

hidden_layers.2.weight f4 [64, 128]
00000000: 448b eb3d dddd 63bc fcfc 803d 7a24 48bd
00000010: ef9a c93c 5063 333e 939c 85bd 3ccb 7d3c
00000020: 0979 ca3d 5dac cabd 159c debc ed7c f5bd
00000030: 6a3e fdbd d6d7 f5bd 5fa5 5cbd a87a 5dbd
00000040: ae5e 743c 49f4 303d 6c52 1ebc d36e 0f3c
00000050: 3abe a3bd 17aa 413d c96f 7bbd db24 37bd
00000060: 9e8a 4f3c 1f5d 65bd 0f89 38be b1b9 e5bd
00000070: 6d8b 9ebc 19b5 c73d 4663 eabd 150e 92bc
00000080: 3e6e 723d d0ca 953b 151e aebd 843a 96bd
00000090: 7ed5 5b3d 22cd e03c ad25 bfbc 3605 863b
000000a0: b1a1 4c3d 5f3e a43d e2d5 b5bd 1215 26bd
000000b0: 0cab ba3d 9b7d 27bd 42ac 49ba a52e ea3c
000000c0: 10aa ce3c 7d5f f8bd 6c9a c93d e992 babd
000000d0: 26be fa3b cbe3 aebd 39c3 c83b 875e 8b3d
000000e0: 892f 003e 8d1e df3c 3610 23be 3a58 ae3d
000000f0: 0d2a ab3d 86ca 043e d546 51bc 06f2 813c
00000100: 9646 9b3c fa97 10bc a6f5 4f3c 54a9 eb3d
00000110: 1e95 9d3c b828 0bbe 95cb 573e 812d 68bd
00000120: 098a 28bd 87dd 06bd b0a0 d6bd 0d3c 2ebe
00000130: f231 a1bd 051a be3c 5496 193c e29e 12be
00000140: 9e2d e33d 2295 1ebd b1c3 4a3d ae50 813d
00000150: 7da6 363e 2061 ab3c d829 ad3d f3ff a73d
00000160: 4f28 ac3d 80f9 a2bd 3b17 aabd 1a91 d8bd
00000170: 9ca3 dd3d da5f b03c 645e bc3a e6ed 9dbd
00000180: 8a74 c43c 2110 1b3d de55 fe3b bb9a e93d
00000190: b7f7 4c3d 8e00 5d3d 71c0 503d a73b 9fbd
000001a0: 0a4b afbc bc8b 633c 8b45 363e 1c49 a13d
000001b0: f14a 163d 6139 44bc b847 61bb e45d 1abe
000001c0: 6c19 af3b e4af ffbd f1e8 2e3e 960f cebd
000001d0: 94f0 d7b9 70ec bdbc 1689 2cbd d107 e9bc
000001e0: f918 f13d bd5a c63d 1664 bfbc 32c4 f53d
000001f0: 29ea 493d 05c6 32bd cd48 00bc b87b bfbd
00000200: 9e47 91bc c02c 103d d0fd f1b9 03f9 f5bb
00000210: 1138 85bd e95c 63bd 4487 d2bc 36e9 ea3c
00000220: 6b2f 433d 6166 223e a670 413c 1784 e0bd
00000230: 4c65 7ebc 84ef c8bd 6d0a 663d cc74 dc3d
00000240: f130 c43c d0d2 41bc 43dd f13b 7597 acbc
00000250: 3c4f 97bd 89b0 66be 461a 433d 1254 86bd
00000260: f633 ea3d 7136 d9b9 983c 7fbc 9f20 4d3d
00000270: 7881 073d debd 9f3d e2da cdbc d582 6b3e
00000280: 8ca4 473d c770 9437 13d4 56bd d3ad 05bc
00000290: cf32 2b3d b8db 2bbd b176 babd b38f 093e
000002a0: 2b2b 38bd 1b44 88bc 2a02 4d3e ed33 753d
000002b0: 8342 57bd 6979 213c 4a62 e6bc b0a8 973d
000002c0: f87c 663d 3389 8c3d 2c2b 2b3d 0971 ccbc
000002d0: a017 8c3c d9c4 02be df33 163d 9122 373d
000002e0: 8c24 9bbc f57c a7bd f4ce b7bc e43a 2dbc
000002f0: 4601 bdbb f620 bbbd 4c9d 38bd 2b9b e6bd
00000300: 1f0b bebd 547f 79be e6aa 8b3d d5e2 d5bd
00000310: e630 d43c 9081 053d b4f3 a9be 7e9f 453d
00000320: 8540 93bd 4523 e1bc b8b0 593d aa44 c8bc
00000330: 5cfd c8bb 5c32 8f3d d3cf 8dbd 0cf8 05bc
00000340: 765f 9a3d 2ffb a7bd 2efb e33d 3476 54be
00000350: 3dd6 bbbc 76c3 553d c449 8a3d add0 103c
00000360: 9727 d63d 73a4 5bbd 4840 7d3c 4e2c d73d
00000370: 3302 bf3d 3f73 a93c ca94 87bc a385 9e3c
00000380: d2a3 30bd b127 313d 0519 d33d 1e35 63bd
00000390: 1dd3 6fbd 6a53 4ebd aa0c bd3d 9711 3fbd
000003a0: 3697 5cbd 57ec 3dbd f23e aabc 3c79 253e
000003b0: 8a45 fc3c c206 fa3b e47e 1cbd d14f f73c
000003c0: 4361 f0bd 22a5 f13d bbab 9fbd ffd2 243c
000003d0: 2979 08be d5d1 5fbd 49d3 e83c 4844 dabd
000003e0: 50f5 1dbd 583a 353d 21d3 e0bb d579 5f3c
000003f0: d097 f6bd b1b1 c0bb ee8b 8fbd fb79 fdbd
0.11501172 -0.013907877 0.06298253 -0.04886291 0.02461001 0.17518353 -0.06524005 0.015490349
0.09886367 -0.09896157 -0.027174035 -0.11986718 -0.1236542 -0.12004058 -0.053868648 -0.054072052
0.0149151515 0.04320172 -0.009663206 0.00875445 -0.07995267 0.04728135 -0.061385904 -0.044712882
0.012667326 -0.05599701 -0.18021034 -0.112170584 -0.019353593 0.097513385 -0.11444716 -0.01782898
0.059187166 0.0045712963 -0.085018314 -0.0733538 0.0536704 0.027441565 -0.023333395 0.0040899767
0.04995889 0.08019709 -0.088786855 -0.040547438 0.09114656 -0.04089127 -0.000769321 0.028586695
0.025227576 -0.12127588 0.09843907 -0.09110052 0.007652062 -0.08539542 0.006126788 0.06805139
0.12518133 0.027236247 -0.15924153 0.08512922 0.0835763 0.12967882 -0.012773235 0.015862476
0.018954556 -0.008825297 0.0126928445 0.11506906 0.019236144 -0.13589752 0.21073754 -0.05668402
-0.041147266 -0.03292611 -0.104798675 -0.17015095 -0.078708544 0.023205766 0.00937422 -0.14318421
0.11092685 -0.038716443 0.049503032 0.063142166 0.17836948 0.020920336 0.08455247 0.08203115
0.08406126 -0.079577446 -0.08305212 -0.10574551 0.10822222 0.02153008 0.0014371392 -0.07711391
0.023981351 0.03785718 0.007761701 0.114064656 0.050040927 0.053955607 0.050964776 -0.0777505
-0.021398086 0.013888296 0.17799966 0.07875273 0.036692563 -0.011976571 -0.0034375023 -0.15074879
0.0053436067 -0.1248472 0.17081048 -0.100615665 -0.0004118724 -0.023184031 -0.042122923 -0.02844611
0.11772341 0.09685276 -0.023363154 0.12000312 0.04929558 -0.043645877 -0.007829857 -0.09349769
-0.017734345 0.035198927 -0.00046156207 -0.007506491 -0.065048344 -0.055508528 -0.025699265 0.028675657
0.047652643 0.15859367 0.011806643 -0.10962694 -0.015527081 -0.09811309 0.056162287 0.10764465
0.023949118 -0.011830047 0.007381113 -0.021068314 -0.0738816 -0.2252828 0.04763248 -0.06559004
0.11435692 -0.00041430027 -0.0155784115 0.050079938 0.033082455 0.07799886 -0.025128786 0.22999127
0.04874091 1.769549e-05 -0.052448343 -0.008159119 0.0417965 -0.041957587 -0.0910467 0.13433723
-0.044963043 -0.016634038 0.20020357 0.059863973 -0.052553665 0.009855607 -0.02812304 0.074052215
0.056271523 0.06862106 0.04178922 -0.024956243 0.017101109 -0.12770404 0.036670562 0.0447107
-0.018938325 -0.081781305 -0.02243755 -0.010573123 -0.005767974 -0.09137146 -0.045071885 -0.11260065
-0.09279465 -0.24364978 0.06819706 -0.104436554 0.025902223 0.032594264 -0.33193743 0.048247807
-0.071900405 -0.027482638 0.053147048 -0.024446804 -0.0061337184 0.06992027 -0.06924405 -0.008176815
0.07537739 -0.08202206 0.11131893 -0.20748216 -0.022929305 0.05218836 0.06752351 0.008838815
0.1045677 -0.053623628 0.01545722 0.10506497 0.09326591 0.020684836 -0.01655044 0.019350832
-0.04312498 0.043250743 0.103075065 -0.05547058 -0.058550943 -0.05037252 0.09230931 -0.046647634
-0.053855143 -0.04636797 -0.020781968 0.16159528 0.030794878 0.0076302 -0.03820695 0.030189427
-0.11737301 0.11799075 -0.07796427 0.010060071 -0.13327469 -0.05464347 0.028421061 -0.10657555
-0.038564026 0.044245094 -0.006861106 0.013639887 -0.12040675 -0.0058805575 -0.07009111 -0.123767816

hidden_layers.2.bias f4 [64]
00000000: 5032 53bd d68d ad3c dacb 503d eecc bdbd
00000010: 11f6 e1bd 853c c7bc b301 19bd 536c fb3c
00000020: af66 d03c 5fb4 96bd 9605 883d d05b 61bd
00000030: d5f8 33bd 61f0 31bd 8c94 63b9 9cf1 64bd
00000040: 253e 86bd c606 503d 60f0 d6bc 1d41 483d
00000050: 8303 a9bd 4fc2 0b3d 3dac 993d b7a1 a2bc
00000060: 48a5 8b3d de5e 2cbd 84ba 79bd 4e2f a03d
00000070: 8113 963d 1c63 943d ede6 a83d 31ef 0ebd
00000080: a797 b1bc 0266 0e3d 25b1 683d 52dc 8c3d
00000090: 1478 48bd a15b 1c3c 0634 71bd 7895 ff3c
000000a0: d574 22bd 01a6 0dbd 1833 a03c ae95 52bd
000000b0: 7552 8e3d b837 1f3c ac5b 92bc 2455 5b3d
000000c0: 965f b4bd ff85 cb3c b420 90bc f8da 85bc
000000d0: afb9 1e3d 6a35 5dbd c598 fbbc cd93 3bbd
000000e0: bfdf a2bd 9573 2dbd 04e3 2a3d eeef 96bd
000000f0: 1657 91bc 2997 c3bc 20c6 0d3d b7af 7b3d
-0.051561654 0.021185797 0.050975658 -0.09267603 -0.110332616 -0.02432085 -0.037355136 0.030691301
0.025439588 -0.07358622 0.066416904 -0.0550192 -0.043938477 -0.043442134 -0.00021703745 -0.05589448
-0.06554822 0.05078771 -0.026237667 0.048890222 -0.08252623 0.034120854 0.07503555 -0.019852502
0.06818634 -0.04208266 -0.06096889 0.07821523 0.07327939 0.07245466 0.082471706 -0.03489608
-0.021678759 0.03476525 0.056809563 0.0687796 -0.04894264 0.00954333 -0.058887504 0.031199202
-0.0396622 -0.03458214 0.019555613 -0.051412277 0.06949321 0.009717874 -0.017865978 0.053547993
-0.08807294 0.024844168 -0.017593719 -0.016339764 0.0387513 -0.054006018 -0.030712495 -0.04579525
-0.079528324 -0.042346556 0.041720405 -0.07369982 -0.017741721 -0.02387579 0.034612775 0.06144687

advantage1.weight f4 [64, 64]
00000000: 44a1 b3be 15a0 f0bd 8a6c 303d efc2 b0be
00000010: fc9a 9abd 2b48 cc3d 719c 863d 2a51 8d3d
00000020: 4160 3b3e b3f4 873d 76f9 0abe 6e71 29be
00000030: 56c6 ddbd 2b7a a33d a6bd 18be d826 95bd
00000040: af1f 28be b55f 9cbe 45a9 173e 400a 67bb
00000050: de9b b43d e1c6 1cbe 10ef 323d 3b84 dd3c
00000060: 3bf0 473e 3539 19be d7b9 14be f2d6 293e
00000070: dda1 6e3d 26bc a83d 590f e43c ed05 4a3d
00000080: 8cec 483e 3cb9 a53d f614 ea3b 155a 0a3e
00000090: aed4 fc3e bb55 bf3d 8121 63bd f6a5 0abd
000000a0: 139b f33d 0ceb bfbd 1738 cc3b 4ff6 bb3d
000000b0: 7d2c 033e fb47 483e 511f 893d a06d 8dbd
000000c0: acf1 db3b db1a e03c 8037 633e 0ebe 9c3d
000000d0: 6ba1 da3b 44b3 8abe 50b4 993e e0b0 e63d
000000e0: ca11 2d3c ad75 19bd 817f 8ebe 5d06 bc3e
000000f0: 2590 153e 3e4e 79be 6810 403d 8b43 96bd
00000100: cfd4 963e ea91 f7bd a578 b2bc e37c ef3d
00000110: 8dff b33d 5b20 823e 9838 7dbc 4eb2 1e3f
00000120: 5a1c 153e 71d5 ef3c fbd8 e63b 69fa 9a3d
00000130: 1b71 b93d f425 8abc f478 15bc 7109 9dbd
00000140: 853f 433d a060 7ebd 620a f9bc a75d 3e3e
00000150: 3601 9dbd 8cc8 54be 0cb3 e2bd 1b36 a5bd
00000160: 10e0 313e 1db9 90bd 29c9 3a3d f386 26bd
00000170: 9079 093c a07a d2bd 6ba8 21be 7e08 923e
00000180: d753 5a3c 33ba 483e 7018 ca3d 9a7c eabd
00000190: 86c8 b03e e25f a7bd b9ee 04be ac6e 9c3d
000001a0: 13cc c33c 1cba 4f3d 3b4d e7bc c7ff 683e
000001b0: 2030 cfbd 743a 543e 0576 143e fa1d 72bd
000001c0: b403 3d3e f2d6 a2bd b528 28be 29f8 ebbc
000001d0: 257a aa3d 5c12 b6be a80b 213e 5347 61ba
000001e0: eca6 5abd 31ac 183e 5c11 7dbe 86ef 793e
000001f0: 0973 5dbd 464b 19bd 45b9 18be b5c6 71be
00000200: 937d 35bd 1aa1 babd 5bac 803e ab45 d53c
00000210: aa02 d33d cd9d 29be 2f7a 7a3b a77f 843e
00000220: 459a 14bc 1090 45be 2761 64bd 90e7 df3c
00000230: 3f64 833e 938e 17be 1650 52be 39fc 173e
00000240: 722d c23e 8d25 9f3d f36f 9a3d 0c9e 97bd
00000250: d076 7b3e cb76 f8bd 4be0 dbbc 344c 6bbd
00000260: 91ac 2ebe 39d1 c93c b99a 05be cbde f63d
00000270: aef0 13be 3029 b5bd b0d5 b33d cb1a 953c
00000280: e9a1 cd3c 9b73 a03d 749f 10bb b431 053e
00000290: 94a6 1dbe de2d 11be 6894 32be a74b 7abc
000002a0: 0620 f63d 6e8a 823d 81fd fb3d 08bd c8be
000002b0: 4284 0e3e f491 c7bd c61c 1fbe 1ff2 c63b
000002c0: 4f70 3e3e 1831 43bd a2d2 0c3c 35db 83bc
000002d0: 0d2f 893a 46a2 be3d fbb0 61be e6f1 87bd
000002e0: 9792 3dbd bd91 0d3f 8263 83bd 4097 6ebd
000002f0: 42c3 c7bd c822 06bc 6eda d83d 2d97 113e
00000300: 5150 4f3e 16cd 94bd f307 e83a cea5 2c3b
00000310: d888 fdbd 92b7 d83d b3f3 d7bb fd98 be3e
00000320: e517 32bd 7faf 49bc 1790 223e b54c ed3d
00000330: 9f95 1a3d ec02 393d 66fb 253e 9e89 3cbe
00000340: f21b 89bd 860b 91bc 1b72 093d 4d26 c33d
00000350: 14e4 12be aaa1 dcbd 576f b3bd 2a06 10bd
00000360: 4c81 c53b d2a1 483d e5b1 533e 22f5 23be
00000370: 3e15 8dbd 7aaf aebc ba54 49be f0dd b23e
00000380: ce17 293e c63b e43d cbe8 f7bd 610b 633d
00000390: 39cf b13e 689e cbbd 6f62 c1bd bfef c23d
000003a0: cf82 da3c 6380 abbb e0b3 7cbd 2db5 833e
000003b0: c8bd dd39 4710 2a3e fb89 f23d 56ea 93bd
000003c0: fd72 1a3e 08f1 04be 6a71 c2bd acb7 6ebd
000003d0: 1a51 e43d f87d afbe c7cd 553e 60d3 6d3d
000003e0: 68e0 463d e7f6 f5bc 62ae fdbd 8198 4c3c
000003f0: 0447 06be 2914 7abd bb12 fbbb 8d56 27be
-0.35083973 -0.11749283 0.04307226 -0.34523723 -0.07549092 0.099747024 0.065728076 0.069002464
0.18298437 0.066384695 -0.13571724 -0.16547176 -0.10828845 0.07982286 -0.14916095 -0.072827995
-0.16418336 -0.3054177 0.14810665 -0.0035253912 0.08818792 -0.15310241 0.04368502 0.027040591
0.19525234 -0.14963229 -0.14524017 0.16585901 0.058259834 0.082390115 0.02783935 0.049322058
0.19621485 0.08091971 0.007143612 0.13510926 0.49381012 0.09342524 -0.055451874 -0.03384968
0.118948124 -0.093710035 0.0062322724 0.09177839 0.1280994 0.19558708 0.06695426 -0.06905675
0.006712159 0.027356556 0.2218914 0.076534376 0.0066720746 -0.27089894 0.3002038 0.11264205
0.010563323 -0.03746574 -0.27831653 0.36723605 0.14605768 -0.24346253 0.046890646 -0.073371015
0.29459235 -0.12088378 -0.021786043 0.11693742 0.08788977 0.2541531 -0.0154553875 0.6199082
0.14561597 0.029276581 0.007044909 0.07567293 0.09054776 -0.0168638 -0.009123076 -0.076678164
0.047668 -0.062103868 -0.030400459 0.18590413 -0.076662466 -0.20779628 -0.11069307 -0.080669604
0.1737063 -0.070665576 0.045601998 -0.04065604 0.008390799 -0.10277295 -0.15786903 0.28522104
0.013325653 0.1960228 0.09867942 -0.11449547 0.34527987 -0.08172585 -0.1298169 0.076382965
0.023901021 0.050714597 -0.028235069 0.22753821 -0.10116601 0.20725423 0.14498146 -0.05911062
0.18458444 -0.07951154 -0.16421779 -0.028804855 0.083240785 -0.35560882 0.15727103 -0.0008593697
-0.053381845 0.14909436 -0.24713653 0.24407777 -0.054064784 -0.037425302 -0.14914425 -0.23610957
-0.04430921 -0.09112759 0.25131497 0.026034197 0.103032425 -0.16564102 0.00382198 0.2587864
-0.009069984 -0.19293237 -0.055756714 0.027332097 0.2566242 -0.14800481 -0.20538363 0.14842309
0.37925297 0.07770834 0.07540884 -0.07403192 0.24557042 -0.12132033 -0.02684035 -0.05744572
-0.17058016 0.024635898 -0.13047303 0.12054213 -0.14447281 -0.088457465 0.08780992 0.018201252
0.025101619 0.0783455 -0.0022067698 0.13007241 -0.15395576 -0.14177653 -0.17439425 -0.015276826
0.12017827 0.063740596 0.123042114 -0.3920672 0.1391764 -0.09744635 -0.1553832 0.0060713436
0.1859753 -0.04765424 0.008595141 -0.016095737 0.0010466293 0.09308295 -0.22040169 -0.06637935
-0.046282377 0.55300504 -0.06415464 -0.058249712 -0.09754039 -0.008187003 0.10588537 0.14217825
0.20245482 -0.072656795 0.0017702564 0.0026343944 -0.123796165 0.10581888 -0.0065903305 0.37226096
-0.04347982 -0.012309908 0.15875278 0.11586896 0.037740346 0.045168802 0.16209182 -0.18411872
-0.06694783 -0.01770569 0.033556085 0.0952879 -0.14344817 -0.107730225 -0.08761471 -0.03516213
0.0060273763 0.04898245 0.2067333 -0.1601148 -0.06888817 -0.021323908 -0.19661227 0.3493495
0.16512987 0.111442134 -0.121049486 0.055430774 0.3472841 -0.09942323 -0.09442603 0.09518384
0.026673703 -0.0052338107 -0.06169498 0.25724164 0.00042293803 0.16607772 0.11842724 -0.072224304
0.15082927 -0.12982571 -0.09494288 -0.058280632 0.111482814 -0.34275794 0.20879279 0.05806291
0.048553854 -0.030024959 -0.123867765 0.012487532 -0.13113028 -0.061054382 -0.007662145 -0.1634161

advantage1.bias f4 [64]
00000000: de38 abbc c0c8 ae3d 7fd0 803d dd9c 033e
00000010: 18de 41bd 28bb 00be 8594 87bd adb7 563a
00000020: b39f 8d3d 0b5a 7c3d b891 96bd 241c ea3b
00000030: e1fb 913d 1ece a03c 7cc2 c8bd 93eb f0bd
00000040: 531a d73d ac3e 783c cc1a ac3d 9616 5ebd
00000050: 531b 243b d0ca 2f3d 9556 86bd 39c1 ac3d
00000060: d158 a5bd 4040 f8bd 5b15 f63b 079c a43d
00000070: da33 8f3c b3b5 c4bc 80eb 8d3d 48a7 553d
00000080: f038 e43c f95d 683d a880 89bd 2076 d5bd
00000090: 103c 973c 2946 93bd 8f55 b43d d4be c23c
000000a0: 269b a13c cf1c 6cbd 66ed f63c 88a3 5d3d
000000b0: 9375 833d a7cc 8ebc c029 09bc 8264 5abd
000000c0: 5bdd 183d baf9 d8bb 6e0d 763d 692d 4b3c
000000d0: 46a1 6f3d 84b3 a33d 01ad acbd b9ed 893d
000000e0: 8da1 ebbb d80c 87bc fec7 aa3b 87cb ad3d
000000f0: cf96 603c 52fa f6bd c04d 773d a93c 44bd
-0.02090114 0.08534384 0.062897675 0.12852807 -0.047330946 -0.12571394 -0.06620125 0.0008190822
0.06915226 0.06160931 -0.073520124 0.007144468 0.0712812 0.019629534 -0.0980272 -0.11763682
0.10503068 0.015151661 0.084035486 -0.05422076 0.00250407 0.042918026 -0.06559483 0.08435292
-0.08073581 -0.1212163 0.00750987 0.08037572 0.01748078 -0.024012422 0.06929684 0.052161485
0.027859181 0.056730244 -0.06713992 -0.10422921 0.018461257 -0.07191116 0.088053815 0.023772635
0.0197273 -0.05764466 0.030142497 0.054111034 0.0641891 -0.01743157 -0.00837177 -0.053318508
0.037320476 -0.0066215666 0.0600714 0.012400963 0.05850341 0.07993224 -0.084314354 0.06734795
-0.007190889 -0.016485617 0.005211829 0.084860854 0.013707831 -0.120594636 0.060376883 -0.047909413

advantage2.weight f4 [4, 64]
00000000: a68e 343e 6afa e4bd c28c 61bd 9185 06bb
00000010: 2174 683e dacf f3bd f9da a63d 12e2 143d
00000020: be07 53be b8ca 553e 6654 27be 281f ccbd
00000030: 6229 453d 4be0 d33d b06b c0bc 2854 d83d
00000040: 0e78 8abc b222 94be 2b92 fabc 3b88 7d3e
00000050: 1e85 adbd f107 a53e b66b cdbd 0aaf febd
00000060: a3ca 04be 8ca7 d03d 4e6c 013e 604f 6c3d
00000070: d30e 8c3d 29c5 0bbe ee84 abbb 100f 393e
00000080: 5302 bcbc a85c 273e 648d e5bd e81b 093d
00000090: 7143 96be 54dd 2e3e e854 673a 54ec 8b3d
000000a0: e169 3d3e 73c3 9fbe 35fa e2be 9417 953e
000000b0: 3584 443d d2a7 903d 4a8e a2bc 1698 413e
000000c0: 0e14 bd3d 60a4 00be 261e b2bc d076 4b3e
000000d0: 1075 c6bd f7c4 373e 55c4 0b3e c065 943d
000000e0: 5b41 643e 2ac2 7ebe a586 afbd acfc 95bd
000000f0: c945 ac3e 7691 ab3d 7a84 a7be 834e d0bd
00000100: 40ff cf3e d4c5 0c3e 8527 4ebe 6651 833d
00000110: 620a d9bd bdcc ee3c acab a1bd c89a e23e
00000120: 7dd8 87bd 9b0c 603e dc28 673c 871f 18be
00000130: ce96 b5bd 8539 753e ecec 723d 3db4 f739
00000140: e171 8cbd 838a cf3c c2ed 863e 682e 15be
00000150: f5e4 913e 2499 6e3e 4825 c13d b1bd 9bbe
00000160: 2531 6f3e 90b4 503c a23b f03c 1b2c 1ebe
00000170: 0d27 0f3e 19fe f7bd 763e 34be 75d5 893e
00000180: e5a1 413c 89d2 05be 0e99 c0bd dcc0 fc3d
00000190: e2c6 973e c2f4 a23e 3706 943e 586d 16be
000001a0: 5242 06bd 9c41 2f3f 42e8 6c3c dad5 9d3d
000001b0: 7238 17bc 8c2e 12be 0f9e efbd 3436 94bc
000001c0: e924 8e3e 1fe4 a93e 186e fa3d 48f0 94be
000001d0: 0d46 5cbb c35d 93bd 4645 f33d 3ba4 32be
000001e0: 3535 b73e 1cbe a93b 9d2d 1cbe e2bc 27be
000001f0: 1414 a7be 8c6e 163d 85a6 3dbe d2ed 90bd
00000200: a461 a53d 7abd 693e 5c40 d73d d674 263e
00000210: 8742 803d 99fc 7ebd 67db 1d3d 3086 c53e
00000220: 207a 0bbe fb68 a23d 819d 8a3e 964c 8ebe
00000230: 6fb3 253e c3e8 273e a47e 59bd 8893 d63d
00000240: 9f42 2c3e 48e9 5c3e 815d 5cbd 6100 613c
00000250: b79f 393e 81d8 7abe 076f 493e 3ee5 5cbe
00000260: f7aa 413e bc5f 923d 2320 1c3e e441 2d3e
00000270: bac8 12be 4174 c13e 4b97 b13d 4c07 c4bd
00000280: 3531 803e b7d9 d7bd 444d b63d 30c2 7a3d
00000290: 3a86 80be 0b83 423c 4fef a7bd f334 d6bd
000002a0: f2c6 f13d 9f1e 7bbe ea3b 01be b08d ff3d
000002b0: cc57 a2ba 55dc 7a3d bad7 afbd eb38 62bd
000002c0: b5fe 203e ba5b 8d3e 49b6 79be 070d 033e
000002d0: 0cb1 853d d6fb 0cbb 497c b8be 409b 9a3e
000002e0: d020 d53d 07a3 2f3e 5dc4 b93e d054 7cbd
000002f0: 69de 13be a634 fc3d 8cd2 84bc 7816 a1bc
00000300: 5f98 c0be 3bae 2abe ef07 ff3d eca2 0ebe
00000310: 4820 c53e b324 6ebc cd58 ccbd 912c 8bbe
00000320: 2fd6 3ebe fb08 663e 3bbb a93e 1b9a 643e
00000330: 4a23 d2bc 4b3d 7b3d 6442 70bd 0c8b b23d
00000340: 4b29 bb3d b12d 4a3e f5b2 173e e63e 723e
00000350: d919 23be e92f c43c 798c 86be 2a58 9cbd
00000360: 482e b13d 7cdb ef3d b134 243e 4afd cebd
00000370: b15e 4abe 5680 ea3c e18d ef3d ebe3 693e
00000380: 6225 0bbe a39d 053e ce1c d2bd 00f6 8339
00000390: a38b 7abd 4d71 72bd 46d8 e0bd 338a 3fbe
000003a0: eaaa 6bbe ae78 54be b891 113c eb26 77bd
000003b0: 1e58 86be dc1f 083e 8d55 183e 6042 023d
000003c0: 124c 163e aee8 03bd 3ca7 ba3d f6cf a9be
000003d0: 91ea 1b3e 1444 bebd 4a6a 063e 01e4 f4bd
000003e0: b008 a9bd 563d 963d 0fb6 b43e 65ab 9b3d
000003f0: b262 7b3e d0bc f83c 6085 88bc b5da 84bd
0.17632541 -0.11180575 -0.055065878 -0.002052639 0.2270055 -0.11904879 0.081472345 0.03634841
-0.20608422 0.20878112 -0.16340789 -0.0996688 0.04813517 0.10345515 -0.02348885 0.105629265
-0.01690295 -0.2893272 -0.030587276 0.24758999 -0.08472656 0.3223262 -0.1003031 -0.1243573
-0.12967925 0.10188207 0.12638971 0.057692885 0.06838765 -0.1364943 -0.0052343523 0.18072152
-0.022950327 0.1634394 -0.11208609 0.03347388 -0.2934833 0.17076617 0.00088246027 0.068321854
0.18497421 -0.31203803 -0.44331518 0.2911955 0.047977645 0.07063259 -0.01984324 0.18905672
0.09232341 -0.12562704 -0.021742892 0.19869542 -0.09690297 0.1794623 0.13649113 0.0724597
0.22290556 -0.24878755 -0.08570603 -0.07323584 0.33646992 0.08377354 -0.3271826 -0.10171225
0.40624428 0.1374734 -0.20132263 0.0641201 -0.105976835 0.029150361 -0.07894072 0.44258714
-0.06633089 0.21879809 0.014108863 -0.14855777 -0.08866654 0.23947723 0.059307978 0.000472458
-0.06857658 0.025334602 0.2635327 -0.14568484 0.28494993 0.23300606 0.09430939 -0.3041816
0.23358591 0.012738362 0.02932531 -0.15446512 0.1397974 -0.12109012 -0.17601952 0.26920667
0.011818384 -0.13068594 -0.09404193 0.123414725 0.29643923 0.3182736 0.28910992 -0.14690149
-0.03277809 0.68459487 0.014459671 0.077068046 -0.009229766 -0.14275569 -0.11700069 -0.018092252
0.27762535 0.33181855 0.1222803 -0.2908957 -0.003361109 -0.07195618 0.11878447 -0.17445461
0.3578278 0.0051801335 -0.15251775 -0.16380647 -0.32632506 0.03672652 -0.18520553 -0.070766106
0.08075264 0.22826186 0.105103225 0.16255507 0.06262689 -0.062252615 0.038539317 0.3857894
-0.13620806 0.0793018 0.2707329 -0.27792805 0.1618173 0.16397385 -0.05309929 0.10477358
0.16822289 0.21573365 -0.05380011 0.0137330005 0.18127333 -0.24496652 0.1967126 -0.21571824
0.18912874 0.07147166 0.15246634 0.16919667 -0.14334384 0.37784007 0.08671435 -0.09571704
0.25037542 -0.10539573 0.08901456 0.061220348 -0.25102407 0.011872063 -0.08199941 -0.10459318
0.11805524 -0.245234 -0.12620512 0.124781966 -0.0012385785 0.06124528 -0.085860685 -0.055230062
0.15722163 0.27609044 -0.24385943 0.12797938 0.0652791 -0.002151241 -0.36032322 0.3019657
0.10406649 0.17152034 0.36282626 -0.06160432 -0.14440311 0.123147294 -0.016213678 -0.019664034
-0.3761625 -0.16668026 0.12452685 -0.13929337 0.3850119 -0.014535117 -0.09977875 -0.2718244
-0.18636392 0.22464363 0.33150658 0.22324412 -0.025651593 0.06133775 -0.058657065 0.08717927
0.091387354 0.19743992 0.1481436 0.23656806 -0.15927829 0.023948627 -0.26279047 -0.076340035
0.086514056 0.11711785 0.16035725 -0.10106905 -0.19762684 0.028625648 0.11696983 0.2284085
-0.13588479 0.13048415 -0.102594 0.0002516955 -0.061168324 -0.059190083 -0.10978751 -0.18705063
-0.23014417 -0.2074916 0.00888484 -0.06033985 -0.26239103 0.13293403 0.14876385 0.03180158
0.14677456 -0.032204323 0.09113929 -0.33166474 0.15226199 -0.092903286 0.13126484 -0.11957551
-0.0825361 0.07335918 0.3529515 0.0760105 0.24549368 0.03036347 -0.01666516 -0.064870276

advantage2.bias f4 [4]
00000000: 089c 9b3d 6e66 553d 5f74 8bbc 5a94 723c
0.0759812 0.052099638 -0.017023263 0.014805878

value1.weight f4 [64, 64]
00000000: 9010 1e3e 2e89 ff3d 0c75 b1bc 361e 70be
00000010: acef c93d 2315 363d 1f53 013e ef79 d7be
00000020: dc34 003d b1d7 10be 8f98 f83d b1ca 773d
00000030: 20b6 0bbe b930 1dbe e179 d83e 6e59 a03e
00000040: 1054 c03d ea7a 903d bd72 1dbd 3d22 9ebd
00000050: 4979 c5bd f533 40bc 902d b93d 6257 003b
00000060: fb95 353e 2b98 06be 1086 f0bc e3b9 413e
00000070: 37b3 e53b 7727 8d3d 2277 aebd cd67 553e
00000080: f3cd 113e 19a8 c2bc e9b0 823d aafb ec3d
00000090: e19f c33d 344a c23d 8d5c 233e 7e63 443e
000000a0: 2e7a 01bd 2617 4ebd 6ad9 babc c7e8 a2bd
000000b0: 7030 153e 9e7e 873e 28f2 463d 2e13 753e
000000c0: d660 583d 0a38 9dbe e0a7 57bd 21ee 13bd
000000d0: 8fbf 8fbd 8363 babe 4d16 f5bc 7b17 663e
000000e0: 3f2c debc f4a8 af3e aab6 1b3c 03c5 7ebd
000000f0: 81d0 bbbb 27db c43d dfbf 90bc 4a11 1c3e
00000100: 89f7 773e 9ddb a33d 99da 8a3c faad 89be
00000110: 07aa 923d 7bda 5fbd 74c8 a2bd 67e2 aabe
00000120: 63fb 963d 05f0 3bbe 5aeb f03d 3e58 3b3e
00000130: d3ca b0bd fa89 8f3d 1f4f d13e 5ff9 c43d
00000140: fba2 7a3d 7dd7 82bd e21b 8a3d 7868 aa3c
00000150: 7c7a 6dbc 62bf 0a3c 9aed 96bd bc3d 57bd
00000160: bf29 fb3d a971 c7bc f50a d33d 16d8 ea3d
00000170: f840 6d3d 0ce0 5a3d 017c f73d 30d6 a13d
00000180: 0908 4ebd 2265 e73c 24fd f3bc b6d4 94bd
00000190: 6a36 bc3d 4332 b53d 0e31 6b3e fb44 333e
000001a0: aaad 983d cccd d53d c702 443e 279a 15be
000001b0: 7ca3 ef3d 53ee 883e 1097 b33c 9d9f ba3d
000001c0: c4da 413e 661b adbe eadc 943c 544e 133e
000001d0: d277 bfbd 3517 d4be 4454 183e 395e a43d
000001e0: bd64 d33c d0b8 923e fe36 5d3e 93ff b43a
000001f0: 86e3 e23d 0d52 243d 9a11 0ebd 7fae 05bd
00000200: b910 4c3d 4032 fb3c 08b4 44be 83eb 61be
00000210: 39cc dfbc b0e6 0e3e 46c2 86bd 637e dbbe
00000220: 8a9a 29bd 6d89 69be 4c35 26bd 16b9 493e
00000230: 401e 67bd 6dc3 acbd 2289 9d3e e9d1 1b3e
00000240: ef1c 603e 539d c0bc d453 d9bd d756 18bd
00000250: 9ee0 273d 8274 0cbe 2028 c73d 1700 2cbd
00000260: b82c 9fbb 37ac d0bd 108d 223e a8b2 163d
00000270: 7806 6ebd 71b2 b43d 7c42 0c3e dbd0 2b3e
00000280: 2a6b 083e 5f29 f4bd 0cd4 ffbc 567a 32bb
00000290: 5af1 5b3e 0e2c 9d3e f3ec 003e 68f1 fabb
000002a0: 6eb1 d63d 9c49 82bc 68bf 85bc c12d 8fbd
000002b0: 2239 1c3e 6a43 443e ed16 2c3d 9e3a 6b3e
000002c0: ee09 083d 855d c1be c4c2 d4bd 2186 9d3b
000002d0: 68df 7f3d 87e3 6bbe 51d3 c53c 1c34 6b3e
000002e0: 6312 9bbd 49b3 263e aa34 9ebc ff24 a63c
000002f0: 3bff d5bd 74d3 793d 7cb4 233d cba2 1cbd
00000300: ea63 c43d 41a9 e8bd be5c e1bc a982 b5bd
00000310: db33 de3a 6e5f 4fbd f2e6 043e 3c9c d6be
00000320: d7a5 7bbd 9e38 07be 7e08 e23d 23bb 823d
00000330: 6510 9fbc bcd0 b53c 1cdf b23e aa55 6c3e
00000340: 21ff 023e ccc5 7b3d be23 223d 5145 a43d
00000350: 3ae4 09bd 27fc 7cbb 099d 003e bb7f b33d
00000360: b801 583d c81c ecbd 281f 443b 3fdf 913d
00000370: 6703 5cbd 95c5 153e 3a72 903d a9ec d8bc
00000380: 4c9e 803d d5fa 9bbb 151e e3bd 45c2 b43c
00000390: 924e 553e a2cd 8d3e e0a9 853d c7f7 083e
000003a0: a10a 73bd acdd 833d 5d04 e73d c896 1fbe
000003b0: e909 2a3e e2a3 863e 39d9 363e a082 543e
000003c0: e516 dc3d 2c0d 97be c411 44be b62d ac3d
000003d0: eb38 11bd cceb 48be 6bdd c43d e71c 8b3e
000003e0: d061 07bc 5d76 503e f1cc c93d 8f0b 9abc
000003f0: c0dd 443d c09e b23d c7b4 08bc f209 e53d
0.15436006 0.12477337 -0.021662258 -0.23449025 0.09860167 0.04445375 0.12629364 -0.42085215
0.03130041 -0.1414478 0.12138473 0.060496036 -0.13643694 -0.15350617 0.42280486 0.3131823
0.09391034 0.07054694 -0.0384395 -0.07721374 -0.09642274 -0.0117311375 0.090418935 0.0019583334
0.17732994 -0.13143985 -0.029360801 0.18918566 0.0070098895 0.06892293 -0.085188165 0.20840378
0.1423872 -0.023761796 0.06381399 0.115714386 0.09551979 0.094868094 0.15953274 0.19178578
-0.03161066 -0.050315045 -0.02280875 -0.07954555 0.14569259 0.2646379 0.048570782 0.23933098
0.052826725 -0.30706817 -0.052650332 -0.03611577 -0.07018959 -0.36404046 -0.02991786 0.22469895
-0.027120708 0.34308589 0.009504 -0.062199604 -0.0057316427 0.096121125 -0.017669616 0.1524097
0.24215521 0.08000872 0.016949939 -0.26890546 0.071613364 -0.05465172 -0.0794839 -0.33375856
0.07372167 -0.18353279 0.1176364 0.1829538 -0.08632436 0.07008739 0.40880677 0.09617876
0.061190587 -0.063887574 0.067435995 0.020801768 -0.014494535 0.008468481 -0.07369538 -0.05254911
0.12263822 -0.02434619 0.10304824 0.11466996 0.057923287 0.053436324 0.12084199 0.07902181
-0.05030063 0.028246466 -0.029783793 -0.07267134 0.09190066 0.08847477 0.22967932 0.17506783
0.07454999 0.10439643 0.19141684 -0.14609586 0.11701104 0.26744327 0.021922618 0.09112475
0.18931109 -0.33809966 0.018171746 0.14385349 -0.09349026 -0.41423956 0.14875895 0.08025784
0.025804872 0.28656626 0.21603009 0.0013809077 0.11078553 0.040117312 -0.034684755 -0.032637116
0.049820635 0.03066361 -0.19209301 -0.22062497 -0.02731906 0.13955188 -0.065800235 -0.42869863
-0.041407146 -0.2280633 -0.04057817 0.19699511 -0.056425333 -0.08435712 0.30768687 0.15216793
0.21886037 -0.023512518 -0.10611692 -0.037192192 0.040985696 -0.13716319 0.0972445 -0.041992273
-0.004857626 -0.101890974 0.15874124 0.036791474 -0.058111638 0.088230975 0.13697237 0.16778891
0.1332213 -0.119219534 -0.031229042 -0.0027233562 0.21478787 0.30697674 0.12590389 -0.0076581724
0.10483061 -0.01590424 -0.016326621 -0.06991149 0.1525617 0.19166341 0.04201405 0.2297158
0.033212595 -0.37766662 -0.10388711 0.004807249 0.062468916 -0.23036014 0.024148615 0.22969097
-0.07571866 0.1627933 -0.019312222 0.020281313 -0.10449072 0.060992673 0.039967045 -0.03824119
0.095893696 -0.113604076 -0.027510043 -0.08862812 0.001695271 -0.05062812 0.12978724 -0.41916072
-0.061437454 -0.13205191 0.11036776 0.0638335 -0.019416997 0.022194259 0.34935844 0.23079553
0.12792636 0.06146793 0.039584868 0.080210336 -0.03366492 -0.0038602443 0.12559904 0.08764597
0.052736014 -0.11528927 0.0029925797 0.07122659 -0.053714182 0.14626153 0.07053037 -0.026480036
0.06280193 -0.004760126 -0.11089722 0.022065291 0.20830753 0.27695948 0.06526542 0.1337577
-0.05933631 0.06438765 0.11280129 -0.15584862 0.16605343 0.26296908 0.17856301 0.20752954
0.10746554 -0.29502237 -0.19147402 0.08407156 -0.03545467 -0.196212 0.096125446 0.27170488
-0.008263066 0.20357652 0.098535426 -0.01880434 0.04806304 0.087216854 -0.008343882 0.111835375

value1.bias f4 [64]
00000000: 9b31 1abd 9810 adbd fb56 3d3d 26fd e83c
00000010: 5f59 01be 79f6 25bc 9eee 0abe f76d c53c
00000020: 2d9a 773c 4c57 aebc a901 17bd 77ac 093c
00000030: 0afe 07be a8f0 ffbc cd5a 35bb 8527 343c
00000040: 52f0 a7bc b6a8 25bd 76e5 2e3d 030e 94bd
00000050: c3cd 153c 16d7 ffbc 8d9a 5cbd 4731 af3c
00000060: 58f5 8a3d 14cc 163d 1380 bdbd b1da 6abd
00000070: 0126 ffbd 565d 463d 9228 163d cf32 dfbd
00000080: 1c48 a9bd 50f1 c4bc 98f4 683d 42a3 abbc
00000090: 6f4b 49bd d728 debd c6ab 823d 4e32 f3bd
000000a0: a795 01be db90 023d 16f7 88bd d024 8d3d
000000b0: 6bc5 a5bd ad41 2e3d 5f1b 333d 4880 2a3d
000000c0: 920c 16bd 2b9d c9bd d915 0a3d 48f3 21bc
000000d0: c436 97bb a246 70bd d798 4bbc 1cfd 67bc
000000e0: 6e05 0b3e f0ed 9d3d 683d 8fbc acfd bbbd
000000f0: abf8 bdbc b364 1a3c 9fd3 3abb 869d c1bc
-0.037644964 -0.08450431 0.04622553 0.028441023 -0.12631749 -0.010129564 -0.13567588 0.024100287
0.015112442 -0.02128186 -0.036866818 0.008402935 -0.13280502 -0.031242684 -0.002767253 0.01099575
-0.020500336 -0.0404441 0.0426993 -0.07229235 0.009143296 -0.03123049 -0.05385833 0.021385802
0.06785077 0.036815718 -0.09252944 -0.057337467 -0.124584205 0.048428856 0.036659785 -0.10898363
-0.08265707 -0.024040848 0.056873888 -0.02095187 -0.049144205 -0.10847633 0.063804194 -0.11874829
-0.12654744 0.031876426 -0.06687753 0.06891787 -0.08094295 0.042543102 0.043727275 0.041626245
-0.03663308 -0.098444305 0.03371224 -0.009884663 -0.004614683 -0.05866111 -0.012426577 -0.014159467
0.1357629 0.077113986 -0.017485335 -0.091792434 -0.023189863 0.009423423 -0.0028507484 -0.023634683

value2.weight f4 [1, 64]
00000000: ed96 8c3e 4472 d33d 7160 383e 19ce 113e
00000010: f696 10be 4977 01be 7d76 0fbe 3389 05be
00000020: 8705 483e 954e e8bd 61bb 22be c327 4dbe
00000030: 4d87 1cbe d191 3b3e 7b19 3bbe d056 1abe
00000040: 7a23 5cbe c344 3c3e 7716 213e 8ce1 49be
00000050: f70a 723e 20d5 003e 38c9 343e 6b2d 9a3d
00000060: 7ec2 b33d 83aa 03be 987d 133e 3c60 c9bd
00000070: bbf7 37be 6b5f fdbd 6235 b1bd e15e 06be
00000080: 4663 303d b9a3 36be 6a41 a4bd 3726 4cbe
00000090: d980 edbd 24c3 b6bd 3a82 5b3e e7d7 05be
000000a0: 73e3 dbbd 06a0 edbd 1ff4 21be f9f8 443d
000000b0: 7206 593d b7c0 c6bd 5c9c eebd 1250 f2bd
000000c0: 0e4a 55be cd7e 86bd 1919 eb3d 19a5 ea3d
000000d0: 35e9 073e 0c83 52be 3752 073e 0c75 3c3e
000000e0: 4377 ed3d 5a4b d23d 1b90 51be 2ac2 bf3d
000000f0: 7e9c 063e 3404 c2bd b1a7 31be bdf0 f0bd
0.27458897 0.10324529 0.1800554 0.14238776 -0.14120087 -0.1264316 -0.14010043 -0.13040619
0.19533359 -0.11343113 -0.15891792 -0.20034699 -0.15285988 0.18317343 -0.18271439 -0.15072179
-0.21497908 0.18385606 0.15731226 -0.19714946 0.23636995 0.125813 0.17654884 0.07528194
0.08777331 -0.12858014 0.14403379 -0.098328084 -0.17965595 -0.12371715 -0.0865276 -0.13122131
0.043063425 -0.17835893 -0.08020289 -0.19936453 -0.11596841 -0.08923939 0.21436396 -0.13070641
-0.10736742 -0.11602788 -0.15815781 0.048089 0.052984662 -0.09704726 -0.11650917 -0.118316785
-0.20829031 -0.06567154 0.114793964 0.11457271 0.13272555 -0.20557803 0.13214956 0.18404025
0.11595013 0.102682784 -0.20465128 0.09363206 0.13145635 -0.09473458 -0.17349125 -0.11764667
